resources/participants_model/participant_1/session_2_lite_models/indexpen_model_quant.tflite (tflite, 412752 bytes, 45 tensors)

model/time_distributed_3/conv2d_1/BiasAdd;model/time_distributed_11/conv2d_3/Conv2D;model/time_distributed_3/conv2d_1/Conv2D;model/time_distributed_3/conv2d_1/BiasAdd/ReadVariableOp/resource f2 [16]
00000000: c1b2 4ab1 21a6 69a9 5f30 33ac 3db0 48a4
00000010: cdad f0af bca1 30aa 9db1 3cb2 de2b e2af
-0.211 -0.1653 -0.02394 -0.04227 0.1366 -0.0656 -0.1324 -0.01672
-0.09064 -0.124 -0.0112 -0.04834 -0.1754 -0.1948 0.06146 -0.12317

model/time_distributed/conv2d/BiasAdd;model/time_distributed_8/conv2d_2/Conv2D;model/time_distributed/conv2d/Conv2D;model/time_distributed/conv2d/BiasAdd/ReadVariableOp/resource f2 [8]
00000000: 221a c61d 249c 5f23 832c 661d a531 c61f
0.002995 0.00564 -0.004044 0.0144 0.0705 0.005272 0.1764 0.00759

model/time_distributed_11/conv2d_3/BiasAdd;model/time_distributed_11/conv2d_3/Conv2D;model/time_distributed_11/conv2d_3/BiasAdd/ReadVariableOp/resource f2 [16]
00000000: 3592 bb2d 949f 802b fd2a 70a2 1b98 882b
00000010: d39c 0ca1 1b20 86a7 af26 dc98 de1a 93ac
-0.0007577 0.08954 -0.0074 0.0586 0.0546 -0.01257 -0.002005 0.05884
-0.00471 -0.00986 0.00802 -0.02939 0.02611 -0.002373 0.003353 -0.0715

model/time_distributed_8/conv2d_2/BiasAdd;model/time_distributed_8/conv2d_2/Conv2D;model/time_distributed_8/conv2d_2/BiasAdd/ReadVariableOp/resource f2 [8]
00000000: 1a2c e724 33a3 4d22 a6a0 bc30 fc23 741f
0.0641 0.01915 -0.01406 0.01231 -0.00908 0.148 0.015594 0.00728

model/time_distributed_3/conv2d_1/Conv2D f2 [16, 3, 3, 8]
00000000: ff2d 5dab d396 7db4 a19f 0627 faaa 2da8
00000010: ac9c fca6 a2a7 242a ed2d 8e2a 1432 9ca8
00000020: 312b d9a9 3ea7 ae9b 3db1 1baa 58a4 ec9a
00000030: 7195 ceac cba4 2aad 00ac 2929 e730 a526
00000040: bba8 241d a0a4 be34 a0ae 9929 6c1c 0125
00000050: 0da6 1d23 0126 26ae e226 b9aa 36b3 bba0
00000060: 9ba3 e229 272c ee2a 3eac 50a0 d52e 92a6
00000070: 64a4 3527 31a2 54b0 5cae eaa9 7434 4399
00000080: 16a4 6ba0 0aa8 d9ad 60a0 2814 8037 80a8
00000090: c525 ae25 d3ad 33b0 862d c2a2 d4b4 962c
000000a0: de2a 2015 d2a6 cba9 9c2d 44a6 51a9 3621
000000b0: da9c b4a2 5e2a c3aa 20b1 8c29 ea34 e9ab
000000c0: 1724 9626 4ba9 d631 0928 331e 5ab1 a127
000000d0: 02ae e31c 7225 c29f 952c 5d18 60b5 8a25
000000e0: a9ae 8b24 8026 6aaf 2424 ee2d 4034 c0a1
000000f0: 6623 4d27 5b23 98ab 1831 2c2a 7a28 c5a6
00000100: 9a23 5aa1 f725 58b0 06b0 2625 5e32 5b2a
00000110: fd22 85a5 7caa 6122 0bb0 3f25 f035 8825
00000120: 64ac 149f 2620 82af cab0 8ca4 1cb1 2e27
00000130: 2ba9 05a2 b3ab a6aa b320 522b c731 9f27
00000140: 25a9 3bac f920 eb2b 13a4 252d 05b1 0ca8
00000150: c8a1 c225 0ca4 1e31 55b3 c31f a2b5 192c
00000160: 86a8 872c 89a8 56ac e4aa 4724 8cb5 3726
00000170: 9e1d 2ba8 2c28 e232 8625 cb9f 78b0 c32b
00000180: 7d21 f7a2 d7a8 82b0 c124 f826 f62a 239e
00000190: fe9e 0b28 85a0 1eb6 edb2 2724 d130 a515
000001a0: 8e9f 28a1 e29e 9ea2 d9b5 8ba9 7d32 042b
000001b0: d5a5 e92c 24a6 ffac db2c 6428 4629 5e18
000001c0: 23a8 b326 90a6 0b30 adb0 0aa8 84b1 4928
000001d0: 8dab 7219 8025 aab3 0ea8 9918 212c afa9
000001e0: 9628 9199 8ea6 d720 7a9e 9424 f21f c72a
000001f0: ce2a 5829 e394 21ad acb0 3928 bdb0 521c
0.0937 -0.05753 -0.001666 -0.2805 -0.00745 0.02744 -0.0545 -0.03262
-0.004562 -0.02728 -0.02982 0.04797 0.0926 0.0512 0.19 -0.036
0.05618 -0.0457 -0.02829 -0.00375 -0.1637 -0.0477 -0.01697 -0.00338
-0.001328 -0.0751 -0.01872 -0.0807 -0.0625 0.0403 0.1532 0.02596
-0.03696 0.00502 -0.01807 0.2964 -0.1035 0.04373 0.00432 0.01955
-0.02364 0.01389 0.02345 -0.09607 0.02689 -0.05252 -0.2253 -0.00924
-0.014854 0.04596 0.0649 0.05414 -0.0663 -0.00842 0.10675 -0.02567
-0.01715 0.02815 -0.01209 -0.1353 -0.09937 -0.0462 0.2783 -0.00257
-0.01596 -0.00863 -0.03156 -0.0914 -0.008545 0.001015 0.4688 -0.03516
0.02254 0.02219 -0.091 -0.1312 0.0863 -0.0132 -0.3018 0.07166
0.05365 0.001251 -0.02664 -0.04526 0.08765 -0.02448 -0.04153 0.01018
-0.004738 -0.01309 0.04974 -0.05283 -0.1602 0.04333 0.3071 -0.0618
0.01598 0.02573 -0.04135 0.1824 0.03152 0.006054 -0.1672 0.0298
-0.0939 0.004772 0.02127 -0.007576 0.0716 0.00213 -0.336 0.02164
-0.10406 0.01775 0.02539 -0.11584 0.01617 0.09265 0.2656 -0.01123
0.01445 0.02852 0.014366 -0.05933 0.1592 0.04822 0.03497 -0.02644
0.01485 -0.01045 0.0233 -0.1357 -0.1257 0.02011 0.199 0.04965
0.01365 -0.02156 -0.05066 0.01246 -0.1263 0.0205 0.371 0.0216
-0.0686 -0.006912 0.0081 -0.1173 -0.1497 -0.01776 -0.1597 0.02805
-0.04037 -0.01176 -0.06015 -0.05194 0.00918 0.0572 0.1805 0.02977
-0.0402 -0.0661 0.00971 0.06186 -0.01591 0.0804 -0.1569 -0.03162
-0.01129 0.02249 -0.01581 0.1599 -0.2291 0.00758 -0.352 0.064
-0.03534 0.07074 -0.03543 -0.06775 -0.05383 0.01671 -0.3467 0.02428
0.005486 -0.03256 0.0326 0.2151 0.02158 -0.00761 -0.1396 0.06064
0.01072 -0.0136 -0.0378 -0.1409 0.01857 0.02722 0.05438 -0.005993
-0.00683 0.0316 -0.00883 -0.3823 -0.2164 0.01622 0.1505 0.001378
-0.007378 -0.01007 -0.00672 -0.012924 -0.3655 -0.0433 0.2028 0.0548
-0.02278 0.0767 -0.02399 -0.07806 0.07587 0.0343 0.0412 0.002132
-0.03232 0.02617 -0.02563 0.1263 -0.1461 -0.03156 -0.1724 0.03348
-0.059 0.002659 0.02148 -0.2395 -0.03168 0.002245 0.0645 -0.0444
0.03583 -0.002718 -0.0256 0.00945 -0.006325 0.01788 0.00776 0.05295
0.05316 0.04175 -0.001193 -0.08014 -0.146 0.033 -0.1481 0.00422

model/time_distributed/conv2d/Conv2D f2 [8, 3, 3, 1]
00000000: d616 6199 8c17 821d 7f19 c511 8414 e997
00000010: e098 3b12 dc91 c110 170b 4791 1292 0b0c
00000020: f290 be12 549d 2c98 f894 041c 5f1b ff86
00000030: 649d 551d c117 571d bf20 4317 d70e 3ca0
00000040: 118a eb91 000c f925 3a99 7f81 bb18 e89d
00000050: e519 b49c a528 1618 1ca0 1d94 8198 a818
00000060: e794 9d98 c398 ff89 5c98 ee96 2d1e 2010
00000070: 741c b094 ec9e 580e 26a1 7aa7 9619 b390
00000080: b20c 7816 8a11 4416 3113 7b99 b095 c61a
0.001669 -0.002626 0.0018425 0.00538 0.002684 0.0007043 0.001102 -0.001931
-0.00238 0.0007606 -0.0007153 0.0005803 0.0002164 -0.000644 -0.000741 0.0002468
-0.0006037 0.000823 -0.005203 -0.002037 -0.001213 0.00392 0.0036 -0.00010675
-0.005264 0.005207 0.001893 0.005215 0.00927 0.001773 0.0004175 -0.00827
-0.0001851 -0.0007224 0.0002441 0.02333 -0.002552 -2.28e-05 0.00231 -0.005768
0.002878 -0.004593 0.0363 0.001995 -0.008026 -0.001004 -0.0022 0.002274
-0.001197 -0.002253 -0.002325 -0.000183 -0.002129 -0.001692 0.00603 0.0005035
0.00435 -0.001144 -0.00676 0.0003872 -0.010056 -0.0292 0.002728 -0.0005736
0.0002866 0.001579 0.000676 0.00153 0.000878 -0.002676 -0.001389 0.003307

model/time_distributed_11/conv2d_3/Conv2D f2 [16, 3, 3, 8]
00000000: 9132 e41e 2420 8a23 81b5 abb4 6aaf 51ab
00000010: 9f23 4a25 9223 b6a2 0bb5 9e33 d4b0 45aa
00000020: ffae 8522 8f1c e298 74b5 222a 802d 24a5
00000030: d4b2 78a5 6626 05a9 0128 9030 2fb5 4fa3
00000040: 4d29 61a9 171a 69a2 b91a 879b 052e a028
00000050: 5026 dba0 a29e 7ba5 1ca0 c9b3 c42d d52a
00000060: 8121 4ca9 cc25 0e21 63a5 6cae 8fb1 5da9
00000070: 04a8 292a 271d af28 612c 4924 58a7 99a9
00000080: 7b28 ae20 0721 ce2a 3c35 f8a6 39b5 7e2b
00000090: df37 dc26 ce1d 652c b632 89ae 4fb5 3c0d
000000a0: 3e25 fda3 ba99 6dac b5b0 6831 1daf dda6
000000b0: 78b7 0ca1 9224 5ca7 5cb6 44b0 0035 8422
000000c0: aeb4 3ca6 f928 6fa5 34b6 9332 d6b3 1525
000000d0: 0b32 fe91 ce29 2b2c 63b4 a1b4 abb1 5fae
000000e0: 982d 73aa cfa5 69a0 6134 891c 1112 c327
000000f0: 7f31 49aa b728 9924 412d 8c31 0cb3 5b1a
00000100: bfb2 8ba7 b52c 18ac f7ae 2cb0 2baf 4cae
00000110: 3baf 7fab 1125 9c28 f2b5 13b0 d32d c3ac
00000120: 0712 5018 041d 049a 0996 8815 6c81 0c91
00000130: c011 b617 051d 0b9a fd94 cf18 d41a 6591
00000140: 2e8e 3616 281d f999 4e83 281c 9199 7292
00000150: 2f1c ac1a de10 e590 c614 601e 5b18 0013
00000160: 0c11 7019 e915 6990 071c 3c1d 29a0 3e18
00000170: 789c 3818 e718 b190 9020 ca16 4f04 dc1a
00000180: 8518 861e 9e11 e61b 07a0 979e f519 7497
00000190: ae1c bc1e 6914 5f1c 6a9f 5a9f 9097 1198
000001a0: 2fa1 be1e ee15 b31c c899 f39d a798 2197
000001b0: 5fb2 82a5 b129 ce22 0f2d 14a8 59b3 8027
000001c0: 8b32 eca6 0e29 0222 192c 4c1c 38b4 2725
000001d0: 541f 57a5 4828 b1a0 9eaf ac2f 1531 1d24
000001e0: 0336 faa2 481d cd2c 0cb5 d931 44af 5a27
000001f0: 00ae 231b ee98 b024 f2ad 1129 0caf 93a4
0.2052 0.00673 0.00809 0.014725 -0.344 -0.2917 -0.11584 -0.05716
0.014885 0.02066 0.014786 -0.01311 -0.3152 0.238 -0.1509 -0.04898
-0.1093 0.01273 0.00445 -0.002384 -0.3408 0.0479 0.08594 -0.02008
-0.2134 -0.02136 0.025 -0.0392 0.03128 0.1426 -0.324 -0.014275
0.0414 -0.04202 0.002974 -0.01252 0.003283 -0.003675 0.09406 0.03613
0.02466 -0.00948 -0.006477 -0.02141 -0.008026 -0.2433 0.0901 0.05338
0.01075 -0.04138 0.02264 0.00987 -0.02104 -0.10034 -0.1737 -0.0419
-0.03137 0.04813 0.00503 0.0366 0.0684 0.01674 -0.02869 -0.04373
0.035 0.00914 0.00982 0.05316 0.3271 -0.02722 -0.3264 0.05853
0.492 0.0268 0.00567 0.06866 0.2097 -0.1021 -0.3318 0.0003195
0.02048 -0.0156 -0.002796 -0.06915 -0.1471 0.169 -0.11115 -0.02681
-0.4668 -0.00986 0.01785 -0.02875 -0.3975 -0.1333 0.3125 0.012726
-0.2925 -0.02435 0.03885 -0.02122 -0.3877 0.2054 -0.2449 0.01985
0.1888 -0.0007315 0.04535 0.0651 -0.2742 -0.2893 -0.1771 -0.09955
0.0874 -0.05038 -0.02269 -0.00861 0.2737 0.00443 0.0007405 0.03032
0.1718 -0.0491 0.03683 0.01796 0.0821 0.1733 -0.2202 0.003103
-0.2108 -0.02946 0.07355 -0.06396 -0.1088 -0.1304 -0.112 -0.0984
-0.113 -0.05856 0.01979 0.036 -0.3716 -0.1273 0.091 -0.0744
0.0007358 0.002106 0.004898 -0.002937 -0.001473 0.00135 -2.17e-05 -0.000616
0.000702 0.001883 0.0049 -0.00295 -0.001218 0.002348 0.003334 -0.0006585
-0.0003772 0.001516 0.005035 -0.002916 -5.04e-05 0.00406 -0.002718 -0.000787
0.004086 0.003258 0.000594 -0.0005975 0.001165 0.006226 0.002127 0.0008545
0.000616 0.002655 0.001443 -0.0005383 0.003933 0.00511 -0.008125 0.002071
-0.004364 0.00206 0.002394 -0.0005727 0.00891 0.0016575 6.574e-05 0.00335
0.002207 0.00637 0.0006857 0.003857 -0.007866 -0.006435 0.002909 -0.00182
0.00457 0.006577 0.001077 0.00427 -0.00724 -0.00718 -0.001846 -0.001986
-0.010124 0.006584 0.001448 0.00459 -0.002823 -0.00581 -0.002272 -0.00174
-0.1991 -0.02151 0.04446 0.01329 0.07904 -0.03186 -0.2296 0.0293
0.2045 -0.02704 0.0395 0.011734 0.064 0.004196 -0.2637 0.02013
0.007156 -0.02086 0.03345 -0.00916 -0.119 0.1199 0.1588 0.01607
0.3757 -0.013626 0.005157 0.075 -0.3154 0.1827 -0.1135 0.02872
-0.09375 0.003485 -0.002407 0.01831 -0.0929 0.03958 -0.1101 -0.01787

model/time_distributed_8/conv2d_2/Conv2D f2 [8, 3, 3, 1]
00000000: dca4 d5a6 6a2a a72c 1aac c623 f3aa f922
00000010: 2f28 511b 7b88 988c b496 3610 7091 db18
00000020: 2b0f 3c90 8408 6e9f 4b1f 9b0e 3f13 4f9c
00000030: b619 f718 879c f91c 6e9f 4f1d fd9b 0914
00000040: c19a 9e1a 4d96 4d95 321c b31a 4221 6e25
00000050: 2aa8 3722 699e 951b 2425 19a9 fe2a a025
00000060: f528 1cae 6629 e4a6 4f2c d8a8 1a26 96ab
00000070: 6522 81a3 6325 60a1 ff1f 672a 05ac d992
00000080: 46a1 9b1e 2d21 6da6 9821 5b20 6818 8f9a
-0.01898 -0.02669 0.0501 0.0727 -0.0641 0.01518 -0.0543 0.01362
0.03268 0.003572 -0.0001367 -0.0002804 -0.0016365 0.000514 -0.0006638 0.00237
0.0004375 -0.000517 0.0001378 -0.007256 0.007122 0.0004032 0.0008845 -0.004208
0.002789 0.002424 -0.00442 0.004856 -0.007256 0.005184 -0.0039 0.000985
-0.003298 0.003231 -0.001538 -0.001294 0.004097 0.003271 0.01027 0.02121
-0.03253 0.01214 -0.00626 0.003702 0.02008 -0.03983 0.05463 0.02197
0.03873 -0.09546 0.04218 -0.02692 0.0673 -0.03784 0.02383 -0.05927
0.01249 -0.014656 0.02104 -0.0105 0.00781 0.05002 -0.0628 -0.000836
-0.0103 0.00645 0.01011 -0.0251 0.010925 0.00851 0.002151 -0.003202

model/lstm/TensorArrayV2_1 f2 [120, 1, 32]
00000000: 0000 0000 0000 0000 0000 0000 0000 0000
00000010: 0000 0000 0000 0000 0000 0000 0000 0000
00000020: 0000 0000 0000 0000 0000 0000 0000 0000
00000030: 0000 0000 0000 0000 0000 0000 0000 0000
00000040: 0000 0000 0000 0000 0000 0000 0000 0000
00000050: 0000 0000 0000 0000 0000 0000 0000 0000
00000060: 0000 0000 0000 0000 0000 0000 0000 0000
00000070: 0000 0000 0000 0000 0000 0000 0000 0000
00000080: 0000 0000 0000 0000 0000 0000 0000 0000
00000090: 0000 0000 0000 0000 0000 0000 0000 0000
000000a0: 0000 0000 0000 0000 0000 0000 0000 0000
000000b0: 0000 0000 0000 0000 0000 0000 0000 0000
000000c0: 0000 0000 0000 0000 0000 0000 0000 0000
000000d0: 0000 0000 0000 0000 0000 0000 0000 0000
000000e0: 0000 0000 0000 0000 0000 0000 0000 0000
000000f0: 0000 0000 0000 0000 0000 0000 0000 0000
00000100: 0000 0000 0000 0000 0000 0000 0000 0000
00000110: 0000 0000 0000 0000 0000 0000 0000 0000
00000120: 0000 0000 0000 0000 0000 0000 0000 0000
00000130: 0000 0000 0000 0000 0000 0000 0000 0000
00000140: 0000 0000 0000 0000 0000 0000 0000 0000
00000150: 0000 0000 0000 0000 0000 0000 0000 0000
00000160: 0000 0000 0000 0000 0000 0000 0000 0000
00000170: 0000 0000 0000 0000 0000 0000 0000 0000
00000180: 0000 0000 0000 0000 0000 0000 0000 0000
00000190: 0000 0000 0000 0000 0000 0000 0000 0000
000001a0: 0000 0000 0000 0000 0000 0000 0000 0000
000001b0: 0000 0000 0000 0000 0000 0000 0000 0000
000001c0: 0000 0000 0000 0000 0000 0000 0000 0000
000001d0: 0000 0000 0000 0000 0000 0000 0000 0000
000001e0: 0000 0000 0000 0000 0000 0000 0000 0000
000001f0: 0000 0000 0000 0000 0000 0000 0000 0000
0.0 0.0 0.0 0.0 0.0 0.0 0.0 0.0
0.0 0.0 0.0 0.0 0.0 0.0 0.0 0.0
0.0 0.0 0.0 0.0 0.0 0.0 0.0 0.0
0.0 0.0 0.0 0.0 0.0 0.0 0.0 0.0
0.0 0.0 0.0 0.0 0.0 0.0 0.0 0.0
0.0 0.0 0.0 0.0 0.0 0.0 0.0 0.0
0.0 0.0 0.0 0.0 0.0 0.0 0.0 0.0
0.0 0.0 0.0 0.0 0.0 0.0 0.0 0.0
0.0 0.0 0.0 0.0 0.0 0.0 0.0 0.0
0.0 0.0 0.0 0.0 0.0 0.0 0.0 0.0
0.0 0.0 0.0 0.0 0.0 0.0 0.0 0.0
0.0 0.0 0.0 0.0 0.0 0.0 0.0 0.0
0.0 0.0 0.0 0.0 0.0 0.0 0.0 0.0
0.0 0.0 0.0 0.0 0.0 0.0 0.0 0.0
0.0 0.0 0.0 0.0 0.0 0.0 0.0 0.0
0.0 0.0 0.0 0.0 0.0 0.0 0.0 0.0
0.0 0.0 0.0 0.0 0.0 0.0 0.0 0.0
0.0 0.0 0.0 0.0 0.0 0.0 0.0 0.0
0.0 0.0 0.0 0.0 0.0 0.0 0.0 0.0
0.0 0.0 0.0 0.0 0.0 0.0 0.0 0.0
0.0 0.0 0.0 0.0 0.0 0.0 0.0 0.0
0.0 0.0 0.0 0.0 0.0 0.0 0.0 0.0
0.0 0.0 0.0 0.0 0.0 0.0 0.0 0.0
0.0 0.0 0.0 0.0 0.0 0.0 0.0 0.0
0.0 0.0 0.0 0.0 0.0 0.0 0.0 0.0
0.0 0.0 0.0 0.0 0.0 0.0 0.0 0.0
0.0 0.0 0.0 0.0 0.0 0.0 0.0 0.0
0.0 0.0 0.0 0.0 0.0 0.0 0.0 0.0
0.0 0.0 0.0 0.0 0.0 0.0 0.0 0.0
0.0 0.0 0.0 0.0 0.0 0.0 0.0 0.0
0.0 0.0 0.0 0.0 0.0 0.0 0.0 0.0
0.0 0.0 0.0 0.0 0.0 0.0 0.0 0.0

model/dense/BiasAdd/ReadVariableOp/resource f2 [256]
00000000: ada8 4628 1b93 792c c6a2 8b9e 54a9 f1a4
00000010: c4a5 36ad adaa 6ea5 c92b 00a7 869b 28aa
00000020: 20a3 3424 e72b 0129 8a25 b427 55a5 fc2b
00000030: 1128 1b1f 48a9 1526 3a23 6727 6aa9 9c28
00000040: b7a5 37a5 bca6 9429 2020 98a9 7db1 9fa8
00000050: 55a2 bba0 b5ae 1a25 82aa 3028 ee28 1fa4
00000060: 102d 68a8 a593 d22e c9a9 bc9f e2a3 eb22
00000070: c0a8 4ca4 5e24 6722 4f28 dea0 0fa7 7c14
00000080: 4a22 16aa e428 c328 e12b 2728 f69f 719d
00000090: 032a 14a0 c3a9 fb22 84a6 61a9 1026 072b
000000a0: 249d 7227 c79f 3027 f79e cea6 f9a4 e5a3
000000b0: 5027 3c9f cdac eea9 ce24 3926 6a2c dfa7
000000c0: 8da5 791c 43a6 8e2c 23a8 a224 05a0 42ac
000000d0: 099e 0f24 9ca5 2224 a622 18a8 6f24 7a21
000000e0: 9128 8b29 a229 30a0 8a21 4e21 779f 00a6
000000f0: 56aa 53ac c6ab c0a6 b327 6b28 ce26 36a2
00000100: 6f29 c91f 6ca6 fb20 f294 95ad 1e27 c41b
00000110: b2a7 9a2d 5e29 212c 7da8 7128 a3a7 47a7
00000120: f0a8 c828 312c e7a0 d42d 2724 61a6 7c8d
00000130: 38ab cbad acaa f7a5 61a8 34a8 8b23 d12c
00000140: 45ab e6aa 0aad e31d 7f98 94ab 1f29 3a90
00000150: f525 c421 d4a9 25a9 d72c ea28 1a1b 599e
00000160: ed24 5e20 49a6 1624 4329 a828 412a 9429
00000170: 8a2b 7f22 3d2d cba9 5c2e 7aa7 4228 4a17
00000180: 2da9 f223 5fa8 e221 e8a4 de28 9223 c69e
00000190: 892b e5a7 e21d f9a8 81ae 8f1a 252c e8a9
000001a0: bda7 3223 fca4 cb20 af1f ee29 6aac 139f
000001b0: 47a2 1528 3024 d1a4 c3a1 daa9 d622 6db0
000001c0: d925 5ba9 c72b 0a27 1da9 7ba4 0427 7425
000001d0: bf29 0d9a fea5 7625 a4a8 e81c 64a9 89a5
000001e0: e4a0 0427 9698 d6a6 19a9 369a 7622 ba24
000001f0: 4128 2ea6 8825 b8a7 272b ee29 8326 a6a9
-0.03653 0.0334 -0.0008674 0.0699 -0.01323 -0.00639 -0.04163 -0.0193
-0.02252 -0.0814 -0.05215 -0.02121 0.06082 -0.02734 -0.003674 -0.0481
-0.013916 0.01642 0.06174 0.0391 0.02164 0.03009 -0.02083 0.06238
0.03177 0.00694 -0.04126 0.02376 0.014114 0.02892 -0.0423 0.036
-0.02232 -0.02037 -0.0263 0.04358 0.00806 -0.0437 -0.1715 -0.0361
-0.01237 -0.00924 -0.1048 0.01993 -0.05084 0.0327 0.0385 -0.0161
0.0791 -0.03442 -0.000933 0.10657 -0.0452 -0.007553 -0.015396 0.01351
-0.0371 -0.01678 0.01706 0.012505 0.03366 -0.00951 -0.02757 0.001095
0.01228 -0.04755 0.0382 0.0372 0.06155 0.03244 -0.007774 -0.005314
0.04697 -0.007965 -0.045 0.01363 -0.02545 -0.04202 0.02368 0.0549
-0.00502 0.02908 -0.007595 0.02808 -0.0068 -0.02658 -0.01942 -0.01542
0.02856 -0.007065 -0.075 -0.04633 0.01877 0.0243 0.069 -0.03075
-0.02168 0.004368 -0.02446 0.07117 -0.03232 0.0181 -0.00785 -0.0665
-0.005894 0.01585 -0.02191 0.01614 0.012985 -0.03198 0.01732 0.0107
0.03568 0.0433 0.044 -0.00818 0.01082 0.01036 -0.00729 -0.02344
-0.0495 -0.06757 -0.06073 -0.02637 0.03008 0.03452 0.02658 -0.01213
0.04245 0.007603 -0.02509 0.00973 -0.001207 -0.0872 0.0278 0.003792
-0.03006 0.0875 0.04193 0.0645 -0.03506 0.0347 -0.02983 -0.02843
-0.03857 0.03735 0.0655 -0.009575 0.09106 0.01622 -0.02492 -0.0003347
-0.0564 -0.0905 -0.05212 -0.0233 -0.0342 -0.03284 0.01473 0.07526
-0.0568 -0.0539 -0.07874 0.00575 -0.002195 -0.0592 0.04 -0.000516
0.02327 0.01126 -0.04553 -0.0402 0.0756 0.0384 0.003468 -0.0062
0.01924 0.00853 -0.02455 0.01596 0.0411 0.03638 0.04886 0.04358
0.0589 0.01269 0.08185 -0.04526 0.09937 -0.0292 0.03326 0.00178
-0.04044 0.01552 -0.03415 0.01149 -0.01917 0.03802 0.014786 -0.006615
0.05887 -0.03084 0.005745 -0.03885 -0.1016 0.003202 0.06476 -0.04614
-0.03023 0.01405 -0.01947 0.00936 0.007504 0.04633 -0.069 -0.00691
-0.01226 0.0319 0.01636 -0.01881 -0.01125 -0.04572 0.01335 -0.1383
0.02284 -0.04184 0.06076 0.0275 -0.03995 -0.0175 0.0274 0.0213
0.0449 -0.002954 -0.0234 0.02133 -0.03625 0.00479 -0.0421 -0.02162
-0.00955 0.0274 -0.00224 -0.0267 -0.03983 -0.003033 0.01262 0.01846
0.03323 -0.02414 0.0216 -0.03015 0.05588 0.04633 0.02544 -0.04413

model/last_layer/BiasAdd/ReadVariableOp/resource f2 [31]
00000000: 25a2 8da2 139a bba1 fca1 021e 449d 7aa0
00000010: ed9d 9c9e cc9c 549f 3ea0 b09c dc13 3d23
00000020: bd19 9399 b51e 9fa2 ab17 a220 43a6 b887
00000030: 3ea4 d99b 821f 9725 28a3 5114 6c1e
-0.012 -0.012794 -0.002966 -0.01119 -0.01169 0.005867 -0.005142 -0.00874
-0.005787 -0.006454 -0.004684 -0.007156 -0.008286 -0.004578 0.0009594 0.01414
0.002802 -0.002722 0.00655 -0.01293 0.001872 0.00905 -0.02446 -0.0001178
-0.01657 -0.003832 0.00733 0.02184 -0.01398 0.001054 0.00627

model/dense/MatMul f2 [256, 32]
00000000: ba27 0c9f 4231 1c2a 0d1b a926 a095 0729
00000010: 29b0 74a3 b0af 3f28 00b2 489b 30b0 6b2d
00000020: 5dad f424 d829 2ea8 952e 7824 3c27 f626
00000030: eaad 8125 042c 8da9 522d bcae 322e df9c
00000040: 872b 242a b2ad cc9d 5729 a929 0ba9 27b0
00000050: ee2c af2c 6b98 ac29 9b35 32ac e7a7 efaa
00000060: 8f2e 45a9 3727 f02a 93ac 0bb0 0fa7 36af
00000070: fa21 12a8 891d 4ea8 bba7 8da8 6f2c 432a
00000080: 0b2d e8b0 a723 12a7 441f 2fa5 c3a5 cf31
00000090: 1928 6c22 fc24 ecaa 1b30 072a 8e2e a225
000000a0: 9598 9194 b1ac 64ac b2a4 0c2c a1a1 4a9f
000000b0: b028 3923 ab2a a6aa a4b0 b234 fe9b a9a9
000000c0: 1927 a220 b32e 082e f1a7 0b30 0ba9 d12b
000000d0: d1ae 2f9c a6a9 71ad ce28 24ad 52b3 362d
000000e0: c7aa 3ba6 dcab af2a d925 4b33 029a 8329
000000f0: 9c2d 87ad 75a6 39ac 58a0 94ad 702d a8ae
00000100: 8dac 0630 33b2 ce2c 6b2a 8b20 abae 162d
00000110: fba3 6598 432c f8af 5526 59ac 5d25 7826
00000120: afb0 f229 eca7 1528 269c 632c 58aa 3528
00000130: dd1b eead 13a5 312e d227 05a8 d8a2 b7b5
00000140: 489e 6b2f d12a a7a4 7728 57ad 3a2d 8824
00000150: 05ad 2eb0 bd2c 3e30 09ab 392b eda9 d3ab
00000160: 96a1 4dae 8b29 a51e e4a5 58ac 9ba8 12b4
00000170: 7fa9 27a9 b4b5 d1ac 462a ddad 8ca7 94b0
00000180: bdac ef2f abad fb2c e7a8 6f28 5f27 80aa
00000190: 5e93 349f 712d fa2d 6e2c 08af 0ea8 ed2d
000001a0: 59ad de13 5030 432c 3c0d cba8 d928 d62c
000001b0: f32a 1aa1 93ad 9928 6c30 5ca8 70a7 e9ab
000001c0: 9da9 23af 6d2d 15aa 42a4 b69e 8c28 0e24
000001d0: d223 c9b5 7e25 1c25 9ea5 a32f 5131 3c26
000001e0: 4323 53ae e7b1 43b0 b8a7 5a2d b525 0f2e
000001f0: 7ba5 04ae fcac f6aa ab2d eca2 142a 56a3
0.03018 -0.00688 0.1643 0.04773 0.003443 0.02602 -0.001373 0.03928
-0.13 -0.01456 -0.1201 0.03317 -0.1875 -0.003555 -0.1309 0.08466
-0.0838 0.01935 0.04565 -0.03265 0.10284 0.01746 0.02826 0.02719
-0.0924 0.0215 0.06274 -0.04337 0.0831 -0.1052 0.0968 -0.004757
0.0588 0.04797 -0.089 -0.00566 0.04172 0.04422 -0.0394 -0.1298
0.077 0.0732 -0.002157 0.0443 0.3503 -0.06555 -0.03087 -0.05417
0.1025 -0.04117 0.02818 0.0542 -0.0715 -0.1263 -0.02757 -0.1127
0.01167 -0.0318 0.005405 -0.03363 -0.0302 -0.03555 0.0693 0.04892
0.0788 -0.1533 0.014946 -0.02762 0.007095 -0.02025 -0.0225 0.1815
0.032 0.01254 0.01947 -0.05408 0.1283 0.0471 0.1024 0.022
-0.002237 -0.001115 -0.0733 -0.0686 -0.01834 0.06323 -0.010994 -0.00712
0.03662 0.01411 0.0521 -0.05194 -0.145 0.2935 -0.003902 -0.04422
0.02773 0.00905 0.1047 0.09424 -0.03102 0.1263 -0.0394 0.06107
-0.1065 -0.004086 -0.04413 -0.085 0.03754 -0.0803 -0.2288 0.0814
-0.05295 -0.02434 -0.0614 0.05222 0.02284 0.2279 -0.002934 0.04306
0.08765 -0.08636 -0.02522 -0.066 -0.008484 -0.08716 0.08496 -0.104
-0.0711 0.1257 -0.1937 0.0751 0.05014 0.00887 -0.1042 0.07947
-0.01559 -0.002146 0.0666 -0.1245 0.02473 -0.06793 0.02095 0.02527
-0.1464 0.04645 -0.03094 0.0319 -0.00405 0.06854 -0.04956 0.03287
0.00384 -0.09265 -0.01982 0.09674 0.03055 -0.0314 -0.01337 -0.3572
-0.006134 0.1159 0.05325 -0.01817 0.03488 -0.08344 0.08167 0.0177
-0.0784 -0.1306 0.07404 0.1326 -0.05496 0.05643 -0.0463 -0.06113
-0.01091 -0.09845 0.0433 0.00649 -0.02301 -0.0679 -0.03598 -0.2544
-0.04294 -0.04025 -0.3564 -0.07526 0.049 -0.0916 -0.02948 -0.1431
-0.07404 0.12396 -0.08856 0.0778 -0.0383 0.03464 0.0288 -0.05078
-0.0008993 -0.007034 0.085 0.0934 0.0692 -0.10986 -0.03168 0.0926
-0.08356 0.0009604 0.1348 0.0666 0.0003195 -0.03745 0.03787 0.07556
0.0543 -0.009964 -0.0871 0.03592 0.1382 -0.03406 -0.02905 -0.0618
-0.04385 -0.1115 0.0848 -0.04752 -0.01663 -0.006554 0.03552 0.01584
0.015274 -0.3616 0.02145 0.01996 -0.02194 0.1193 0.1661 0.02435
0.01418 -0.0988 -0.1844 -0.1332 -0.03015 0.0836 0.0223 0.09467
-0.02141 -0.094 -0.0779 -0.05438 0.08856 -0.01352 0.0475 -0.01433

model/last_layer/MatMul f2 [31, 256]
00000000: f1ab 292d bf1e e59c 7420 3daa eea7 0ea9
00000010: 7523 96a7 66ad 05aa ec29 cb2b 9d9c 3ea0
00000020: 5f2b 0da8 ba28 ab2b f428 dda8 08a9 aba8
00000030: 071c 9dac 4c2a 982c 1aa9 7b28 37ac 022c
00000040: cdac c0a7 4d28 c928 9e22 4529 dd29 d699
00000050: d729 e921 5caa 3ba2 1420 a826 e6ac 70a9
00000060: cc20 5c2c d9a2 23aa 8324 a12e bcaa 5fa9
00000070: 1cac 4328 a82d a729 871f 87ad 091c 3f29
00000080: 83a8 e828 a8a0 7f9c 85a7 101f 7aac e5ad
00000090: ada0 de2a a4ad 9b2c be2a 0eaa ba2d dd2c
000000a0: 0ca4 8028 7722 0c2d 6327 40a9 dfaa 4daa
000000b0: 6d26 e5ac c9a4 ee1c 2a99 a527 2aaa 322e
000000c0: 59ad 8ca8 7125 98a8 7d20 08aa eaa5 9928
000000d0: 21a2 1b2e a82a 3221 57a9 0ba1 a6a6 88a9
000000e0: a31f eea5 7c28 302d 9f21 a49e ae2b 0c25
000000f0: 01aa 1f2a 3225 829c 6929 ceac 2ca8 c32a
00000100: dfa2 6429 58ab c0a6 46a2 91a4 749b 2e9f
00000110: dda8 7818 429f a6ac 9520 12ac 482a 7fac
00000120: 382b a0a9 302c a52b 9d2a 112d e3ac 81ae
00000130: 25a5 4caa bdad 9ea3 fe2a 3924 3d25 39a9
00000140: d725 37ab 4c0e f52a c5a9 94a8 6dad 6a2c
00000150: 0520 9892 65a7 18ab 1ea8 e1ad a4a4 c427
00000160: cb21 9e24 142c a227 a6ab bea3 3529 e1a5
00000170: acad 7e26 2faa aa2a 1ead 9bab 68aa aa1d
00000180: 0c2d e8a8 07ac b7a5 4cab 02a6 48ab 79a8
00000190: 51ac d6a5 402c 729c 891f 0d9c e1ad a998
000001a0: b72b f12a 542c aaa8 07a5 5eac 6e9f a329
000001b0: e228 2fa4 a52b faab 3124 32ad e029 972b
000001c0: 1919 382d 9c9f 5dab 0c21 1029 d294 04a8
000001d0: 0a2d 9029 a816 0629 f5a9 69a9 5127 1bac
000001e0: 06ae 25a8 3c2c 44ac b129 eea4 ea20 282c
000001f0: 372d 60aa 0f19 8b2a 1fa5 0c2b 53a9 ca23
-0.06204 0.0806 0.006588 -0.00478 0.0087 -0.04874 -0.03098 -0.0395
0.014565 -0.02963 -0.08435 -0.04703 0.04626 0.06088 -0.004505 -0.008286
0.0576 -0.03165 0.03693 0.0599 0.0387 -0.038 -0.0393 -0.03647
0.003933 -0.0721 0.0492 0.0718 -0.03986 0.035 -0.06586 0.0626
-0.075 -0.03027 0.0336 0.03738 0.012924 0.04117 0.0458 -0.00285
0.04562 0.01154 -0.04968 -0.01217 0.007965 0.026 -0.07654 -0.04248
0.00937 0.0681 -0.013374 -0.04794 0.01762 0.1036 -0.0526 -0.04196
-0.0642 0.0333 0.0884 0.04416 0.00735 -0.08636 0.00394 0.041
-0.03525 0.03833 -0.009094 -0.00439 -0.02937 0.006897 -0.06995 -0.0921
-0.00913 0.05365 -0.08813 0.07196 0.05267 -0.0473 0.0895 0.076
-0.01581 0.03516 0.01263 0.07886 0.02885 -0.04102 -0.05368 -0.04922
0.0251 -0.0765 -0.01869 0.004814 -0.002522 0.02986 -0.04816 0.0968
-0.08356 -0.03552 0.02126 -0.0359 0.008766 -0.04712 -0.0231 0.03592
-0.01197 0.0954 0.052 0.01015 -0.04172 -0.00985 -0.02597 -0.0432
0.007458 -0.02316 0.03503 0.08105 0.01098 -0.006485 0.06 0.01971
-0.0469 0.04782 0.0203 -0.004402 0.04227 -0.0751 -0.0326 0.05283
-0.01342 0.0421 -0.05737 -0.02637 -0.01225 -0.01784 -0.00364 -0.00701
-0.038 0.002182 -0.007088 -0.07263 0.00895 -0.0636 0.04907 -0.07025
0.0564 -0.04395 0.0654 0.05972 0.05167 0.07916 -0.07635 -0.1016
-0.0201 -0.0492 -0.08966 -0.01488 0.05463 0.0165 0.02046 -0.0408
0.02281 -0.05637 0.0003843 0.05435 -0.04507 -0.03577 -0.0848 0.069
0.00785 -0.000805 -0.02888 -0.05542 -0.03217 -0.09186 -0.01813 0.03033
0.011314 0.01804 0.0637 0.02982 -0.05975 -0.01512 0.04068 -0.02296
-0.0886 0.02536 -0.0483 0.05206 -0.07996 -0.05942 -0.05005 0.00553
0.07886 -0.03833 -0.0629 -0.02232 -0.057 -0.02347 -0.0569 -0.03494
-0.06744 -0.0228 0.0664 -0.00434 0.00736 -0.003956 -0.09186 -0.002275
0.06027 0.05423 0.0676 -0.03644 -0.01964 -0.06824 -0.007256 0.04404
0.03815 -0.01634 0.05972 -0.06232 0.01637 -0.0812 0.0459 0.0593
0.00249 0.08154 -0.00743 -0.05753 0.00986 0.03955 -0.001177 -0.03137
0.07874 0.04346 0.001625 0.03925 -0.04654 -0.04227 0.02858 -0.06415
-0.0941 -0.03238 0.06616 -0.06665 0.04446 -0.01926 0.0096 0.06494
0.0815 -0.0498 0.00247 0.05112 -0.02 0.05505 -0.0416 0.01521

model/time_distributed_10/batch_normalization_2/FusedBatchNormV3 f2 [8]
00000000: e71d f2a2 f11c d9a5 7b1c 41a8 bba4 e59b
0.005764 -0.013565 0.004826 -0.02284 0.004375 -0.03323 -0.01848 -0.003855

model/time_distributed_10/batch_normalization_2/FusedBatchNormV31 f2 [8]
00000000: 3330 7ea1 17a7 7c2e 4531 8934 6534 92ad
0.1312 -0.01073 -0.0277 0.1013 0.1647 0.2834 0.2747 -0.08704

model/time_distributed_13/batch_normalization_3/FusedBatchNormV3 f2 [16]
00000000: 66aa edb3 899c 99af 5eae 1013 39ac 11b2
00000010: 5ba8 b99d 48ad 029e 0bb0 e397 fdaa 3726
-0.05 -0.2477 -0.00443 -0.1187 -0.0995 0.000862 -0.066 -0.1896
-0.03403 -0.00559 -0.0825 -0.005867 -0.1263 -0.001925 -0.0546 0.02428

model/time_distributed_13/batch_normalization_3/FusedBatchNormV31 f2 [16]
00000000: 3841 7642 1629 d23c e63d 3ab6 e340 2740
00000010: a144 e6b6 4b40 3740 2c42 2931 0543 aa43
2.61 3.23 0.03973 1.205 1.475 -0.3892 2.443 2.076
4.63 -0.4312 2.146 2.107 3.086 0.1613 3.51 3.832

model/time_distributed_2/batch_normalization/FusedBatchNormV3 f2 [8]
00000000: 1396 221d 6b1d 5ea6 4cad 03a2 21b0 151b
-0.001483 0.005013 0.00529 -0.02487 -0.08276 -0.01174 -0.129 0.003458

model/time_distributed_2/batch_normalization/FusedBatchNormV31 f2 [8]
00000000: 90a9 5a9c 33a8 c62a 3f30 7629 2d30 3326
-0.04346 -0.00425 -0.0328 0.05292 0.1327 0.04266 0.1305 0.02422

model/time_distributed_5/batch_normalization_1/FusedBatchNormV3 f2 [16]
00000000: 9823 f7ad e6b4 98b5 6eba bab5 72b2 afb5
00000010: 35b5 20b0 79b8 d5b7 ac20 d827 d1b9 5bb4
0.01483 -0.0932 -0.3062 -0.3496 -0.8037 -0.358 -0.2014 -0.3552
-0.3254 -0.1289 -0.559 -0.4895 0.009125 0.03064 -0.727 -0.2722

model/time_distributed_5/batch_normalization_1/FusedBatchNormV31 f2 [16]
00000000: b144 5642 b142 0342 7842 e342 b442 6243
00000010: 7642 aa41 3c43 3243 c144 3d46 de42 f343
4.69 3.168 3.346 3.006 3.234 3.443 3.352 3.691
3.23 2.832 3.617 3.598 4.754 6.24 3.434 3.975

model/lstm/while/lstm_cell_4/MatMul_4 f2 [32, 32]
00000000: c828 90ad f3b6 b1b8 1e32 c339 3d32 a529
00000010: 5bb7 d0b0 8db9 dd37 c2b6 9dac 7833 85b4
00000020: 52ad 7d9d 0934 76b1 0fb6 45b8 c3b6 b731
00000030: 7930 c9ab 43b2 d6b9 27a8 da31 c333 4537
00000040: b9b6 86b3 f42a 33ae 3c27 9231 91b4 22b6
00000050: 05af edb3 4bb8 1e2c 33b7 6633 8837 90b4
00000060: c434 81af 3c38 64ad c12b 6734 e3af ab33
00000070: 1530 0fa9 99b1 6c30 1a35 d2b0 6035 e631
00000080: b5b8 713a 0eac 2fbb 2fb1 7031 4b34 58ae
00000090: a736 ca35 49ad 2737 7f32 a830 c3b9 9cbb
000000a0: 0d2c f532 5431 2f2d 83a4 4c36 f334 69b2
000000b0: 9e34 0927 fa28 31af acb2 3db6 dfb6 6a2f
000000c0: 8d1b 7727 95ab 35a1 4ca1 a72a 0ead 72a7
000000d0: 92ac b7a7 9c9d eba9 7c26 2a9e 69a5 b926
000000e0: 422c 3ba1 88af 2dae c828 1a20 362b 5029
000000f0: 1e2a f928 ab27 9d1a 1b2c 8123 45aa 0f01
00000100: 6ab3 c837 4eb3 2eb8 d932 12b8 302c 9abe
00000110: a2b9 d5af f532 1f31 14b4 733b 0333 9834
00000120: 96b3 32b9 2337 b5b0 a021 39b4 c030 d032
00000130: f535 68b7 17a1 64b9 06b3 5738 d8b5 472d
00000140: 20b2 09b1 3732 f2b9 713c 1823 7ab4 edb5
00000150: 49b7 2db8 083c 7c3e b034 5f35 9bbc 2ab1
00000160: d939 09bb eeb8 f830 ef28 9fb7 3434 1137
00000170: 30ac e6b8 23bd 1639 9536 9f38 cc36 322e
00000180: 74b0 0931 7cb2 ffb8 dd35 f13b 01b1 5439
00000190: 9bb6 95b0 1ab6 ee36 a2a7 bb35 55ac 162d
000001a0: 7d35 dab0 c4ae 50b2 2832 7f34 bbb3 00b0
000001b0: 3939 03b4 a9b9 24b7 673b 8cb7 feb3 9f33
000001c0: 9fb3 3936 1837 89b7 a739 26bb b439 b4b9
000001d0: 3134 2537 c0b9 9636 132d 1cad fc38 3fb8
000001e0: 553c 15b8 4d29 6cbb 68b7 ccb9 4f39 f32e
000001f0: ab2f cbb6 5731 74b8 8cb4 55ba 14b4 083a
0.03735 -0.0869 -0.4343 -0.5864 0.1912 0.72 0.195 0.0441
-0.4597 -0.1504 -0.694 0.4915 -0.4224 -0.0721 0.2334 -0.2825
-0.0831 -0.00536 0.2522 -0.1707 -0.3787 -0.5337 -0.4226 0.1786
0.1398 -0.06082 -0.1957 -0.7295 -0.03244 0.1829 0.2426 0.4543
-0.4202 -0.2351 0.05432 -0.09686 0.02826 0.1741 -0.2854 -0.3833
-0.1097 -0.2477 -0.5366 0.06433 -0.45 0.2312 0.4707 -0.2852
0.2979 -0.11725 0.5293 -0.0842 0.06058 0.2751 -0.1232 0.2396
0.1276 -0.03952 -0.1749 0.1382 0.3188 -0.1506 0.336 0.1843
-0.5884 0.805 -0.06335 -0.898 -0.162 0.1699 0.2683 -0.0991
0.4158 0.3618 -0.0826 0.447 0.203 0.1455 -0.72 -0.951
0.0633 0.2174 0.1665 0.081 -0.01762 0.3936 0.3093 -0.2003
0.2886 0.02748 0.03888 -0.11237 -0.2085 -0.39 -0.4294 0.11584
0.003687 0.02916 -0.05923 -0.01017 -0.010345 0.05197 -0.079 -0.02908
-0.0714 -0.03014 -0.005478 -0.04623 0.02533 -0.00602 -0.02113 0.02626
0.0665 -0.010216 -0.1177 -0.0965 0.03735 0.00801 0.05634 0.0415
0.0478 0.03885 0.02995 0.00323 0.06415 0.014656 -0.04898 1.615e-05
-0.2317 0.4863 -0.2283 -0.5225 0.214 -0.509 0.0654 -1.65
-0.704 -0.1224 0.2174 0.16 -0.255 0.931 0.2191 0.287
-0.237 -0.6494 0.446 -0.1471 0.01099 -0.264 0.1484 0.2129
0.3723 -0.463 -0.00994 -0.674 -0.2195 0.5425 -0.3652 0.08246
-0.1914 -0.1573 0.1942 -0.743 1.11 0.013855 -0.2798 -0.3704
-0.4553 -0.522 1.008 1.621 0.293 0.3357 -1.151 -0.1614
0.731 -0.8794 -0.616 0.1553 0.03854 -0.4763 0.2627 0.4417
-0.0654 -0.6123 -1.284 0.6357 0.4114 0.5776 0.4248 0.0968
-0.1392 0.1573 -0.2026 -0.6245 0.3665 0.9927 -0.1564 0.666
-0.4128 -0.1432 -0.3813 0.433 -0.02982 0.3582 -0.0677 0.07947
0.343 -0.1516 -0.1057 -0.1973 0.1924 0.281 -0.2416 -0.125
0.653 -0.2507 -0.7075 -0.4463 0.9253 -0.4717 -0.2498 0.2382
-0.2382 0.389 0.4434 -0.471 0.7065 -0.8936 0.713 -0.713
0.262 0.4465 -0.7188 0.4116 0.0793 -0.07983 0.623 -0.531
1.083 -0.5103 0.0414 -0.9277 -0.463 -0.7246 0.6636 0.1086
0.1198 -0.4246 0.1669 -0.5566 -0.2842 -0.7915 -0.255 0.754

model/lstm/while/lstm_cell_4/MatMul_5 f2 [32, 32]
00000000: 052e 2930 8aa3 d234 20ac 7b98 04b6 9637
00000010: 7833 2132 642c da35 263a 09b0 ff36 a339
00000020: 32b4 3f2a f62d c532 1233 d637 722d fb21
00000030: 9a36 4cb4 4db6 1136 9d33 97b4 6138 dab6
00000040: 5db0 1333 0034 a2ad 3a24 d6b6 4d30 da2f
00000050: 52b8 d032 d034 8eb4 eab5 23b6 e435 1bb3
00000060: 1031 d6b4 162d 6930 2e33 e727 beb5 4e38
00000070: fcb0 90b4 b232 8231 d3b2 9b36 9033 b0af
00000080: f635 6a3a 8232 3a2b db38 13ae a3ac 7534
00000090: ec29 66b0 ebaf 55ae 47b7 fc30 8bb0 0930
000000a0: 4d31 2930 68b4 36b9 74b2 702f 88b4 74b7
000000b0: ff31 8b37 d738 12aa acab 10b6 94ae 67b3
000000c0: 0c36 612e 482b 5e31 cbb1 5527 f7b2 7328
000000d0: 3230 0e33 7f36 6ba2 32a1 60ab 6729 f02d
000000e0: a825 3c32 4bb5 fdab 0c31 d033 a6b2 bc2a
000000f0: da2d 1630 8830 c92f 4cb0 f430 11b0 b3ae
00000100: 2eb3 ad3a 43ac 312f 64aa e934 16a9 22ab
00000110: bbb4 5a35 e8b8 be29 103a e036 93b6 b9b7
00000120: 06b9 5434 c338 bb30 0233 4f34 95b6 0734
00000130: ac30 d936 fd38 1cad 91b4 0f37 adb4 3127
00000140: 382a deb1 84b3 f7af 74ae 5ab2 2eb8 0e23
00000150: 14b9 c133 5f38 aeac 8334 fa31 da1a d429
00000160: 073a 39b8 6935 d0b2 672f 62bb 1f2c cd3a
00000170: c238 ac98 c0ba 982f 84ae 82b6 3538 542d
00000180: ad2a 7730 76ad 0d35 5d2d 5bb5 7435 f034
00000190: 2e1f 6530 83a8 e9b6 582c 8835 422f ec34
000001a0: a027 1934 f72b c032 cc2f f833 7f2b b42c
000001b0: d82e fc35 4f30 182c dc30 92b0 71b4 d4a4
000001c0: d6af 9eb7 a529 8131 b734 a6b9 49aa 1e34
000001d0: 8cb6 9038 e338 4e37 07b0 8b2c 243c f92b
000001e0: 86b8 0534 c8ae aa36 f037 dcab fc2b 2ebc
000001f0: e033 1432 0e36 f7a8 0eb4 0eba 0aa9 e5bb
0.09406 0.13 -0.014725 0.3013 -0.06445 -0.002188 -0.376 0.474
0.2334 0.1915 0.0686 0.3657 0.7686 -0.1261 0.4373 0.7046
-0.2622 0.0488 0.09314 0.2115 0.221 0.4897 0.0851 0.01168
0.4126 -0.2686 -0.3938 0.3792 0.2379 -0.2869 0.5474 -0.4282
-0.1364 0.2211 0.25 -0.088 0.01651 -0.4272 0.1344 0.1227
-0.54 0.2129 0.3008 -0.2847 -0.3696 -0.3835 0.3682 -0.222
0.1582 -0.3022 0.07947 0.1378 0.2244 0.03087 -0.359 0.538
-0.1558 -0.2852 0.2092 0.1721 -0.2133 0.4128 0.2363 -0.1201
0.3726 0.802 0.2034 0.05646 0.607 -0.0949 -0.07245 0.2786
0.04626 -0.1375 -0.1237 -0.09894 -0.4548 0.1558 -0.142 0.1261
0.1656 0.13 -0.2754 -0.6514 -0.2017 0.1162 -0.2832 -0.4658
0.1874 0.4714 0.605 -0.04742 -0.05994 -0.379 -0.1028 -0.2313
0.378 0.0997 0.0569 0.1677 -0.181 0.02864 -0.2177 0.03476
0.1311 0.2205 0.406 -0.012535 -0.01015 -0.05762 0.0422 0.0928
0.0221 0.1948 -0.3308 -0.0624 0.1577 0.2441 -0.2078 0.0526
0.09143 0.1277 0.1416 0.12164 -0.1343 0.1548 -0.1271 -0.1047
-0.2244 0.8345 -0.0666 0.11237 -0.04993 0.307 -0.03973 -0.05573
-0.2957 0.3345 -0.6133 0.04486 0.758 0.4297 -0.411 -0.4827
-0.628 0.2705 0.595 0.1478 0.219 0.2693 -0.4114 0.2517
0.146 0.428 0.6235 -0.07983 -0.2854 0.4412 -0.2922 0.02809
0.04858 -0.1833 -0.2349 -0.12445 -0.1008 -0.1985 -0.5225 0.01378
-0.635 0.2423 0.5464 -0.0731 0.282 0.1868 0.003345 0.04553
0.7534 -0.528 0.3381 -0.2129 0.11566 -0.923 0.0644 0.85
0.5947 -0.002281 -0.8438 0.11865 -0.1018 -0.4067 0.526 0.08325
0.05215 0.1395 -0.0853 0.3157 0.0838 -0.3347 0.3408 0.3086
0.00701 0.1373 -0.03525 -0.432 0.0679 0.3457 0.1134 0.3076
0.02979 0.256 0.06223 0.2109 0.1218 0.249 0.05856 0.0735
0.10693 0.374 0.1346 0.06396 0.1519 -0.1428 -0.2776 -0.01886
-0.12244 -0.476 0.0441 0.172 0.2947 -0.706 -0.0491 0.2573
-0.4092 0.5703 0.611 0.4565 -0.1259 0.071 1.035 0.0623
-0.5654 0.2512 -0.10596 0.4165 0.496 -0.0614 0.06238 -1.045
0.2461 0.19 0.3784 -0.0388 -0.2534 -0.757 -0.03937 -0.987

model/lstm/while/lstm_cell_4/MatMul_6 f2 [32, 32]
00000000: 2f28 ff34 a7b3 1034 9629 02af 7cad a9b6
00000010: 0a38 fbb5 4a33 17a7 2435 54ae ddb4 962d
00000020: 4f34 6b38 4f34 5e33 3539 b036 7316 99b4
00000030: c538 53ac 3fb0 a234 5d30 6434 02b0 b121
00000040: b0a5 f02f 3931 dfb6 c8b0 97b7 5237 5930
00000050: 9ab2 3938 b135 7fb4 5db4 402d 2634 b8b3
00000060: 9935 68b4 98b1 7ab6 4f33 1a2c 14b3 deb1
00000070: 6830 c9b5 6829 dab0 c3ba 6b1c f5b0 4b31
00000080: b32e 312f 87a3 3723 8730 5e30 56ac 00b7
00000090: 72b0 1038 49ad 4234 d528 8b35 7a2d 083c
000000a0: 00b1 1530 c6af 09b8 e8b5 c2aa 10b5 2eac
000000b0: ab30 2739 ce39 e230 4ca4 f3b4 7e28 0c33
000000c0: 792e ab31 ce2d 3d2b bcb2 b82d 43b7 5e2c
000000d0: e8a5 432e fa35 ed30 932d 1ca1 95a8 d130
000000e0: 64ac 11a2 9fb5 e1b3 7323 2a32 87b4 651c
000000f0: c432 892d 3436 f62c f29c 1934 632b 99ac
00000100: d82a 5ab3 e6b7 53b4 be32 3331 69b4 16b9
00000110: a432 46bb 493a f02c 6324 18b6 afaf 5e37
00000120: 4020 c8b5 adb6 d7b1 0d2e 19b2 f732 d62e
00000130: 38ad 6631 dfa6 4835 9b30 fe2c 8535 cb30
00000140: 60ac 3f28 7db2 eb29 ca2c 8faa 7225 e5af
00000150: 1a35 ea30 b2b0 6838 9d31 0eac bb34 7eb2
00000160: 03b2 35b0 c437 b527 f52e a5b2 23b8 c7b4
00000170: 0735 77bb 5428 cbab 6034 be27 a3b6 b7a5
00000180: c22b cbae fcb0 50a6 19b8 1f35 bb31 942f
00000190: 59ad 0fb0 7fb1 7fb3 082e ac2a cf32 b0b1
000001a0: cfa4 6b36 cb2a 7c28 f527 03b5 7a30 3a2a
000001b0: c8b4 3035 3ab0 1cb1 c9ae 0834 acb7 41a6
000001c0: c934 1b3c ae2b 6cb4 59b1 8e30 1db0 07ba
000001d0: 34b4 4fb4 8933 7b2e 0d2d 9a2f c3b0 88ac
000001e0: ad28 7cb5 8cb6 34b4 5231 cc35 0734 4eac
000001f0: 00b5 5531 c43b a52e caaf 4fb0 4bb5 adb4
0.03268 0.3123 -0.2391 0.254 0.04364 -0.1095 -0.0857 -0.4163
0.505 -0.3738 0.2278 -0.0277 0.3213 -0.0989 -0.304 0.0873
0.2693 0.5522 0.2693 0.2302 0.651 0.418 0.0015745 -0.2874
0.596 -0.06757 -0.1327 0.2896 0.1364 0.2744 -0.1252 0.011116
-0.02222 0.124 0.1632 -0.4294 -0.1494 -0.4744 0.4575 0.1359
-0.2063 0.528 0.3557 -0.281 -0.2727 0.08203 0.2593 -0.2412
0.3499 -0.2754 -0.1748 -0.4048 0.2284 0.0641 -0.2212 -0.1833
0.1377 -0.3616 0.04224 -0.1516 -0.845 0.004314 -0.1549 0.1654
0.1047 0.11237 -0.0147 0.01409 0.1415 0.1365 -0.06775 -0.4375
-0.1389 0.508 -0.0826 0.266 0.03775 0.3464 0.0856 1.008
-0.1562 0.1276 -0.12146 -0.5044 -0.3691 -0.0528 -0.3164 -0.0653
0.1459 0.644 0.7256 0.1526 -0.01678 -0.3093 0.0351 0.2202
0.10114 0.1771 0.0907 0.05655 -0.2104 0.08936 -0.4539 0.06824
-0.02307 0.09784 0.3735 0.1539 0.0871 -0.00998 -0.0358 0.1505
-0.0686 -0.01185 -0.3513 -0.2462 0.01455 0.1926 -0.283 0.00429
0.2114 0.0865 0.3877 0.0775 -0.00483 0.256 0.0577 -0.07184
0.05347 -0.2297 -0.4937 -0.2703 0.2107 0.1625 -0.2756 -0.6357
0.2075 -0.909 0.7856 0.07715 0.01714 -0.3809 -0.12006 0.4604
0.0083 -0.3613 -0.4172 -0.1825 0.09454 -0.1906 0.2177 0.1068
-0.08154 0.1687 -0.02684 0.33 0.1439 0.078 0.345 0.1498
-0.06836 0.03317 -0.2028 0.04623 0.0748 -0.05124 0.02127 -0.12335
0.3188 0.1536 -0.1467 0.551 0.1754 -0.06335 0.2957 -0.2029
-0.1879 -0.1315 0.4854 0.0301 0.1087 -0.2076 -0.517 -0.2986
0.3142 -0.933 0.0338 -0.06088 0.2734 0.03024 -0.4148 -0.02232
0.0606 -0.10614 -0.1558 -0.02466 -0.512 0.32 0.1791 0.1184
-0.08356 -0.1268 -0.1718 -0.2343 0.09424 0.05212 0.2128 -0.1777
-0.01878 0.4011 0.05307 0.03503 0.03108 -0.3132 0.1399 0.04865
-0.2988 0.3242 -0.1321 -0.1597 -0.106 0.252 -0.4795 -0.02443
0.299 1.026 0.06 -0.2764 -0.1671 0.1423 -0.1285 -0.7534
-0.2627 -0.2693 0.2355 0.10126 0.0789 0.1188 -0.1488 -0.0708
0.03653 -0.3428 -0.4092 -0.2627 0.1663 0.3623 0.2517 -0.06726
-0.3125 0.1666 0.9707 0.1038 -0.1217 -0.1346 -0.3308 -0.2922

model/lstm/while/lstm_cell_4/MatMul_7 f2 [32, 32]
00000000: dd38 9a38 7a38 73b9 8bae e2b0 48b0 8630
00000010: 11b4 68ab 8d2d 98b6 6f35 0ca7 dd2c 6236
00000020: 7cb3 7a29 421e 82a2 252a 6ead 86bc d234
00000030: 0937 2232 732b 09b1 97ac 2639 e438 52b4
00000040: 30b0 3238 8cb1 2fb8 7bb5 9030 50b3 77b4
00000050: e8b1 65b6 65b9 38a8 31ba 13b3 ddb8 f0b2
00000060: d42d 76b3 b838 a2b2 1736 d0ad d4b9 0233
00000070: d4b4 8b35 b138 40af 67af 872e 81b5 68a6
00000080: 803c 63b4 443c e4b8 1e3e 4bb2 a2b6 afb8
00000090: bd37 0d3b 35b7 323d 1634 ed38 39af 6635
000000a0: 5a33 f439 c6b6 4234 5c2e 783b e238 edb5
000000b0: 692e 16ae f7bb 403a f836 2bb9 e8b7 1830
000000c0: e1b9 41b7 4637 a33e b22d 8a3b 1f3d a3bc
000000d0: 4eb3 2139 deba b1b0 e3ba 013e 47b4 c3ab
000000e0: 7a3a 6f38 e839 f6ac 3db9 4bbb ee34 b732
000000f0: df35 f8b0 d8bd 91b5 2230 1137 5c30 253c
00000100: 12b9 1238 c534 4934 61b9 5bbb a72f bab6
00000110: 1faf 5d38 72ba 30b8 153c 4137 62ba f33e
00000120: ae39 ccb6 66af 19bb e5b7 e1b2 6838 d02c
00000130: 2438 92b6 1fb4 afb3 afb4 d62f 9ab5 7c3b
00000140: 40bc c736 fb35 3aac f1b6 e7bc 9934 cfb4
00000150: 4b36 0433 13b6 7f25 0635 70b5 e732 4b39
00000160: 0638 12bd cfad 7cb2 dfb4 83b7 3f34 6d2f
00000170: ff37 6bb5 34b4 c52c 3bb9 a6b1 d1b2 a438
00000180: 022f 49b1 74ac 4e38 5ea4 03ad 752d 6638
00000190: f7b4 3e31 9da8 5cb7 f532 8d2d c234 b937
000001a0: bdb1 7e34 b8b2 e434 db33 8228 a3b9 e632
000001b0: fc29 0635 0623 f62f da28 6431 12b0 6d21
000001c0: 69b4 03bb 19bb 0eb8 8328 a92d bbb4 003c
000001d0: ecb5 0fad 2939 90ac dfb0 6830 8738 d6b8
000001e0: 7cb5 1bb0 3337 af36 adb0 74af 5f38 66ba
000001f0: 2933 c13a 4638 a0af 4c30 f4bc 38b1 0eb7
0.608 0.575 0.5596 -0.681 -0.10223 -0.1526 -0.1338 0.1414
-0.2542 -0.05786 0.08673 -0.412 0.3396 -0.02753 0.076 0.399
-0.2339 0.0428 0.00611 -0.01271 0.048 -0.08484 -1.131 0.3013
0.4397 0.1917 0.0582 -0.1573 -0.0717 0.6436 0.6113 -0.27
-0.1309 0.5244 -0.1733 -0.523 -0.3425 0.1426 -0.2285 -0.279
-0.1846 -0.3997 -0.6743 -0.03296 -0.774 -0.2211 -0.608 -0.2168
0.09106 -0.2332 0.59 -0.2073 0.3806 -0.0908 -0.7285 0.219
-0.3018 0.3464 0.5864 -0.1133 -0.11566 0.102 -0.344 -0.02502
1.125 -0.2742 1.066 -0.6113 1.529 -0.1967 -0.4146 -0.5854
0.4836 0.8813 -0.4504 1.299 0.2554 0.6157 -0.11285 0.3374
0.2297 0.744 -0.4233 0.266 0.09937 0.9336 0.6104 -0.3704
0.10016 -0.0951 -0.9956 0.7812 0.4355 -0.646 -0.4941 0.1279
-0.735 -0.4534 0.4546 1.659 0.089 0.9424 1.28 -1.159
-0.2283 0.641 -0.8584 -0.1466 -0.861 1.501 -0.2673 -0.06064
0.8096 0.554 0.7383 -0.0775 -0.655 -0.9116 0.308 0.2098
0.367 -0.1553 -1.461 -0.348 0.1292 0.4417 0.1362 1.036
-0.634 0.509 0.298 0.2678 -0.6724 -0.9194 0.11957 -0.4204
-0.11127 0.5454 -0.8057 -0.5234 1.0205 0.4534 -0.798 1.737
0.71 -0.4248 -0.1156 -0.887 -0.4934 -0.215 0.551 0.0752
0.5176 -0.4106 -0.2576 -0.2401 -0.2927 0.12244 -0.35 0.9355
-1.0625 0.4236 0.3738 -0.06604 -0.4338 -1.226 0.2874 -0.3005
0.3933 0.2192 -0.3796 0.02147 0.314 -0.3398 0.2157 0.6616
0.503 -1.268 -0.09076 -0.2026 -0.3044 -0.4695 0.2654 0.116
0.4998 -0.3386 -0.2627 0.0745 -0.654 -0.1765 -0.213 0.58
0.1095 -0.1652 -0.0696 0.538 -0.01706 -0.0783 0.08527 0.55
-0.3103 0.1638 -0.03604 -0.46 0.2174 0.08673 0.2974 0.4827
-0.1793 0.2808 -0.21 0.3057 0.2455 0.03522 -0.7046 0.2156
0.04675 0.314 0.01372 0.1244 0.0379 0.1685 -0.1272 0.0106
-0.2756 -0.8765 -0.887 -0.507 0.03525 0.08844 -0.2957 1.0
-0.37 -0.07904 0.645 -0.0713 -0.1522 0.1377 0.566 -0.6045
-0.3428 -0.1283 0.45 0.4177 -0.1461 -0.11646 0.5464 -0.8
0.2238 0.844 0.534 -0.11914 0.1343 -1.238 -0.1631 -0.441

model/lstm/while/lstm_cell_4/split_1 f2 [32]
00000000: 0bb8 41b7 34b5 5527 c5b7 26b8 09b9 a6ba
00000010: 10b8 e9b8 c2b8 1bb4 dfa8 dcb8 a1b9 2ab9
00000020: fab5 64b7 ddaf b9b3 deb6 4cb5 19b7 80b9
00000030: 02b7 22b7 bab7 233f dcb4 5fb4 72b8 53b4
-0.5054 -0.4534 -0.3252 0.02864 -0.4856 -0.5186 -0.6294 -0.831
-0.508 -0.614 -0.5947 -0.2566 -0.03806 -0.6074 -0.7036 -0.6455
-0.3735 -0.462 -0.12286 -0.2413 -0.4292 -0.331 -0.4436 -0.6875
-0.438 -0.4458 -0.483 1.784 -0.3037 -0.2732 -0.5557 -0.2703

model/lstm/while/lstm_cell_4/split_11 f2 [32]
00000000: f63c 303c 5a3c 533f 2b3c 863a 883c 223d
00000010: 9c3c 643b 843c b33e 593d f93a da3a 0c3d
00000020: 913c 8b3c ac3f 6f3b bf3d 903c 4b3d db3b
00000030: 793b 983c 8d3b 9340 e03c d33b 133b 643b
1.24 1.047 1.088 1.831 1.042 0.8154 1.133 1.283
1.152 0.924 1.129 1.675 1.337 0.8716 0.8564 1.262
1.142 1.136 1.918 0.929 1.437 1.141 1.323 0.982
0.934 1.148 0.944 2.287 1.219 0.978 0.8843 0.924

model/lstm/while/lstm_cell_4/split_12 f2 [32]
00000000: 5734 d0b0 7f2f a033 e8a8 1ab0 d6b2 6a32
00000010: 7f31 c295 1430 c0a0 9835 87b0 75ac 3333
00000020: b0b4 be30 2030 2f2f 9c34 7e35 62b0 8ca4
00000030: dda8 49a6 6f2e 7a38 0fb0 ab24 76b1 4bb3
0.2712 -0.1504 0.1171 0.2383 -0.03833 -0.1282 -0.2136 0.2004
0.1718 -0.001406 0.1274 -0.00928 0.3496 -0.1415 -0.06964 0.225
-0.293 0.1482 0.1289 0.11224 0.288 0.3433 -0.137 -0.01776
-0.038 -0.02455 0.1005 0.5596 -0.1268 0.01823 -0.1707 -0.2279

model/lstm/while/lstm_cell_4/split_13 f2 [32]
00000000: 0b24 d1b3 82b1 d5b6 90b2 8eb3 1d36 90a9
00000010: 849f 0625 062f 06b1 79b7 d2b3 c0b9 5a33
00000020: 28ad eaac 50b6 68ac fdb1 1b26 96ac 14ac
00000030: ddb4 6ca9 3f2d b9b5 e8aa 90b6 14b8 5cac
0.0158 -0.2443 -0.1721 -0.427 -0.2051 -0.2361 0.382 -0.04346
-0.00734 0.01962 0.10974 -0.157 -0.467 -0.2444 -0.7188 0.2297
-0.08057 -0.0768 -0.3945 -0.06885 -0.1871 0.02385 -0.07166 -0.0637
-0.304 -0.04236 0.082 -0.3577 -0.05396 -0.4102 -0.51 -0.0681

model/lstm/while/lstm_cell_4/MatMul f2 [32, 1152]
00000000: cda9 482a 63a5 40ab daac 2e19 e71a 20a9
00000010: bb1e 54ad 792f 8e93 dca1 ca2c 70b0 f525
00000020: 05b3 13b5 50ac 4a28 8b2d a4ac 2830 a0af
00000030: 82a8 08a8 50a0 edb0 87a8 d827 a12c f931
00000040: 2cb0 6faf 592a 17b4 ba24 fab1 3921 959e
00000050: 542f 4da0 b024 e729 0fad 37ab ffaa 94af
00000060: d5b0 60b1 e12d baae 0226 cf9f 53a5 d3a8
00000070: 8bb1 8ca7 39ad 362a dcae c8ac d7aa bba6
00000080: 13ae 1bac 8525 46b0 00a9 46b4 192b 992c
00000090: 30a9 b3ad 9db3 ee27 46b1 f021 32b2 85b2
000000a0: b72b faae b1a7 aeb0 162b b6af 7791 60a7
000000b0: 0bab 31b0 e4b1 082c 73ad 26b0 6c19 532f
000000c0: 812e 01a9 b5ab d6a4 d92b bda0 1aae 83b1
000000d0: 692c ac24 29ae f99d 6a23 3931 b09f f1ab
000000e0: 6daa 52a6 902d 89ad 3f27 25aa 362e bd2d
000000f0: 0325 1b21 4cab 3528 452a 3a30 f4a0 1031
00000100: 0329 3730 bd2e 55b0 f0af 4125 74b0 4b25
00000110: c42e 6aa9 d39e 61a9 1e2a 8aab fc2b 3d2c
00000120: a92f 27ac 8eaa d6a1 a8ab 9031 b4b0 24b1
00000130: a9b0 d0ab 9c30 90b0 f8a7 efa9 8a29 6da7
00000140: 4c22 401a 349f bd31 7721 b3af fcad 3e2c
00000150: 18b0 5627 8730 fba8 f3ac 0924 b0b0 cdae
00000160: 51af cfa2 959d dda6 1c23 002e a3a6 bca6
00000170: 0d26 1f2a 66ae db18 002c 3021 3a25 b6aa
00000180: 539c e824 3ca2 33ac a721 a423 869c 42a7
00000190: 31a3 5ca4 c6aa d0ad 3ca2 089f 149d 3a2a
000001a0: a4a5 0ba5 43a2 71ae e825 a823 6327 faa6
000001b0: 29aa 96a4 09a4 98ac daa9 b79f e2ae da25
000001c0: 1d9d b525 3aa2 7cac 6a25 af23 842d aca4
000001d0: 86ad a7a4 5a29 a5a9 8313 e39f d6ae fbaa
000001e0: 5d25 5629 2ea2 4eac 4b20 a523 5e2e 53a7
000001f0: d7b1 c9a4 1228 97a1 19a8 d59f 4fab 8226
-0.04532 0.04907 -0.02104 -0.05664 -0.0758 0.00253 0.00337 -0.04004
0.006573 -0.08325 0.11676 -0.000922 -0.011444 0.0748 -0.1387 0.02327
-0.2194 -0.3171 -0.0674 0.0335 0.0866 -0.0725 0.1299 -0.11914
-0.03522 -0.0315 -0.00842 -0.1539 -0.03537 0.03064 0.0723 0.1866
-0.1304 -0.11615 0.0496 -0.2556 0.01846 -0.1868 0.0102 -0.006428
0.1145 -0.0084 0.01831 0.0461 -0.07904 -0.05637 -0.05466 -0.1184
-0.151 -0.168 0.09186 -0.1051 0.02347 -0.007626 -0.0208 -0.0377
-0.1732 -0.02948 -0.0816 0.04852 -0.1072 -0.0747 -0.05344 -0.02629
-0.0949 -0.06415 0.02156 -0.1335 -0.03906 -0.267 0.05545 0.07184
-0.04053 -0.08905 -0.2379 0.03098 -0.1648 0.0116 -0.1936 -0.2037
0.06027 -0.109 -0.03004 -0.1462 0.05536 -0.1205 -0.000667 -0.02881
-0.05502 -0.131 -0.1841 0.063 -0.08514 -0.1296 0.002647 0.11444
0.1016 -0.0391 -0.0602 -0.01889 0.0613 -0.009254 -0.09534 -0.1722
0.0689 0.01825 -0.09625 -0.005833 0.01448 0.1632 -0.007507 -0.06204
-0.0502 -0.02469 0.0869 -0.0865 0.0283 -0.048 0.09705 0.08966
0.01958 0.00997 -0.057 0.03287 0.04898 0.1321 -0.009674 0.1582
0.03915 0.1317 0.1053 -0.1354 -0.124 0.02052 -0.1392 0.02068
0.1057 -0.0423 -0.006664 -0.04202 0.0478 -0.0589 0.06238 0.0662
0.1197 -0.0649 -0.0512 -0.0114 -0.0598 0.1738 -0.147 -0.1606
-0.1456 -0.06104 0.144 -0.1426 -0.03113 -0.04636 0.04327 -0.029
0.0123 0.003052 -0.007034 0.1793 0.01067 -0.1203 -0.0935 0.0663
-0.1279 0.02866 0.1415 -0.0389 -0.07733 0.01576 -0.1465 -0.10626
-0.1143 -0.0133 -0.00545 -0.02681 0.013885 0.09375 -0.02592 -0.0263
0.02364 0.04782 -0.1 0.00237 0.0625 0.01013 0.02042 -0.05243
-0.004223 0.01917 -0.01218 -0.0656 0.01104 0.01492 -0.004417 -0.02835
-0.014046 -0.01703 -0.05292 -0.0908 -0.01218 -0.006866 -0.00496 0.04865
-0.02203 -0.0197 -0.01223 -0.10065 0.02307 0.01495 0.02885 -0.02725
-0.04813 -0.01791 -0.01576 -0.0718 -0.04572 -0.007534 -0.10754 0.02286
-0.004993 0.0223 -0.01216 -0.07007 0.02115 0.01501 0.0862 -0.01825
-0.0863 -0.01817 0.0418 -0.0441 0.000917 -0.0077 -0.1068 -0.05453
0.02095 0.0417 -0.01207 -0.06726 0.008385 0.01493 0.0995 -0.02861
-0.1825 -0.01869 0.0318 -0.01092 -0.032 -0.00765 -0.0571 0.02542

model/lstm/while/lstm_cell_4/MatMul_1 f2 [32, 1152]
00000000: 69ab de31 77ad 7ba9 b1af 9f2c 4aa9 ecae
00000010: c928 0c2c 58a8 9b93 05ac 47a5 6221 bb24
00000020: e528 3e2f 2baf 5a30 0497 722e 272c 62b1
00000030: 9dab 3ea7 5a28 8725 9924 89a1 1620 be30
00000040: 80a2 47ad e9a3 2fb0 f122 caaa 13b0 ab30
00000050: 06a6 68ac 26ac 43ae bfaf c3aa 47ae 1eac
00000060: 39b3 f0ad cb9e 05b0 32ac 30af e2a7 b331
00000070: e1aa 9b2d 66a9 502e 80aa 05b5 73af be33
00000080: 3d24 02ab 5fad dbab ef94 fea9 7621 b4ac
00000090: 202d b8a1 50ad e1a3 7cac 8ba3 4826 37a7
000000a0: 83a7 832c 8a1e 30a0 d92b 0ea8 48ac adad
000000b0: a89c 962a 7b1c 922c 212c a327 55aa 5aab
000000c0: eea5 15ab a62e 162c 9aab 37a8 0f1d fa1b
000000d0: c2ab f427 a72c 0221 d5ab e9a7 042b 452c
000000e0: 081a 81ab d025 cc32 2a2c cc1a 09a8 802e
000000f0: 29a6 e6aa 112f a323 002d 6420 9520 cc28
00000100: 61b1 cab1 e82c a8ac 8cab 4420 7fa3 3136
00000110: 54a7 3a19 b4b3 23a5 729c b62f 06aa ebac
00000120: 7bb0 d8b3 2e2a ecae a126 adab 96a7 152c
00000130: 08b1 2b9f c022 bbb4 94a8 d9b2 8cad 74b4
00000140: 67b1 f129 1928 6b2f 8dad 8023 10a8 4aab
00000150: 842c 5226 cdb2 bf2b cf0e 9ba0 282d 2aaf
00000160: a9a2 642b e298 e824 3b96 1934 5a32 44af
00000170: e531 e528 762d 61a3 07ac db28 aa2b 52ac
00000180: e8a7 02ac eaa2 0423 d426 bf21 dda2 c228
00000190: 0ca5 f2a4 e116 3395 7e29 8f1e 4b22 da99
000001a0: 999e a0a4 d8a2 a7a7 c525 a921 e3a6 b929
000001b0: 1724 fca4 f4a2 bd20 81a9 821e b927 bb27
000001c0: 2ea5 82ae d0a2 78a3 4726 8821 f112 0e2c
000001d0: 69a5 e2a4 8197 a01a 1dae b11e 1ca8 61a8
000001e0: 321c 90ac e0a2 0aa4 f428 8c21 a223 a028
000001f0: c1a6 d0a4 1499 6c24 5cac 2c1f 89a5 e6ac
-0.0579 0.1833 -0.0854 -0.04282 -0.1202 0.0722 -0.04132 -0.10815
0.03738 0.06323 -0.03394 -0.0009284 -0.0628 -0.02061 0.01051 0.01848
0.03824 0.11316 -0.112 0.136 -0.001713 0.1007 0.0649 -0.1682
-0.05948 -0.02829 0.034 0.02159 0.01796 -0.01081 0.00798 0.1482
-0.012695 -0.08246 -0.01545 -0.1307 0.01356 -0.05304 -0.1273 0.1459
-0.02353 -0.06885 -0.0648 -0.09784 -0.12103 -0.05283 -0.0981 -0.06433
-0.2257 -0.0928 -0.006634 -0.1256 -0.06555 -0.1123 -0.03079 0.1781
-0.05374 0.0876 -0.04218 0.09863 -0.05078 -0.3137 -0.1164 0.242
0.01656 -0.05475 -0.0839 -0.06137 -0.0012045 -0.0468 0.010666 -0.0735
0.0801 -0.01117 -0.083 -0.01539 -0.07007 -0.01473 0.02454 -0.02818
-0.02934 0.0705 0.006386 -0.00818 0.0613 -0.03168 -0.0669 -0.0887
-0.004547 0.05145 0.004375 0.0714 0.0645 0.02983 -0.04947 -0.05743
-0.02316 -0.05533 0.1039 0.06384 -0.0594 -0.03293 0.00494 0.003895
-0.0606 0.03107 0.0727 0.00978 -0.0612 -0.0309 0.0548 0.0667
0.002945 -0.05862 0.0227 0.2124 0.06506 0.003319 -0.03152 0.10156
-0.02406 -0.0539 0.1104 0.014915 0.0781 0.008575 0.00895 0.03748
-0.1681 -0.1809 0.07666 -0.07275 -0.05896 0.00833 -0.01464 0.387
-0.02863 0.002552 -0.2407 -0.02007 -0.00434 0.1205 -0.04706 -0.07684
-0.14 -0.2451 0.04828 -0.10815 0.0259 -0.05997 -0.02963 0.0638
-0.1572 -0.007 0.01318 -0.2957 -0.03577 -0.214 -0.0867 -0.2783
-0.1688 0.04642 0.032 0.1159 -0.08673 0.01465 -0.03174 -0.05695
0.07056 0.02469 -0.2125 0.06052 0.0004156 -0.008995 0.08057 -0.11194
-0.01301 0.05774 -0.002384 0.01917 -0.001521 0.256 0.1985 -0.1135
0.1842 0.03824 0.0853 -0.01441 -0.0629 0.03793 0.05988 -0.0675
-0.03088 -0.0626 -0.013504 0.0137 0.02667 0.01122 -0.013405 0.03717
-0.01971 -0.01932 0.001679 -0.001269 0.0429 0.006405 0.01229 -0.002857
-0.006443 -0.01807 -0.01337 -0.02989 0.02254 0.011055 -0.0269 0.0447
0.01598 -0.01947 -0.01358 0.009254 -0.043 0.006355 0.03017 0.0302
-0.02023 -0.1017 -0.013306 -0.01459 0.02452 0.0108 0.0008473 0.06335
-0.02113 -0.01907 -0.001832 0.003235 -0.0955 0.006535 -0.0321 -0.0342
0.004097 -0.0713 -0.01343 -0.01578 0.0387 0.01083 0.01491 0.03613
-0.02638 -0.0188 -0.00248 0.01727 -0.0681 0.007004 -0.02162 -0.07654
