resources/participants_model/participant_1/session_2_lite_models/indexpen_model.tflite (tflite, 768696 bytes, 45 tensors)

model/time_distributed_3/conv2d_1/BiasAdd;model/time_distributed_11/conv2d_3/Conv2D;model/time_distributed_3/conv2d_1/Conv2D;model/time_distributed_3/conv2d_1/BiasAdd/ReadVariableOp/resource f4 [16]
0	0xbe5812fa	-0.21100989
1	0xbe294673	-0.1653078
2	0xbcc412ce	-0.023934748
3	0xbd2d210b	-0.04226784
4	0x3e0bd3b5	0.13654979
5	0xbd866488	-0.065621436
6	0xbe07a94a	-0.13248172
7	0xbc890499	-0.016725825
8	0xbdb99205	-0.09061054
9	0xbdfdfbc9	-0.1240154
10	0xbc3776ef	-0.01119779
11	0xbd460f96	-0.048354708
12	0xbe33ae40	-0.1754694
13	0xbe4783ef	-0.19483922
14	0x3d7bc5f8	0.061468095
15	0xbdfc336a	-0.12314494

model/time_distributed/conv2d/BiasAdd;model/time_distributed_8/conv2d_2/Conv2D;model/time_distributed/conv2d/Conv2D;model/time_distributed/conv2d/BiasAdd/ReadVariableOp/resource f4 [8]
0	0x3b444cc0	0.0029952973
1	0x3bb8bf26	0.005638021
2	0xbb848c62	-0.0040450552
3	0x3c6be902	0.014398815
4	0x3d905236	0.070469305
5	0x3bacbb85	0.0052713775
6	0x3e3490cf	0.17633365
7	0x3bf8bc97	0.007590841

model/time_distributed_11/conv2d_3/BiasAdd;model/time_distributed_11/conv2d_3/Conv2D;model/time_distributed_11/conv2d_3/BiasAdd/ReadVariableOp/resource f4 [16]
0	0xba469a03	-0.000757605
1	0x3db75b07	0.08952909
2	0xbbf27781	-0.0073995
3	0x3d6ff596	0.05858382
4	0x3d5fa7ad	0.054603267
5	0xbc4df5b5	-0.012570788
6	0xbb03607c	-0.0020046523
7	0x3d70fd4f	0.058835324
8	0xbb9a6b47	-0.0047124955
9	0xbc217495	-0.0098544555
10	0x3c035739	0.008016401
11	0xbcf0b2d6	-0.02938215
12	0x3cd5ebb0	0.026113361
13	0xbb1b84c6	-0.0023730262
14	0x3b5bb4a4	0.0033524418
15	0xbd925356	-0.07144801

model/time_distributed_8/conv2d_2/BiasAdd;model/time_distributed_8/conv2d_2/Conv2D;model/time_distributed_8/conv2d_2/BiasAdd/ReadVariableOp/resource f4 [8]
0	0x3d834b0a	0.06410797
1	0x3c9ce462	0.01915187
2	0xbc665fd1	-0.01406093
3	0x3c499c04	0.012305263
4	0xbc14c38e	-0.009079827
5	0x3e1771ae	0.14789459
6	0x3c7f7e8e	0.015594138
7	0x3bee8b7b	0.007279811

model/time_distributed_3/conv2d_1/Conv2D f4 [16, 3, 3, 8]
0	0x3dbfe80a	0.0937043
1	0xbd6ba70d	-0.05753236
2	0xbada5c5e	-0.0016659608
3	0xbe8fae64	-0.28062737
4	0xbbf415b2	-0.0074488753
5	0x3ce0b36c	0.027429305
6	0xbd5f3056	-0.054489456
7	0xbd05911e	-0.032609098
8	0xbb95857f	-0.004563033
9	0xbcdf7d89	-0.02728154
10	0xbcf43cae	-0.02981409
11	0x3d447948	0.047967225
12	0x3dbd963b	0.0925717
13	0x3d51b7f4	0.051200822
14	0x3e4279bd	0.18991752
15	0xbd137c17	-0.036007013
16	0x3d661212	0.056169577
17	0xbd3b157b	-0.045674782
18	0xbce7b94c	-0.028286599
19	0xbb75b924	-0.0037494386
20	0xbe27ad3b	-0.16374676
21	0xbd435fb4	-0.04769869
22	0xbc8af979	-0.016964661
23	0xbb5d73c0	-0.0033790916
24	0xbaae1815	-0.0013282323
25	0xbd99c0b4	-0.07507458
26	0xbc995563	-0.018717473
27	0xbda53deb	-0.080684505
28	0xbd800a6d	-0.062519886
29	0x3d25133c	0.040301546
30	0x3e1cd3d4	0.15315181
31	0x3cd4989d	0.025951678
32	0xbd176c87	-0.036968734
33	0x3ba48f84	0.005021991
34	0xbc9400d7	-0.018066807
35	0x3e97b395	0.29629198
36	0xbdd3f077	-0.103485994
37	0x3d331d79	0.04372928
38	0x3b8d86f9	0.0043190685
39	0x3ca02262	0.019547645
40	0xbcc19d96	-0.023634713
41	0x3c63a0de	0.013893334
42	0x3cc027cb	0.023456475
43	0xbdc4b37a	-0.09604545
44	0x3cdc35ad	0.026881063
45	0xbd57145b	-0.052509647
46	0xbe66b223	-0.22528891
47	0xbc1768d3	-0.009241301
48	0xbc7355f3	-0.014852035
49	0x3d3c43c6	0.04596307
50	0x3d84ef0d	0.06490908
51	0x3d5dc2da	0.054140903
52	0xbd87c5b1	-0.066295035
53	0xbc0a0837	-0.00842481
54	0x3ddaa963	0.10676839
55	0xbcd239fc	-0.025662415
56	0xbc8c8561	-0.017153444
57	0x3ce69c7f	0.028150795
58	0xbc46193e	-0.012090979
59	0xbe0a8c51	-0.13530089
60	0xbdcb7999	-0.09935302
61	0xbd3d3646	-0.046194337
62	0x3e8e8105	0.2783281
63	0xbb286727	-0.002569625
64	0xbc82bfbe	-0.01596057
65	0xbc0d5dde	-0.008628337
66	0xbd0140b5	-0.03155585
67	0xbdbb107e	-0.09134005
68	0xbc0bf1e6	-0.00854156
69	0x3a8506ba	0.0010149099
70	0x3eeff144	0.4686376
71	0xbd0ffec1	-0.03515506
72	0x3cb891d9	0.022530483
73	0x3cb5bb3b	0.022184005
74	0xbdba50c9	-0.0909744
75	0xbe0664de	-0.13124415
76	0x3db0c710	0.08631718
77	0xbc584b32	-0.013201522
78	0xbe9a8ff3	-0.3018795
79	0x3d92cb76	0.07167713
80	0x3d5bb018	0.053634733
81	0x3aa3f1ef	0.0012508015
82	0xbcda39b1	-0.026638838
83	0xbd395e6f	-0.045256075
84	0x3db37ddb	0.087642394
85	0xbcc889e7	-0.02447982
86	0xbd2a2314	-0.04153736
87	0x3c26c510	0.010178819
88	0xbb9b3ead	-0.004737696
89	0xbc568b35	-0.013094713
90	0x3d4bbac1	0.04973865
91	0xbd586d5a	-0.05283866
92	0xbe23f718	-0.16012228
93	0x3d318424	0.04333891
94	0x3e9d3044	0.30700886
95	0xbd7d2cb0	-0.061810195
96	0x3c82ea17	0.015980763
97	0x3cd2cc15	0.02573208
98	0xbd296949	-0.041360173
99	0x3e3ac3b7	0.18238722
100	0x3d0128b7	0.03153297
101	0x3bc66872	0.0060549313
102	0xbe2b458c	-0.16725749
103	0x3cf41cbf	0.029798863
104	0xbdc03f3b	-0.0938706
105	0x3b9c5b40	0.00477162
106	0x3cae367f	0.02126622
107	0xbbf8455a	-0.0075766267
108	0x3d9298fe	0.07158087
109	0x3b0ba3d8	0.0021307375
110	0xbeabf549	-0.33585575
111	0x3cb14716	0.021640342
112	0xbdd51e9a	-0.104062274
113	0x3c916266	0.017747115
114	0x3ccffc82	0.02538896
115	0xbded4667	-0.11585694
116	0x3c8489ec	0.016179048
117	0x3dbdcc49	0.0926748
118	0x3e87f1fe	0.26551813
119	0xbc37f4bf	-0.011227786
120	0x3c6cbb74	0.014448989
121	0x3ce99bdc	0.028516702
122	0x3c6b625a	0.014366711
123	0xbd730f9c	-0.059341058
124	0x3e230e5e	0.1592345
125	0x3d458ffe	0.048233025
126	0x3d0f34db	0.034962516
127	0xbcd8aed0	-0.026450545
128	0x3c733ef3	0.014846551
129	0xbc2b4e55	-0.0104556875
130	0x3cbeedc1	0.02330673
131	0xbe0af738	-0.13570869
132	0xbe00b155	-0.12567647
133	0x3ca4bbcd	0.020109082
134	0x3e4bc09a	0.1989769
135	0x3d4b512e	0.049637966
136	0x3c5fa3b8	0.013649873
137	0xbcb0a8d2	-0.021564875
138	0xbd4f8ffe	-0.05067443
139	0x3c4c2f46	0.012462443
140	0xbe016f5e	-0.1264014
141	0x3ca7e1dc	0.02049344
142	0x3ebdfe76	0.371082
143	0x3cb10ad2	0.021611605
144	0xbd8c890d	-0.06862078
145	0xbbe27f82	-0.006912173
146	0x3c04c0ee	0.008102639
147	0xbdf03a68	-0.1172989
148	0xbe193683	-0.14962201
149	0xbc918995	-0.0177658
150	0xbe237470	-0.15962386
151	0x3ce5cb54	0.028051056
152	0xbd255aef	-0.040369924
153	0xbc409d9d	-0.011756328
154	0xbd766c36	-0.06016179
155	0xbd54b9c5	-0.051934976
156	0x3c166bc5	0.009180968
157	0x3d6a3a87	0.057184722
158	0x3e38d5cd	0.18050309
159	0x3cf3eb63	0.029775327
160	0xbd24a37a	-0.040194966
161	0xbd875187	-0.06607347
162	0x3c1f2388	0.009713061
163	0x3d7d61a3	0.06186069
164	0xbc826af8	-0.015920147
165	0x3da49382	0.080359474
166	0xbe2097b0	-0.15682864
167	0xbd01759e	-0.03160631
168	0xbc38f9e3	-0.011290046
169	0x3cb8467d	0.022494549
170	0xbc81731d	-0.01580196
171	0x3e23bae7	0.15989266
172	0xbe6aacc2	-0.22917464
173	0x3bf859b2	0.007579052
174	0xbeb43b3b	-0.3520144
175	0x3d831e42	0.064022556
176	0xbd10c917	-0.035348024
177	0x3d90ede4	0.07076624
178	0xbd11154a	-0.035420693
179	0xbd8aca83	-0.06776907
180	0xbd5c77a4	-0.053825036
181	0x3c88d8ef	0.016705004
182	0xbeb18e34	-0.34678805
183	0x3cc6d89f	0.024273215
184	0x3bb3ba60	0.005484864
185	0xbd055d9a	-0.03255997
186	0x3d0581ec	0.032594606
187	0x3e5c46c4	0.2151137
188	0x3cb0b308	0.021569744
189	0xbbf95f18	-0.007610213
190	0xbe0efb3e	-0.13963029
191	0x3d78665d	0.060644496
192	0x3c2f9cb3	0.010718512
193	0xbc5ee25d	-0.013603774
194	0xbd1ae5ec	-0.037816927
195	0xbe104190	-0.1408751
196	0x3c98200d	0.01856997
197	0x3cdefed7	0.027221126
198	0x3d5eb1c5	0.054368753
199	0xbbc45e66	-0.0059926985
200	0xbbdfc2ed	-0.006828657
201	0x3d01661e	0.031591527
202	0xbc10a7d9	-0.0088290805
203	0xbec3cd2b	-0.38242468
204	0xbe5dae26	-0.21648464
205	0x3c84eced	0.016226256
206	0x3e1a2e8f	0.15056823
207	0x3ab4a6d3	0.0013782628
208	0xbbf1bba2	-0.007377104
209	0xbc24f78d	-0.010068786
210	0xbbdc4b08	-0.0067228116
211	0xbc53b6bc	-0.012921985
212	0xbebb2398	-0.36550593
213	0xbd316597	-0.043309774
214	0x3e4f97ee	0.202728
215	0x3d608ae8	0.05481997
216	0xbcba914c	-0.022774361
217	0x3d9d2c7b	0.076744996
218	0xbcc48336	-0.023988348
219	0xbd9fd1a9	-0.078036614
220	0x3d9b6bef	0.07588946
221	0x3d0c8d6a	0.03431455
222	0x3d28bb31	0.041194145
223	0x3b0bbc97	0.0021322125
224	0xbd0465a4	-0.032323495
225	0x3cd66e3f	0.026175616
226	0xbcd20e9b	-0.02564173
227	0x3e01687b	0.12637512
228	0xbe1591db	-0.1460642
229	0xbd014044	-0.03155543
230	0xbe307b89	-0.17234625
231	0x3d091cba	0.03347466
232	0xbd71ac96	-0.05900248
233	0x3b2e4439	0.0026590957
234	0x3caffe46	0.021483552
235	0xbe753ea0	-0.23949671
236	0xbd01c237	-0.03167936
237	0x3b132d99	0.0022457598
238	0x3d842686	0.0645266
239	0xbd35ee52	-0.044416733
240	0x3d12cc60	0.03583944
241	0xbb322a3d	-0.002718582
242	0xbcd1c7b8	-0.025607929
243	0x3c1aed16	0.00945594
244	0xbbcf472e	-0.006325624
245	0x3c927c33	0.017881488
246	0x3bfe46c2	0.0077599
247	0x3d58d54a	0.052937783
248	0x3d59cd32	0.053174205
249	0x3d2b0cb4	0.04176016
250	0xba9c5224	-0.0011926335
251	0xbda42b1b	-0.08016034
252	0xbe158f54	-0.14605457
253	0x3d0721c7	0.032991197
254	0xbe1795d3	-0.14803247
255	0x3b8a3051	0.0042171855

model/time_distributed/conv2d/Conv2D f4 [8, 3, 3, 1]
0	0x3adacc1f	0.0016692913
1	0xbb2c202b	-0.002626429
2	0x3af1836a	0.0018426005
3	0x3bb045a9	0.005379398
4	0x3b2fe3f9	0.0026838763
5	0x3a389010	0.000704051
6	0x3a907370	0.0011020731
7	0xbafd161a	-0.0019308955
8	0xbb1bf8e9	-0.0023799485
9	0x3a476e8e	0.00076077215
10	0xba3b7e53	-0.00071523077
11	0x3a18226b	0.00058034685
12	0x3962ec8c	0.0002164116
13	0xba28ed84	-0.0006444084
14	0xba423ad8	-0.0007409281
15	0x39816e02	0.0002468676
16	0xba1e429e	-0.00060371484
17	0x3a57bdf8	0.00082299067
18	0xbbaa7fd0	-0.0052032247
19	0xbb057383	-0.002036304
20	0xba9ef858	-0.0012128456
21	0x3b807940	0.003920704
22	0x3b6be1f7	0.003599284
23	0xb8dfd458	-0.00010673021
24	0xbbac8059	-0.0052643237
25	0x3baaa00d	0.005207068
26	0x3af8176a	0.0018927876
27	0x3baad540	0.0052134097
28	0x3c17efa5	0.009273444
29	0x3ae85adf	0.0017727277
30	0x39dae863	0.00041753342
31	0xbc077e35	-0.008269836
32	0xb9422a08	-0.0001851694
33	0xba3d559f	-0.00072225364
34	0x39800d00	0.00024423748
35	0x3cbf1b4a	0.023328442
36	0xbb273d8d	-0.0025518865
37	0xb7bf5388	-2.2807872e-05
38	0x3b175e8b	0.0023097123
39	0xbbbd0439	-0.0057683256
40	0x3b3ca100	0.0028782487
41	0xbb967570	-0.0045916364
42	0x3d14a5c6	0.036290906
43	0x3b02caea	0.0019957372
44	0xbc0382ad	-0.008026761
45	0xba83af8e	-0.0010046826
46	0xbb1025ba	-0.0021995143
47	0x3b150de0	0.0022743866
48	0xba9ce728	-0.0011970745
49	0xbb139093	-0.0022516593
50	0xbb186c46	-0.0023257895
51	0xb93fecb1	-0.00018303354
52	0xbb0b8188	-0.0021286923
53	0xbaddb082	-0.0016913565
54	0x3bc5a769	0.0060319197
55	0x3a0406b0	0.0005036397
56	0x3b8e7853	0.00434784
57	0xba95f709	-0.001144142
58	0xbbdd8308	-0.006760005
59	0x39cb0db8	0.00038729399
60	0xbc24bc0e	-0.010054601
61	0xbcef4d8e	-0.029211786
62	0x3b32b1c3	0.0027266599
63	0xba1654ca	-0.00057346805
64	0x39963e58	0.0002865668
65	0x3acf0623	0.0015794676
66	0x3a314345	0.0006762038
67	0x3ac87cb2	0.0015295951
68	0x3a662eb8	0.00087807653
69	0xbb2f5c7a	-0.0026758001
70	0xbab605fa	-0.0013887279
71	0x3b58c857	0.0033078396

model/time_distributed_11/conv2d_3/Conv2D f4 [16, 3, 3, 8]
0	0x3e522a2b	0.20523898
1	0x3bdc88cc	0.0067301746
2	0x3c047cc3	0.008086386
3	0x3c714f19	0.014728331
4	0xbeb0224e	-0.34401172
5	0xbe956d43	-0.29184923
6	0xbded4cc0	-0.115869045
7	0xbd6a2ffe	-0.057174675
8	0x3c73ece9	0.014888027
9	0x3ca94a57	0.02066533
10	0x3c7234dd	0.014783111
11	0xbc56bde4	-0.013106797
12	0xbea16474	-0.31521952
13	0x3e73c5a8	0.23805869
14	0xbe1a7fda	-0.15087834
15	0xbd48a341	-0.048983816
16	0xbddfe55e	-0.1093242
17	0x3c50aeb0	0.012736961
18	0x3b91e581	0.004452408
19	0xbb1c3961	-0.0023837911
20	0xbeae8428	-0.34085202
21	0x3d443b7f	0.047908302
22	0x3db000f0	0.08593929
23	0xbca4798e	-0.020077493
24	0xbe5a70f5	-0.21332152
25	0xbcaf08a1	-0.02136642
26	0x3ccccfa0	0.025001347
27	0xbd20919e	-0.03920137
28	0x3d0014c4	0.031269804
29	0x3e11f3da	0.14253178
30	0xbea5ec75	-0.32406965
31	0xbc69d5df	-0.014272182
32	0x3d29a011	0.041412417
33	0xbd2c21bc	-0.04202436
34	0x3b42e4ee	0.0029738504
35	0xbc4d2a08	-0.012522228
36	0x3b571904	0.0032821307
37	0xbb70d40c	-0.0036747484
38	0x3dc09cd0	0.094049096
39	0x3d140f8f	0.03614765
40	0x3cc9f0cd	0.024650956
41	0xbc1b68c4	-0.009485427
42	0xbbd447bf	-0.0064782794
43	0xbcaf565a	-0.02140348
44	0xbc0384fd	-0.008027312
45	0xbe791865	-0.24325712
46	0x3db88d34	0.09011307
47	0x3d5aa988	0.053384334
48	0x3c302b7a	0.010752553
49	0xbd298dfb	-0.04139517
50	0x3cb9893c	0.022648446
51	0x3c21c9c6	0.009874767
52	0xbcac68c7	-0.021046055
53	0xbdcd860b	-0.10035332
54	0xbe31dae5	-0.17368658
55	0xbd2b9482	-0.041889675
56	0xbd007c54	-0.03136857
57	0x3d451742	0.048117884
58	0x3ba4d271	0.0050299694
59	0x3d15e61f	0.036596414
60	0x3d8c2e6f	0.06844794
61	0x3c892811	0.016742738
62	0xbceb06e9	-0.028689818
63	0xbd331657	-0.043722477
64	0x3d0f6337	0.035006728
65	0x3c15c94a	0.009142229
66	0x3c20d178	0.009815566
67	0x3d59b13e	0.053147547
68	0x3ea78d3b	0.32724938
69	0xbcdf0cca	-0.027227778
70	0xbea71be9	-0.3263848
71	0x3d6fbb33	0.058528136
72	0x3efbe00b	0.4919437
73	0x3cdb8427	0.026796414
74	0x3bb9b78d	0.005667633
75	0x3d8cafdf	0.06869482
76	0x3e56b65d	0.20968004
77	0xbdd11bea	-0.10210402
78	0xbea9ebea	-0.331878
79	0x39a778e8	0.00031942804
80	0x3ca7ba7b	0.020474663
81	0xbc7fa8f4	-0.015604246
82	0xbb374f4e	-0.0027970853
83	0xbd8daceb	-0.06917747
84	0xbe169f5d	-0.1470923
85	0x3e2d07ea	0.1689755
86	0xbde393bf	-0.11112165
87	0xbcdba53a	-0.026812185
88	0xbeef0c92	-0.46689278
89	0xbc217b4e	-0.009856058
90	0x3c924340	0.017854333
91	0xbceb8fd6	-0.02875511
92	0xbecb8e7c	-0.39757144
93	0xbe088301	-0.13331224
94	0x3e9ffea7	0.31248972
95	0x3c5084d7	0.012726984
96	0xbe95bee2	-0.29247195
97	0xbcc77768	-0.02434893
98	0x3d1f13d6	0.038837276
99	0xbcade0ef	-0.02122542
100	0xbec67959	-0.38764456
101	0x3e526c83	0.20549206
102	0xbe7abbd4	-0.24485713
103	0x3ca2a77e	0.019855257
104	0x3e4151c9	0.18878855
105	0xba3fce51	-0.00073168153
106	0x3d39c6c7	0.045355584
107	0x3d8564e6	0.065133855
108	0xbe8c566d	-0.27409688
109	0xbe942327	-0.2893307
110	0xbe355e55	-0.17711766
111	0xbdcbe6fb	-0.099561654
112	0x3db30e14	0.087429196
113	0xbd4e5bc6	-0.05038049
114	0xbcb9ebcd	-0.022695446
115	0xbc0d1bfc	-0.008612629
116	0x3e8c1389	0.27358654
117	0x3b911ebc	0.0044287127
118	0x3a422929	0.0007406646
119	0x3cf85b0f	0.030316858
120	0x3e2fe420	0.17176867
121	0xbd491656	-0.049093567
122	0x3d16d80d	0.036827136
123	0x3c9318d2	0.017956171
124	0x3da82521	0.08210207
125	0x3e318292	0.17334965
126	0xbe6187ec	-0.22024506
127	0x3b4b5fb2	0.003103238
128	0xbe57e630	-0.21083903
129	0xbcf160a3	-0.029465025
130	0x3d96a680	0.07355976
131	0xbd83022a	-0.06396897
132	0xbddee0f6	-0.10882752
133	0xbe0579b9	-0.13034715
134	0xbde5690c	-0.11201677
135	0xbdc9747e	-0.09836672
136	0xbde7518d	-0.112948515
137	0xbd6fe202	-0.058565147
138	0x3ca220b9	0.019790994
139	0x3d138b84	0.036021724
140	0xbebe43c8	-0.37161088
141	0xbe026a4a	-0.12735859
142	0x3dba53c0	0.09098005
143	0xbd985109	-0.07437331
144	0x3a40e999	0.00073590275
145	0x3b0a0577	0.0021060386
146	0x3ba083f1	0.004898541
147	0xbb408278	-0.002937464
148	0xbac11062	-0.0014729614
149	0x3ab0f8c9	0.0013501878
150	0xb7b5ddae	-2.1680109e-05
151	0xba217073	-0.0006158419
152	0x3a380b11	0.0007020692
153	0x3af6cad9	0.0018828764
154	0x3ba0a036	0.004901911
155	0xbb415f12	-0.002950613
156	0xba9fa686	-0.0012180365
157	0x3b19d187	0.0023470835
158	0x3b5a85fa	0.0033344016
159	0xba2c9628	-0.00065836543
160	0xb9c5b175	-0.00037706984
161	0x3ac6b3be	0.0015159769
162	0x3ba4f5d5	0.0050341883
163	0xbb3f250f	-0.0029166376
164	0xb85397be	-5.044764e-05
165	0x3b85061e	0.004059567
166	0xbb322509	-0.002718272
167	0xba4e41ad	-0.0007868063
168	0x3b85d21f	0.0040838863
169	0x3b55885b	0.0032582495
170	0x3a1bb375	0.0005939522
171	0xba1c93be	-0.0005972943
172	0x3a98ba30	0.0011652168
173	0x3bcbfe99	0.0062254188
174	0x3b0b6c7f	0.0021274386
175	0x3a5ff2d4	0.0008542959
176	0x3a21854f	0.0006161527
177	0x3b2df8cb	0.0026545997
178	0x3abd1ece	0.0014428736
179	0xba0d28df	-0.00053848134
180	0x3b80e626	0.003933686
181	0x3ba77ad4	0.005111078
182	0xbc052392	-0.008126156
183	0x3b07cc22	0.0020721038
184	0xbb8efb5f	-0.004363462
185	0x3b070f88	0.0020608623
186	0x3b1cea6f	0.0023943444
187	0xba16290b	-0.0005728162
188	0x3c11f0d9	0.00890752
189	0x3ad9476c	0.0016577072
190	0x3889e8db	6.576042e-05
191	0x3b5b7bac	0.0033490462
192	0x3b109eda	0.002206734
193	0x3bd0c039	0.006370571
194	0x3a33bbe0	0.00068563037
195	0x3b7cc298	0.0038568135
196	0xbc00dd75	-0.0078652995
197	0xbbd2d9e7	-0.0064346674
198	0x3b3e9c52	0.0029084873
199	0xbaee7cae	-0.0018195116
200	0x3b95b21d	0.004568352
201	0x3bd78790	0.0065774396
202	0x3a8d162f	0.0010764058
203	0x3b8bed1a	0.004270208
204	0xbbed3258	-0.0072386675
205	0xbbeb35be	-0.0071780374
206	0xbaf1f377	-0.0018459399
207	0xbb021049	-0.0019846132
208	0xbc25e41e	-0.010125188
209	0x3bd7c572	0.0065848166
210	0x3abdc505	0.0014478272
211	0x3b9662ae	0.0045894003
212	0xbb38f935	-0.002822471
213	0xbbbe5bf1	-0.0058093
214	0xbb14e061	-0.0022716748
215	0xbae4225b	-0.0017405258
216	0xbe4be199	-0.19910277
217	0xbcb037c5	-0.021510968
218	0x3d3628d3	0.044472527
219	0x3c59ba79	0.013289087
220	0x3da1dd90	0.07903588
221	0xbd027996	-0.031854235
222	0xbe6b203e	-0.22961518
223	0x3ceff722	0.029292647
224	0x3e5156bf	0.20443247
225	0xbcdd8de0	-0.02704519
226	0x3d21b48e	0.03947883
227	0x3c404dcd	0.011737299
228	0x3d832973	0.0640439
229	0x3b8979e7	0.00419544
230	0xbe87098a	-0.26374465
231	0x3ca4db76	0.020124178
232	0x3bea7a7f	0.007155716
233	0xbcaad50f	-0.020853547
234	0x3d08f39e	0.033435456
235	0xbc161961	-0.009161324
236	0xbdf3b2e5	-0.11899356
237	0x3df581f3	0.119876765
238	0x3e22a418	0.1588291
239	0x3c83a24a	0.016068596
240	0x3ec06bec	0.37582338
241	0xbc5f4cf3	-0.013629186
242	0x3ba8fb98	0.0051569454
243	0x3d9995d2	0.07499279
244	0xbea18123	-0.31543836
245	0x3e3b1c9f	0.18272637
246	0xbde883a3	-0.11353233
247	0x3ceb3c98	0.028715417
248	0xbdc00caf	-0.09377419
249	0x3b64675a	0.0034851641
250	0xbb1dc37f	-0.0024072824
251	0x3c960d61	0.018316926
252	0xbdbe4456	-0.09290378
253	0x3d2210cd	0.039566804
254	0xbde18ee9	-0.11013586
255	0xbc9263de	-0.017869886

model/time_distributed_8/conv2d_2/Conv2D f4 [8, 3, 3, 1]
0	0xbc9b8794	-0.018985547
1	0xbcdaa77d	-0.026691193
2	0x3d4d4ad6	0.050120197
3	0x3d94d262	0.0726669
4	0xbd8331d8	-0.06405991
5	0x3c78bd1a	0.015181804
6	0xbd5e66d3	-0.05429728
7	0x3c5f1dbe	0.013617931
8	0x3d05dd71	0.032681886
9	0x3b6a1a24	0.0035721147
10	0xb90f53e2	-0.00013668792
11	0xb993065d	-0.00028042766
12	0xbad6831e	-0.001636598
13	0x3a06bc55	0.0005139758
14	0xba2e0fe4	-0.0006639941
15	0x3b1b55cb	0.002370226
16	0x39e564f5	0.00043753503
17	0xba07723b	-0.0005166863
18	0x39107def	0.00013779824
19	0xbbedcfcc	-0.0072574373
20	0x3be96058	0.007122081
21	0x39d369d2	0.00040323898
22	0x3a67d12a	0.00088431186
23	0xbb89deab	-0.0042074523
24	0x3b36b215	0.0027877141
25	0x3b1ee4ab	0.0024245183
26	0xbb90d6e6	-0.004420149
27	0x3b9f2ad1	0.004857399
28	0xbbedc2b3	-0.007255876
29	0x3ba9d05e	0.00518231
30	0xbb7fad33	-0.0039013147
31	0x3a812b42	0.0009854811
32	0xbb582bce	-0.0032985094
33	0x3b53ca5e	0.0032316665
34	0xbac99af0	-0.0015381258
35	0xbaa9a239	-0.0012942023
36	0x3b864527	0.004097599
37	0x3b565b25	0.0032708135
38	0x3c284bf2	0.010272013
39	0x3cadba85	0.021207104
40	0xbd053779	-0.032523606
41	0x3c46e5c5	0.012139742
42	0xbbcd1c64	-0.006259488
43	0x3b7291b5	0.0037013118
44	0x3ca482dd	0.020081932
45	0xbd231382	-0.039813526
46	0x3d5fb224	0.054613248
47	0x3cb409db	0.021977356
48	0x3d1e927a	0.03871391
49	0xbdc3888e	-0.0954753
50	0x3d2ccc5c	0.04218708
51	0xbcdc7b06	-0.02691413
52	0x3d89ebed	0.067344524
53	0xbd1afd9a	-0.03783951
54	0x3cc337af	0.023830263
55	0xbd72bc71	-0.059261743
56	0x3c4cac8e	0.012492312
57	0xbc701b72	-0.014654981
58	0x3cac6198	0.02104263
59	0xbc2c0b47	-0.010500736
60	0x3bffe32d	0.007809064
61	0x3d4cebba	0.050029494
62	0xbd809c72	-0.062798396
63	0xba5b2ceb	-0.00083608803
64	0xbc28b04f	-0.0102959415
65	0x3bd367be	0.006451576
66	0x3c25a012	0.0101089645
67	0xbccd92af	-0.025094358
68	0x3c330c6a	0.010928253
69	0x3c0b6818	0.008508705
70	0x3b0d0e44	0.0021523396
71	0xbb51d488	-0.0032017548

model/lstm/TensorArrayV2_1 f4 [120, 1, 32]
0	0x00000000	0.0
1	0x00000000	0.0
2	0x00000000	0.0
3	0x00000000	0.0
4	0x00000000	0.0
5	0x00000000	0.0
6	0x00000000	0.0
7	0x00000000	0.0
8	0x00000000	0.0
9	0x00000000	0.0
10	0x00000000	0.0
11	0x00000000	0.0
12	0x00000000	0.0
13	0x00000000	0.0
14	0x00000000	0.0
15	0x00000000	0.0
16	0x00000000	0.0
17	0x00000000	0.0
18	0x00000000	0.0
19	0x00000000	0.0
20	0x00000000	0.0
21	0x00000000	0.0
22	0x00000000	0.0
23	0x00000000	0.0
24	0x00000000	0.0
25	0x00000000	0.0
26	0x00000000	0.0
27	0x00000000	0.0
28	0x00000000	0.0
29	0x00000000	0.0
30	0x00000000	0.0
31	0x00000000	0.0
32	0x00000000	0.0
33	0x00000000	0.0
34	0x00000000	0.0
35	0x00000000	0.0
36	0x00000000	0.0
37	0x00000000	0.0
38	0x00000000	0.0
39	0x00000000	0.0
40	0x00000000	0.0
41	0x00000000	0.0
42	0x00000000	0.0
43	0x00000000	0.0
44	0x00000000	0.0
45	0x00000000	0.0
46	0x00000000	0.0
47	0x00000000	0.0
48	0x00000000	0.0
49	0x00000000	0.0
50	0x00000000	0.0
51	0x00000000	0.0
52	0x00000000	0.0
53	0x00000000	0.0
54	0x00000000	0.0
55	0x00000000	0.0
56	0x00000000	0.0
57	0x00000000	0.0
58	0x00000000	0.0
59	0x00000000	0.0
60	0x00000000	0.0
61	0x00000000	0.0
62	0x00000000	0.0
63	0x00000000	0.0
64	0x00000000	0.0
65	0x00000000	0.0
66	0x00000000	0.0
67	0x00000000	0.0
68	0x00000000	0.0
69	0x00000000	0.0
70	0x00000000	0.0
71	0x00000000	0.0
72	0x00000000	0.0
73	0x00000000	0.0
74	0x00000000	0.0
75	0x00000000	0.0
76	0x00000000	0.0
77	0x00000000	0.0
78	0x00000000	0.0
79	0x00000000	0.0
80	0x00000000	0.0
81	0x00000000	0.0
82	0x00000000	0.0
83	0x00000000	0.0
84	0x00000000	0.0
85	0x00000000	0.0
86	0x00000000	0.0
87	0x00000000	0.0
88	0x00000000	0.0
89	0x00000000	0.0
90	0x00000000	0.0
91	0x00000000	0.0
92	0x00000000	0.0
93	0x00000000	0.0
94	0x00000000	0.0
95	0x00000000	0.0
96	0x00000000	0.0
97	0x00000000	0.0
98	0x00000000	0.0
99	0x00000000	0.0
100	0x00000000	0.0
101	0x00000000	0.0
102	0x00000000	0.0
103	0x00000000	0.0
104	0x00000000	0.0
105	0x00000000	0.0
106	0x00000000	0.0
107	0x00000000	0.0
108	0x00000000	0.0
109	0x00000000	0.0
110	0x00000000	0.0
111	0x00000000	0.0
112	0x00000000	0.0
113	0x00000000	0.0
114	0x00000000	0.0
115	0x00000000	0.0
116	0x00000000	0.0
117	0x00000000	0.0
118	0x00000000	0.0
119	0x00000000	0.0
120	0x00000000	0.0
121	0x00000000	0.0
122	0x00000000	0.0
123	0x00000000	0.0
124	0x00000000	0.0
125	0x00000000	0.0
126	0x00000000	0.0
127	0x00000000	0.0
128	0x00000000	0.0
129	0x00000000	0.0
130	0x00000000	0.0
131	0x00000000	0.0
132	0x00000000	0.0
133	0x00000000	0.0
134	0x00000000	0.0
135	0x00000000	0.0
136	0x00000000	0.0
137	0x00000000	0.0
138	0x00000000	0.0
139	0x00000000	0.0
140	0x00000000	0.0
141	0x00000000	0.0
142	0x00000000	0.0
143	0x00000000	0.0
144	0x00000000	0.0
145	0x00000000	0.0
146	0x00000000	0.0
147	0x00000000	0.0
148	0x00000000	0.0
149	0x00000000	0.0
150	0x00000000	0.0
151	0x00000000	0.0
152	0x00000000	0.0
153	0x00000000	0.0
154	0x00000000	0.0
155	0x00000000	0.0
156	0x00000000	0.0
157	0x00000000	0.0
158	0x00000000	0.0
159	0x00000000	0.0
160	0x00000000	0.0
161	0x00000000	0.0
162	0x00000000	0.0
163	0x00000000	0.0
164	0x00000000	0.0
165	0x00000000	0.0
166	0x00000000	0.0
167	0x00000000	0.0
168	0x00000000	0.0
169	0x00000000	0.0
170	0x00000000	0.0
171	0x00000000	0.0
172	0x00000000	0.0
173	0x00000000	0.0
174	0x00000000	0.0
175	0x00000000	0.0
176	0x00000000	0.0
177	0x00000000	0.0
178	0x00000000	0.0
179	0x00000000	0.0
180	0x00000000	0.0
181	0x00000000	0.0
182	0x00000000	0.0
183	0x00000000	0.0
184	0x00000000	0.0
185	0x00000000	0.0
186	0x00000000	0.0
187	0x00000000	0.0
188	0x00000000	0.0
189	0x00000000	0.0
190	0x00000000	0.0
191	0x00000000	0.0
192	0x00000000	0.0
193	0x00000000	0.0
194	0x00000000	0.0
195	0x00000000	0.0
196	0x00000000	0.0
197	0x00000000	0.0
198	0x00000000	0.0
199	0x00000000	0.0
200	0x00000000	0.0
201	0x00000000	0.0
202	0x00000000	0.0
203	0x00000000	0.0
204	0x00000000	0.0
205	0x00000000	0.0
206	0x00000000	0.0
207	0x00000000	0.0
208	0x00000000	0.0
209	0x00000000	0.0
210	0x00000000	0.0
211	0x00000000	0.0
212	0x00000000	0.0
213	0x00000000	0.0
214	0x00000000	0.0
215	0x00000000	0.0
216	0x00000000	0.0
217	0x00000000	0.0
218	0x00000000	0.0
219	0x00000000	0.0
220	0x00000000	0.0
221	0x00000000	0.0
222	0x00000000	0.0
223	0x00000000	0.0
224	0x00000000	0.0
225	0x00000000	0.0
226	0x00000000	0.0
227	0x00000000	0.0
228	0x00000000	0.0
229	0x00000000	0.0
230	0x00000000	0.0
231	0x00000000	0.0
232	0x00000000	0.0
233	0x00000000	0.0
234	0x00000000	0.0
235	0x00000000	0.0
236	0x00000000	0.0
237	0x00000000	0.0
238	0x00000000	0.0
239	0x00000000	0.0
240	0x00000000	0.0
241	0x00000000	0.0
242	0x00000000	0.0
243	0x00000000	0.0
244	0x00000000	0.0
245	0x00000000	0.0
246	0x00000000	0.0
247	0x00000000	0.0
248	0x00000000	0.0
249	0x00000000	0.0
250	0x00000000	0.0
251	0x00000000	0.0
252	0x00000000	0.0
253	0x00000000	0.0
254	0x00000000	0.0
255	0x00000000	0.0

model/dense/BiasAdd/ReadVariableOp/resource f4 [256]
0	0xbd15968c	-0.036520526
1	0x3d08be21	0.033384446
2	0xba636539	-0.0008674446
3	0x3d8f16b9	0.06986756
4	0xbc58ce84	-0.013232831
5	0xbbd154a7	-0.006388265
6	0xbd2a81e0	-0.041627765
7	0xbc9e1bd4	-0.019300379
8	0xbcb884f2	-0.02252433
9	0xbda6c57e	-0.081431374
10	0xbd5599d6	-0.052148663
11	0xbcadbf87	-0.021209491
12	0x3d791b30	0.060816944
13	0xbce00c93	-0.027349746
14	0xbb70bcf6	-0.0036733723
15	0xbd44f9d1	-0.048089806
16	0xbc63fb9a	-0.013914967
17	0x3c8689b9	0.016423093
18	0x3d7ce484	0.061741367
19	0x3d2016da	0.039084293
20	0x3cb13473	0.021631455
21	0x3cf67b17	0.03008799
22	0xbcaa9767	-0.020824147
23	0x3d7f789f	0.062370893
24	0x3d0221f9	0.03177068
25	0x3be35c8b	0.006938522
26	0xbd28f6e3	-0.041251075
27	0x3cc2a84a	0.023761887
28	0x3c6749d5	0.014116724
29	0x3cece1cf	0.028916268
30	0xbd2d4aff	-0.04230785
31	0x3d137f58	0.036010116
32	0xbcb6e970	-0.022328109
33	0xbca6e05c	-0.020370655
34	0xbcd78a0d	-0.026310945
35	0x3d328cb6	0.043591224
36	0x3c040663	0.008058163
37	0xbd32f74f	-0.043692883
38	0xbe2f98a9	-0.17148079
39	0xbd13ef61	-0.03611696
40	0xbc4aa9ed	-0.012369615
41	0xbc175525	-0.009236609
42	0xbdd6acf6	-0.104822084
43	0x3ca34b54	0.01993338
44	0xbd504e3f	-0.05085587
45	0x3d05fe30	0.032713115
46	0x3d1dc008	0.038513213
47	0xbc83d5f7	-0.016093237
48	0x3da1f3c2	0.07907821
49	0xbd0d03dc	-0.03442751
50	0xba749a00	-0.0009330809
51	0x3dda4981	0.10658551
52	0xbd3927bd	-0.045203913
53	0xbbf7807b	-0.007553158
54	0xbc7c4344	-0.015396897
55	0x3c5d5a50	0.013510302
56	0xbd180ec9	-0.037123475
57	0xbc898c56	-0.01679055
58	0x3c8bca17	0.017064137
59	0x3c4cdaa7	0.012503303
60	0x3d09d617	0.033651438
61	0xbc1bc978	-0.009508483
62	0xbce1ead3	-0.027577793
63	0x3a8f873e	0.001095034
64	0x3c494697	0.012284896
65	0xbd42cd72	-0.04755921
66	0x3d1c8e3c	0.038221583
67	0x3d1868b0	0.037209213
68	0x3d7c2729	0.061560784
69	0x3d04dc28	0.03243652
70	0xbbfec377	-0.007774766
71	0xbbae1031	-0.0053119888
72	0x3d406049	0.046966825
73	0xbc027c9f	-0.007964282
74	0xbd386ffc	-0.04502867
75	0x3c5f61d6	0.013634166
76	0xbcd08a74	-0.025456645
77	0xbd2c13e9	-0.042011175
78	0x3cc204dc	0.023683958
79	0x3d60dfb3	0.054900836
80	0xbba48169	-0.0050203097
81	0x3cee455b	0.029085806
82	0xbbf8e76c	-0.007595947
83	0x3ce5f168	0.028069213
84	0xbbded891	-0.006800719
85	0xbcd9be2f	-0.026579944
86	0xbc9f1e90	-0.019423753
87	0xbc7ca9b5	-0.015421321
88	0x3cea0cfc	0.028570645
89	0xbbe77b43	-0.0070642545
90	0xbd99a349	-0.07501847
91	0xbd3dbc11	-0.046321932
92	0x3c99b26c	0.018761836
93	0x3cc7111d	0.024300152
94	0x3d8d3b64	0.068960935
95	0xbcfbdd1b	-0.03074508
96	0xbcb1a5a3	-0.021685427
97	0x3b8f2033	0.004367852
98	0xbcc85273	-0.024453377
99	0x3d91b496	0.07114522
100	0xbd046682	-0.03232432
101	0x3c9439a7	0.018093897
102	0xbc00aef6	-0.007854214
103	0xbd8844c7	-0.06653743
104	0xbbc11b21	-0.0058931266
105	0x3c81e6b2	0.015857074
106	0xbcb3872f	-0.021915046
107	0x3c843628	0.016139105
108	0x3c54ba7d	0.012983915
109	0xbd02f38a	-0.03197054
110	0x3c8de55b	0.01732128
111	0x3c2f4845	0.010698383
112	0x3d1214a5	0.03566422
113	0x3d316ec0	0.04331851
114	0x3d344f16	0.044020735
115	0xbc05f1f9	-0.008175367
116	0x3c31350f	0.010815873
117	0x3c29c199	0.010361099
118	0xbbeee808	-0.007290844
119	0xbcc00be2	-0.023443166
120	0xbd4ab97c	-0.049493298
121	0xbd8a6e08	-0.06759268
122	0xbd78c123	-0.060731065
123	0xbcd7f46a	-0.026361663
124	0x3cf66b57	0.03008048
125	0x3d0d61a3	0.03451694
126	0x3cd9cddf	0.026587425
127	0xbc46c7a7	-0.012132562
128	0x3d2dd162	0.04243601
129	0x3bf92305	0.0076030516
130	0xbccd7446	-0.025079858
131	0x3c1f68e6	0.0097296
132	0xba9e3284	-0.0012069498
133	0xbdb2aaaa	-0.08723958
134	0x3ce3c24b	0.027802607
135	0x3b788bf3	0.0037925213
136	0xbcf64a8f	-0.03006485
137	0x3db349b4	0.08754292
138	0x3d2bc688	0.04193738
139	0x3d842cf6	0.06453888
140	0xbd0fa8cd	-0.03507309
141	0x3d0e16e4	0.0346898
142	0xbcf45861	-0.029827299
143	0xbce8d21e	-0.028420504
144	0xbd1df0f2	-0.03855986
145	0x3d190ea4	0.037367478
146	0x3d862d99	0.06551666
147	0xbc1ce03a	-0.009574944
148	0x3dba8308	0.091070235
149	0x3c84e7c7	0.016223801
150	0xbccc24ec	-0.02491995
151	0xb9af713f	-0.00033462976
152	0xbd66fe2e	-0.05639475
153	0xbdb95fe4	-0.09051493
154	0xbd557231	-0.052110855
155	0xbcbee95e	-0.023304638
156	0xbd0c1501	-0.03419972
157	0xbd0675ca	-0.032827176
158	0x3c7150c4	0.014728729
159	0x3d9a1c52	0.07524933
160	0xbd68abab	-0.05680434
161	0xbd5cbe18	-0.053892225
162	0xbda14c8c	-0.07875928
163	0x3bbc69dc	0.005749924
164	0xbb0fe405	-0.0021955979
165	0xbd727e19	-0.059202287
166	0x3d23d097	0.03999385
167	0xba073b71	-0.0005158699
168	0x3cbea5a3	0.023272341
169	0x3c387e8e	0.011260642
170	0xbd3a805f	-0.04553258
171	0xbd24a8f6	-0.040200196
172	0x3d9ad365	0.075598516
173	0x3d1d3c90	0.038387835
174	0x3b634fd7	0.003468504
175	0xbbcb1f3e	-0.0061987927
176	0x3c9daf70	0.019248694
177	0x3c0bcd33	0.00853281
178	0xbcc9199e	-0.024548348
179	0x3c82b18f	0.015953807
180	0x3d286c44	0.041118875
181	0x3d150355	0.03638013
182	0x3d481b1b	0.048853975
183	0x3d327541	0.043568853
184	0x3d713a3d	0.05889343
185	0x3c4fe5e1	0.012689085
186	0x3da7ac68	0.08187181
187	0xbd395f61	-0.045256976
188	0x3dcb8e7e	0.099392876
189	0xbcef4752	-0.029208813
190	0x3d084820	0.03327191
191	0x3ae943fb	0.0017796749
192	0xbd2599eb	-0.04042999
193	0x3c7e43d8	0.015519105
194	0xbd0bdeb7	-0.034147944
195	0x3c3c43d1	0.011490778
196	0xbc9d0365	-0.019166658
197	0x3d1bc1ca	0.03802661
198	0x3c72418c	0.014786135
199	0xbbd8c96d	-0.0066158087
200	0x3d7111ba	0.058854796
201	0xbcfca6e5	-0.0308413
202	0x3bbc3a8b	0.0057442836
203	0xbd1f230f	-0.038851794
204	0xbdd0145e	-0.10160135
205	0x3b51d141	0.0032015594
206	0x3d84a9bb	0.06477686
207	0xbd3d099a	-0.046151735
208	0xbcf790c7	-0.030220402
209	0x3c664fbd	0.014057097
210	0xbc9f8d6d	-0.019476617
211	0x3c1959cd	0.009359789
212	0x3bf5d40f	0.007502086
213	0x3d3db1af	0.04631203
214	0xbd8d4e27	-0.06899672
215	0xbbe26270	-0.0069087073
216	0xbc48ee33	-0.012263822
217	0x3d02aa46	0.031900667
218	0x3c860bc8	0.01636304
219	0xbc9a22ec	-0.01881548
220	0xbc386d2c	-0.011256497
221	0xbd3b4162	-0.04571665
222	0x3c5acfd2	0.013355212
223	0xbe0dab89	-0.13834967
224	0x3cbb1bf4	0.022840478
225	0xbd2b5530	-0.041829288
226	0x3d78e363	0.060763728
227	0x3ce1463f	0.027499316
228	0xbd2395d6	-0.039937817
229	0xbc8f69af	-0.017506449
230	0x3ce07940	0.027401567
231	0x3cae8aa8	0.02130635
232	0x3d37ed81	0.044904236
233	0xbb41a383	-0.0029546923
234	0xbcbfbbcf	-0.023404984
235	0x3caeb4bd	0.021326417
236	0xbd148f98	-0.036269754
237	0x3b9cf8d7	0.004790406
238	0xbd2c86b6	-0.042120658
239	0xbcb123f5	-0.021623591
240	0xbc1c7537	-0.009549431
241	0x3ce08b04	0.027410038
242	0xbb12c9da	-0.0022398145
243	0xbcdab340	-0.026696801
244	0xbd232c8f	-0.039837416
245	0xbb46cec8	-0.0030335654
246	0x3c4ec21f	0.012619524
247	0x3c973603	0.018458372
248	0x3d08213d	0.033234823
249	0xbcc5c135	-0.02413998
250	0x3cb10a4d	0.021611357
251	0xbcf70438	-0.030153379
252	0x3d64eb8b	0.055888694
253	0x3d3db2e7	0.046313193
254	0x3cd0687a	0.025440443
255	0xbd34bd5c	-0.0441259

model/last_layer/BiasAdd/ReadVariableOp/resource f4 [31]
0	0xbc44a6c3	-0.01200265
1	0xbc51a477	-0.012795559
2	0xbb425b19	-0.002965635
3	0xbc376e83	-0.011195782
4	0xbc3f75be	-0.011685787
5	0x3bc040bf	0.0058670933
6	0xbba87a33	-0.0051415204
7	0xbc0f47c9	-0.008745142
8	0xbbbdaef8	-0.00578868
9	0xbbd37ea7	-0.006454307
10	0xbb9978c1	-0.0046835844
11	0xbbea8afb	-0.007157681
12	0xbc07b7f3	-0.008283603
13	0xbb95f665	-0.0045764917
14	0x3a7b7455	0.0009592225
15	0x3c67949e	0.014134554
16	0x3b379384	0.002801151
17	0xbb3251a4	-0.0027209306
18	0x3bd6a501	0.0065504317
19	0xbc53d5d5	-0.0129293995
20	0x3af55a4d	0.0018718928
21	0x3c143960	0.009046882
22	0xbcc86073	-0.024460053
23	0xb8f70e08	-0.00011780491
24	0xbc87c6b0	-0.016574234
25	0xbb7b16fc	-0.003831326
26	0x3bf03e2e	0.007331631
27	0x3cb2da57	0.021832628
28	0xbc64ff25	-0.013976847
29	0x3a8a2c4a	0.0010541764
30	0x3bcd872b	0.006272217

model/dense/MatMul f4 [256, 32]
0	0x3cf7373c	0.030177705
1	0xbbe17e0d	-0.0068814815
2	0x3e28432c	0.16431874
3	0x3d437334	0.047717288
4	0x3b619ced	0.003442581
5	0x3cd52084	0.026016481
6	0xbab40743	-0.0013735074
7	0x3d20e369	0.039279375
8	0xbe0526ff	-0.13003157
9	0xbc6e73aa	-0.014553944
10	0xbdf607be	-0.120131955
11	0x3d07d3f4	0.03316112
12	0xbe3ffb9d	-0.18748327
13	0xbb690e21	-0.00355614
14	0xbe06034f	-0.130872
15	0x3dad5cfe	0.084650025
16	0xbdab9bdf	-0.083793394
17	0x3c9e7852	0.019344483
18	0x3d3af479	0.045643304
19	0xbd05b6de	-0.0326451
20	0x3dd291a7	0.10281687
21	0x3c8efe8d	0.017455364
22	0x3ce77827	0.028255535
23	0x3cdec9d3	0.027195847
24	0xbdbd4b66	-0.09242897
25	0x3cb02909	0.021503942
26	0x3d807712	0.06272711
27	0xbd31a88b	-0.043373626
28	0x3daa3ee5	0.083127774
29	0xbdd77a69	-0.10521395
30	0x3dc63188	0.09677416
31	0xbb9be16a	-0.004757096
32	0x3d70df9d	0.058807004
33	0x3d448c98	0.047985643
34	0xbdb64f25	-0.08901814
35	0xbbb982a6	-0.0056613265
36	0x3d2ad3c7	0.041705873
37	0x3d3521b3	0.04422159
38	0xbd215282	-0.039385326
39	0xbe04d4d6	-0.12971815
40	0x3d9dbb56	0.07701747
41	0x3d95e957	0.07319897
42	0xbb0d6ac3	-0.0021578528
43	0x3d3583ca	0.044315137
44	0x3eb3648f	0.35037658
45	0xbd863434	-0.06552926
46	0xbcfcef8b	-0.030875942
47	0xbd5dd267	-0.054155733
48	0x3dd1e78b	0.102492414
49	0xbd289de4	-0.0411662
50	0x3ce6d27d	0.02817654
51	0x3d5df353	0.05418713
52	0xbd9269c1	-0.07149077
53	0xbe015cb1	-0.12633015
54	0xbce1ed08	-0.027578846
55	0xbde6c80d	-0.112686254
56	0x3c3f3943	0.011671367
57	0xbd0245a9	-0.031804714
58	0x3bb12fe8	0.005407322
59	0xbd09c0f3	-0.033631276
60	0xbcf762fa	-0.030198563
61	0xbd119f39	-0.035552237
62	0x3d8dd859	0.06926031
63	0x3d485c34	0.048916057
64	0x3da15427	0.07877379
65	0xbe1d0798	-0.15334928
66	0x3c74e678	0.014947526
67	0xbce2429e	-0.027619656
68	0x3be878e0	0.0070944875
69	0xbca5ea28	-0.020253256
70	0xbcb86c35	-0.022512535
71	0x3e39e967	0.18155442
72	0x3d032f1c	0.03202735
73	0x3c4d881b	0.012544657
74	0x3c9f8f3c	0.01947748
75	0xbd5d82d3	-0.05407984
76	0x3e035b07	0.12827693
77	0x3d40df9a	0.047088243
78	0x3dd1b11a	0.102388576
79	0x3cb4322c	0.02199658
80	0xbb129c3b	-0.0022370953
81	0xba92257f	-0.0011150091
82	0xbd961c7f	-0.07329654
83	0xbd8c8050	-0.06860411
84	0xbc963be5	-0.018339107
85	0x3d818e58	0.06325978
86	0xbc341ec5	-0.010993664
87	0xbbe93f24	-0.0071181227
88	0x3d15fe01	0.03661919
89	0x3c671713	0.014104622
90	0x3d555f96	0.05209311
91	0xbd54bd23	-0.051938187
92	0xbe14851f	-0.14503907
93	0x3e964700	0.29351044
94	0xbb7fc0e4	-0.0039024884
95	0xbd352795	-0.0442272
96	0x3ce32aff	0.027730463
97	0x3c1435c9	0.0090460265
98	0x3dd66e1a	0.10470219
99	0x3dc10dd9	0.09426469
100	0xbcfe2cdd	-0.031027252
101	0x3e016913	0.12637739
102	0xbd216993	-0.039407324
103	0x3d7a2e8d	0.06107955
104	0xbdda2b21	-0.106527574
105	0xbb85e554	-0.004086176
106	0xbd34b27d	-0.044115532
107	0xbdae244e	-0.08503018
108	0x3d19be5b	0.037535053
109	0xbda47a15	-0.08031098
110	0xbe6a493f	-0.22879504
111	0x3da6bec3	0.08141854
112	0xbd58e97f	-0.052957054
113	0xbcc76f2e	-0.024345007
114	0xbd7b76dd	-0.061392654
115	0x3d55dd0f	0.05221277
116	0x3cbb2f2e	0.022849645
117	0x3e696a28	0.22794402
118	0xbb404884	-0.0029340098
119	0x3d30687a	0.043068387
120	0x3db386bf	0.08765935
121	0xbdb0d203	-0.086338066
122	0xbcce935a	-0.025216747
123	0xbd87200c	-0.06597909
124	0xbc0b0743	-0.008485618
125	0xbdb27964	-0.0871456
126	0x3dae0e0b	0.08498772
127	0xbdd4f556	-0.103983566
128	0xbd919945	-0.07109312
129	0x3e00bcc2	0.12572005
130	0xbe466aa3	-0.19376616
131	0x3d99b89f	0.07505917
132	0x3d4d69d8	0.05014977
133	0x3c115803	0.008871081
134	0xbdd55f05	-0.10418514
135	0x3da2b262	0.0794418
136	0xbc7f54cb	-0.015584181
137	0xbb0c9982	-0.0021453802
138	0x3d8861dd	0.06659291
139	0xbdfef119	-0.124483295
140	0x3ccaafd6	0.024742048
141	0xbd8b26bf	-0.067944996
142	0x3caba3c2	0.02095211
143	0x3ccf0c16	0.025274318
144	0xbe15ed08	-0.14641201
145	0x3d3e334b	0.046435636
146	0xbcfd811b	-0.030945351
147	0x3d02afee	0.03190606
148	0xbb84ba43	-0.0040505244
149	0x3d8c6efe	0.068571076
150	0xbd4af1eb	-0.049547117
151	0x3d06aca6	0.032879494
152	0x3b7badb2	0.003840309
153	0xbdbdc0a6	-0.092652604
154	0xbca268b8	-0.019825324
155	0x3dc62c8a	0.09676464
156	0x3cfa451d	0.030550534
157	0xbd009ecf	-0.03140145
158	0xbc5b0656	-0.01336821
159	0xbeb6ec13	-0.35726985
160	0xbbc8feec	-0.0061339047
161	0x3ded64c0	0.11591482
162	0x3d5a1e4e	0.053251557
163	0xbc94eebd	-0.018180246
164	0x3d0eee6b	0.03489534
165	0xbdaad40e	-0.083412275
166	0x3da73608	0.081646025
167	0x3c90f7fc	0.017696373
168	0xbda096c4	-0.07841256
169	0xbe05b113	-0.1305583
170	0x3d97af53	0.07406487
171	0x3e07cc54	0.13261539
172	0xbd611ea6	-0.05496087
173	0x3d672d89	0.05643991
174	0xbd3da6ea	-0.04630176
175	0xbd7a5ad4	-0.061121777
176	0xbc32b002	-0.010906221
177	0xbdc9963d	-0.09843109
178	0x3d315238	0.0432913
179	0x3bd49504	0.0064874906
180	0xbcbc7608	-0.0230055
181	0xbd8af6cd	-0.06785355
182	0xbd135471	-0.0359692
183	0xbe82393b	-0.25434288
184	0xbd2fe582	-0.042943485
185	0xbd24eeef	-0.040266927
186	0xbeb68720	-0.35649967
187	0xbd9a14d2	-0.075235024
188	0x3d48b9d6	0.049005352
189	0xbdbba80c	-0.09162912
190	0xbcf18845	-0.029483924
191	0xbe12716c	-0.1430108
192	0xbd97a306	-0.07404141
193	0x3dfded2b	0.12398752
194	0xbdb56bdc	-0.08858463
195	0x3d9f6456	0.077828094
196	0xbd1cd1fe	-0.0382862
197	0x3d0de75c	0.03464447
198	0x3cebebd2	0.028798971
199	0xbd4ffa48	-0.050775796
200	0xba6bc350	-0.00089936424
201	0xbbe6832a	-0.007034679
202	0x3dae2131	0.085024245
203	0x3dbf4e77	0.09341138
204	0x3d8db125	0.06918553
205	0xbde0fcf2	-0.109857455
206	0xbd01c123	-0.03167833
207	0x3dbda9ac	0.09260878
208	0xbdab1308	-0.08353239
209	0x3a7bcc7d	0.0009605361
210	0x3e0a09ea	0.13480344
211	0x3d885405	0.066566505
212	0x39a77044	0.00031936367
213	0xbd195d83	-0.037442695
214	0x3d1b1bd1	0.037868325
215	0x3d9ac551	0.07557166
216	0x3d5e5c86	0.054287456
217	0xbc234955	-0.009966214
218	0xbdb25153	-0.087069176
219	0x3d13236b	0.03592245
220	0x3e0d8f17	0.13824116
221	0xbd0b7913	-0.034051012
222	0xbcedfa73	-0.029050088
223	0xbd7d1060	-0.061783195
224	0xbd33a681	-0.043859962
225	0xbde45255	-0.11148516
226	0x3dad96c9	0.084760256
227	0xbd42a7c2	-0.047523268
228	0xbc883d3a	-0.016630758
229	0xbbd6cdd3	-0.006555298
230	0x3d118bb2	0.035533614
231	0x3c81b59a	0.015833665
232	0x3c7a4f40	0.015277684
233	0xbeb91eaf	-0.36156222
234	0x3cafc5cc	0.021456622
235	0x3ca378e4	0.019955106
236	0xbcb3bef5	-0.021941641
237	0x3df46e85	0.119351424
238	0x3e2a1398	0.16609037
239	0x3cc770ff	0.024345873
240	0x3c6856ab	0.0141808195
241	0xbdca62ca	-0.09882124
242	0xbe3cda7a	-0.18442717
243	0xbe085d4e	-0.13316843
244	0xbcf6fbfb	-0.03014945
245	0x3dab3e80	0.0836153
246	0x3cb6a3b3	0.022294855
247	0x3dc1dc25	0.09465817
248	0xbcaf6851	-0.021412047
249	0xbdc089d7	-0.09401291
250	0xbd9f7063	-0.07785108
251	0xbd5ec1b8	-0.054383963
252	0x3db56ed0	0.088590264
253	0xbc5d8110	-0.01351954
254	0x3d427c5b	0.047481876
255	0xbc6ac47b	-0.014329071

model/last_layer/MatMul f4 [31, 256]
0	0xbd7e1712	-0.06203372
1	0x3da51b61	0.08061863
2	0x3bd7dd22	0.0065876404
3	0xbb9c9ec6	-0.0047796695
4	0x3c0e7005	0.0086937
5	0xbd479d51	-0.048734013
6	0xbcfdc04d	-0.030975485
7	0xbd21cf13	-0.039504122
8	0x3c6ea002	0.014564516
9	0xbcf2bddc	-0.029631548
10	0xbdacb714	-0.08433357
11	0xbd40af0f	-0.04704195
12	0x3d3d7ec2	0.046263464
13	0x3d7958f4	0.060875848
14	0xbb939bd9	-0.0045046625
15	0xbc07be41	-0.008285106
16	0x3d6bd198	0.05757293
17	0xbd019c84	-0.031643406
18	0x3d17369e	0.03691732
19	0x3d756596	0.059911333
20	0x3d1e848c	0.038700625
21	0xbd1baed1	-0.038008515
22	0xbd20ff0d	-0.039305735
23	0xbd1566ba	-0.03647492
24	0x3b80e162	0.0039331177
25	0xbd939039	-0.07205243
26	0x3d49888f	0.049202498
27	0x3d930b36	0.07179873
28	0xbd233072	-0.039841123
29	0x3d0f63b7	0.035007205
30	0xbd86e2dd	-0.065862395
31	0x3d8049e1	0.06264091
32	0xbd999659	-0.0749938
33	0xbcf80444	-0.030275472
34	0x3d09a182	0.03360129
35	0x3d192365	0.03738727
36	0x3c53c768	0.01292596
37	0x3d289e97	0.041166868
38	0x3d3b933d	0.045794714
39	0xbb3ab4e3	-0.0028489165
40	0x3d3ad3eb	0.045612257
41	0x3c3d1f45	0.0115431
42	0xbd4b7e06	-0.049680732
43	0xbc475215	-0.012165566
44	0x3c028be2	0.007967921
45	0x3cd501ea	0.02600189
46	0xbd9ccbd3	-0.07656064
47	0xbd2df993	-0.04247434
48	0x3c198372	0.009369718
49	0x3d8b80c9	0.06811673
50	0xbc5b1c59	-0.013373458
51	0xbd446917	-0.047951784
52	0x3c905399	0.017617987
53	0x3dd42dd3	0.10360303
54	0xbd577aad	-0.052607227
55	0xbd2be60b	-0.041967433
56	0xbd837424	-0.064186364
57	0x3d085c31	0.033291046
58	0x3db5035f	0.088385336
59	0x3d34ed25	0.04417147
60	0x3bf0d434	0.0073495153
61	0xbdb0d57a	-0.086344674
62	0x3b812fb1	0.003942453
63	0x3d27df64	0.040984526
64	0xbd106ee5	-0.035262007
65	0x3d1d0dba	0.03834317
66	0xbc14f177	-0.009090773
67	0xbb8fddf0	-0.0043904707
68	0xbcf0ad8e	-0.029379632
69	0x3be2019d	0.006897165
70	0xbd8f47a9	-0.0699609
71	0xbdbc9296	-0.092076465
72	0xbc15942e	-0.009129567
73	0x3d5bb5c5	0.053640146
74	0xbdb48a18	-0.08815402
75	0x3d936bf4	0.07198325
76	0x3d57c5ba	0.0526788
77	0xbd41bb63	-0.047297847
78	0x3db73107	0.08944898
79	0x3d9b984f	0.0759741
80	0xbc817897	-0.015804572
81	0x3d0ff1bb	0.03514264
82	0x3c4edb50	0.01262553
83	0x3da18ea3	0.07888534
84	0x3cec6043	0.028854495
85	0xbd2806ba	-0.04102204
86	0xbd5be87d	-0.053688515
87	0xbd49a4ab	-0.049229305
88	0x3ccda075	0.025100926
89	0xbd9ca236	-0.07648127
90	0xbc9925b0	-0.018694729
91	0x3b9db0f4	0.004812354
92	0xbb253f42	-0.0025214707
93	0x3cf4a752	0.02986494
94	0xbd454e24	-0.048170224
95	0x3dc64ff5	0.09683219
96	0xbdab1d4f	-0.083551995
97	0xbd118cb3	-0.03553457
98	0x3cae1549	0.021250384
99	0xbd130bab	-0.0358998
100	0x3c0fa843	0.008768144
101	0xbd41073c	-0.04712604
102	0xbcbd3f9f	-0.023101626
103	0x3d131758	0.035910934
104	0xbc441fec	-0.011970501
105	0x3dc36418	0.09540576
106	0x3d550b08	0.052012473
107	0x3c264323	0.010147843
108	0xbd2ae318	-0.04172048
109	0xbc2150cf	-0.009845926
110	0xbcd4c3c0	-0.025972247
111	0xbd30fae6	-0.043208025
112	0x3bf461c3	0.007457943
113	0xbcbdb68b	-0.023158332
114	0x3d0f8c32	0.03504581
115	0x3da60961	0.08107258
116	0x3c33dd40	0.010978043
117	0xbbd48f2e	-0.006486795
118	0x3d75c9ea	0.060007013
119	0x3ca18203	0.019715315
120	0xbd402c64	-0.046917334
121	0x3d43db21	0.0478164
122	0x3ca642f5	0.0202956
123	0xbb904d5b	-0.0044037527
124	0x3d2d1bec	0.042262957
125	0xbd99cecd	-0.07510147
126	0xbd0576b4	-0.032583907
127	0x3d586b5f	0.052836772
128	0xbc5be221	-0.013420613
129	0x3d2c83f8	0.042118043
130	0xbd6af54b	-0.057362836
131	0xbcd8022b	-0.026368221
132	0xbc48cd90	-0.012256041
133	0xbc9220fc	-0.017837994
134	0xbb6e7d2e	-0.003639053
135	0xbbe5c5ae	-0.0070120906
136	0xbd1b9c67	-0.037990954
137	0x3b0efad2	0.002181698
138	0xbbe8419b	-0.007087899
139	0xbd94bbde	-0.07262395
140	0x3c129c6c	0.008948427
141	0xbd8249d6	-0.06361739
142	0x3d48fdec	0.049070284
143	0xbd8fe1d2	-0.07025494
144	0x3d66f7dc	0.05638872
145	0xbd33ffe4	-0.04394521
146	0x3d860f3f	0.06545877
147	0x3d74aad0	0.059733212
148	0x3d5391d3	0.05165274
149	0x3da22479	0.07917113
150	0xbd9c6064	-0.076355726
151	0xbdd024c3	-0.10163262
152	0xbca49d96	-0.020094674
153	0xbd4983b1	-0.049197856
154	0xbdb7906a	-0.08963092
155	0xbc73c29f	-0.014877944
156	0x3d5fbcbd	0.054623354
157	0x3c872c6c	0.016500674
158	0x3ca7a2f7	0.02046345
159	0xbd271bd2	-0.040798016
160	0x3cbad1ff	0.022805212
161	0xbd66e35b	-0.056369167
162	0x39c98f45	0.00038444452
163	0x3d5e940c	0.054340407
164	0xbd38ab52	-0.04508526
165	0xbd127872	-0.035759397
166	0xbdada783	-0.08479216
167	0x3d8d424e	0.06897412
168	0x3c0097c0	0.00784868
169	0xba5309c0	-0.0008050464
170	0xbceca2c8	-0.028886214
171	0xbd62f528	-0.05540958
172	0xbd03b3b9	-0.03215382
173	0xbdbc1ff7	-0.09185784
174	0xbc947a84	-0.018124826
175	0x3cf8702e	0.030326929
176	0x3c39670a	0.01131607
177	0x3c93b9f0	0.018032998
178	0x3d828afd	0.06374166
179	0x3cf436ac	0.029811226
180	0xbd74b923	-0.059746873
181	0xbc77bba3	-0.01512042
182	0x3d2695de	0.04067027
183	0xbcbc1d5c	-0.022963218
184	0xbdb57341	-0.088598736
185	0x3ccfb29a	0.025353719
186	0xbd45e5e0	-0.04831493
187	0x3d5546f1	0.052069608
188	0xbda3cc11	-0.07997907
189	0xbd735799	-0.05940971
190	0xbd4cf772	-0.05004067
191	0x3bb54e2c	0.0055330005
192	0x3da17045	0.07882742
193	0xbd1cf020	-0.03831494
194	0xbd80e911	-0.06294454
195	0xbcb6dd7f	-0.022322414
196	0xbd697a89	-0.057001624
197	0xbcc04810	-0.023471862
198	0xbd69090a	-0.056893386
199	0xbd0f2ca8	-0.034954697
200	0xbd8a2512	-0.06745352
201	0xbcbacc23	-0.022802418
202	0x3d87f7b3	0.06639042
203	0xbb8e39c7	-0.0043403837
204	0x3bf117c3	0.007357569
205	0xbb81a14c	-0.0039559957
206	0xbdbc2317	-0.0918638
207	0xbb151ba4	-0.002275207
208	0x3d76e2fb	0.06027506
209	0x3d5e1520	0.054219365
210	0x3d8a8aef	0.06764781
211	0xbd153403	-0.036426555
212	0xbca0da10	-0.01963523
213	0xbd8bbd3d	-0.06823204
214	0xbbedc673	-0.007256323
215	0x3d34516e	0.04402297
216	0x3d1c3a66	0.03814163
217	0xbc85e30c	-0.016343616
218	0x3d7497a0	0.059714913
219	0xbd7f3ec3	-0.062315714
220	0x3c86202d	0.016372764
221	0xbda64535	-0.08118669
222	0x3d3bf644	0.045889154
223	0x3d72dccf	0.05929261
224	0x3b232b9a	0.0024897815
225	0x3da704ec	0.08155236
226	0xbbf37713	-0.0074299662
227	0xbd6b9e6a	-0.057524122
228	0x3c21825e	0.009857742
229	0x3d21f277	0.039537873
230	0xba9a34a6	-0.0011764958
231	0xbd0088ba	-0.031380393
232	0x3da13c21	0.07872797
233	0x3d31fdcb	0.043454926
234	0x3ad505d9	0.0016252353
235	0x3d20c0c1	0.039246324
236	0xbd3e9358	-0.046527237
237	0xbd2d2f3f	-0.042281386
238	0x3cea2426	0.02858169
239	0xbd835cf8	-0.06414217
240	0xbdc0c23c	-0.09412047
241	0xbd04996f	-0.03237289
242	0x3d8774c3	0.066140674
243	0xbd8871c9	-0.06662328
244	0x3d361c33	0.044460487
245	0xbc9dbd62	-0.019255344
246	0x3c1d4e7b	0.009601231
247	0x3d850f97	0.06497114
248	0x3da6d2c4	0.08145669
249	0xbd4c0a39	-0.049814437
250	0x3b21d097	0.002469098
251	0x3d515baf	0.051112827
252	0xbca3d318	-0.019998118
253	0x3d618976	0.055062734
254	0xbd2a5503	-0.04158498
255	0x3c794173	0.015213358

model/time_distributed_10/batch_normalization_2/FusedBatchNormV3 f4 [8]
0	0x3bbcd438	0.005762603
1	0xbc5e45e9	-0.013566473
2	0x3b9e198b	0.0048248223
3	0xbcbb2458	-0.022844478
4	0x3b8f5c58	0.004375022
5	0xbd082a92	-0.033243723
6	0xbc976a51	-0.018483313
7	0xbb7ca38a	-0.0038549625

model/time_distributed_10/batch_normalization_2/FusedBatchNormV31 f4 [8]
0	0x3e0666f9	0.13125218
1	0xbc2fcdad	-0.010730189
2	0xbce2ddbd	-0.027693624
3	0x3dcf8b4b	0.1013399
4	0x3e28aa27	0.16471158
5	0x3e91111f	0.28333375
6	0x3e8c9857	0.27459976
7	0xbdb2337a	-0.087012246

model/time_distributed_13/batch_normalization_3/FusedBatchNormV3 f4 [16]
0	0xbd4cbe60	-0.049986243
1	0xbe7da658	-0.24770486
2	0xbb912018	-0.0044288747
3	0xbdf31fe2	-0.118713155
4	0xbdcbb86c	-0.09947285
5	0x3a61f588	0.0008619656
6	0xbd87230b	-0.06598481
7	0xbe4212ba	-0.18952456
8	0xbd0b6b05	-0.03403761
9	0xbbb71d9e	-0.0055882474
10	0xbda8f4d7	-0.082498245
11	0xbbc04090	-0.0058670714
12	0xbe01503c	-0.12628263
13	0xbafc5f12	-0.0019254407
14	0xbd5fa0f6	-0.054596864
15	0x3cc6e7d7	0.024280472

model/time_distributed_13/batch_normalization_3/FusedBatchNormV31 f4 [16]
0	0x402702f8	2.6095562
1	0x404ec064	3.2304926
2	0x3d22c4a7	0.039738324
3	0x3f9a35e3	1.2047695
4	0x3fbcb119	1.4741546
5	0xbec7482e	-0.38922256
6	0x401c664d	2.443744
7	0x4004e4c2	2.0764623
8	0x40941b57	4.6283374
9	0xbedcc958	-0.43122363
10	0x400963f9	2.1467268
11	0x4006d822	2.1069417
12	0x40458bd6	3.08666
13	0x3e252098	0.16125715
14	0x4060aa1c	3.5103827
15	0x407547d8	3.83251

model/time_distributed_2/batch_normalization/FusedBatchNormV3 f4 [8]
0	0xbac25314	-0.0014825785
1	0x3ba43aa8	0.005011875
2	0x3bad5124	0.0052892137
3	0xbccbc61e	-0.024874743
4	0xbda98e4f	-0.08279096
5	0xbc4059e9	-0.011740186
6	0xbe042f65	-0.12908705
7	0x3b6291a6	0.0034571677

model/time_distributed_2/batch_normalization/FusedBatchNormV31 f4 [8]
0	0xbd31f2ed	-0.043444563
1	0xbb8b3442	-0.004248173
2	0xbd066d30	-0.032818973
3	0x3d58bead	0.052916218
4	0x3e07da59	0.13266887
5	0x3d2ebeb3	0.042662334
6	0x3e05a829	0.1305243
7	0x3cc65053	0.024208223

model/time_distributed_5/batch_normalization_1/FusedBatchNormV3 f4 [16]
0	0x3c7300a8	0.014831699
1	0xbdbee224	-0.09320477
2	0xbe9ccb36	-0.30623788
3	0xbeb2f1be	-0.3495006
4	0xbf4dc831	-0.8038359
5	0xbeb74f03	-0.3580247
6	0xbe4e305a	-0.20135632
7	0xbeb5db62	-0.35518938
8	0xbea6950f	-0.32535598
9	0xbe040836	-0.12893757
10	0xbf0f2444	-0.5591471
11	0xbefaaab7	-0.4895837
12	0x3c157330	0.009121701
13	0x3cfaf924	0.030636378
14	0xbf3a2aa4	-0.72721314
15	0xbe8b5082	-0.2720986

model/time_distributed_5/batch_normalization_1/FusedBatchNormV31 f4 [16]
0	0x40961ebc	4.6912518
1	0x404ac1fc	3.1680899
2	0x40562fdc	3.346671
3	0x40405624	3.0052576
4	0x404f0e34	3.235242
5	0x405c5153	3.4424636
6	0x40567fb1	3.3515437
7	0x406c3b8d	3.6911347
8	0x404eb4f4	3.2297945
9	0x40353a23	2.8316734
10	0x40677fe1	3.61718
11	0x40664825	3.5981534
12	0x40981a55	4.7532144
13	0x40c79fe2	6.238267
14	0x405bc675	3.4339879
15	0x407e5b0d	3.9743073
