resources/model/indexpen_tflite_models_5User_Ultimate_Model_higher_decay/indexpen_model.tflite (tflite, 768588 bytes, 45 tensors)

model/time_distributed_3/conv2d_1/BiasAdd;model/time_distributed_11/conv2d_3/Conv2D;model/time_distributed_3/conv2d_1/Conv2D;model/time_distributed_3/conv2d_1/BiasAdd/ReadVariableOp/resource f4 [16]
0	0xbe5641b8	-0.20923507
1	0xbe281cd5	-0.16417249
2	0xbcf25047	-0.029579295
3	0xbd60e0ab	-0.05490176
4	0x3e08e549	0.13368715
5	0xbd92832c	-0.07153925
6	0xbe098543	-0.13429742
7	0xbce9518e	-0.028481271
8	0xbda8e8dc	-0.082475394
9	0xbe0387a9	-0.12844719
10	0xbc5381fa	-0.012909407
11	0xbd529062	-0.051407225
12	0xbe3c18a7	-0.18368779
13	0xbe3b853e	-0.18312547
14	0x3d8f21b3	0.069888495
15	0xbe0d00c6	-0.13769826

model/time_distributed/conv2d/BiasAdd;model/time_distributed_8/conv2d_2/Conv2D;model/time_distributed/conv2d/Conv2D;model/time_distributed/conv2d/BiasAdd/ReadVariableOp/resource f4 [8]
0	0x3ba69b93	0.005084464
1	0xbc111ba1	-0.008856685
2	0xbbec7086	-0.0072155623
3	0x3ca47c7e	0.020078894
4	0x3db06d47	0.08614593
5	0xbc1d4bc6	-0.009600585
6	0x3e301bfd	0.17198177
7	0x3b631149	0.0034647754

model/time_distributed_11/conv2d_3/BiasAdd;model/time_distributed_11/conv2d_3/Conv2D;model/time_distributed_11/conv2d_3/BiasAdd/ReadVariableOp/resource f4 [16]
0	0x3c27ad39	0.010234171
1	0x3d9d11d8	0.07669419
2	0xbbbc9f65	-0.005756306
3	0x3d2436d6	0.040091358
4	0x3d3e3b7b	0.046443444
5	0xbc0ef721	-0.008725912
6	0xbc419ac5	-0.011816685
7	0x3d4d7040	0.050155878
8	0x3bb32a75	0.0054677078
9	0xbba9620f	-0.00516916
10	0xbbfbff80	-0.00769037
11	0xbcc41cd1	-0.023939522
12	0x3c93ca65	0.018040845
13	0xbba7bbae	-0.0051188087
14	0x3c2aeb2d	0.010432047
15	0xbd959a98	-0.07304877

model/time_distributed_8/conv2d_2/BiasAdd;model/time_distributed_8/conv2d_2/Conv2D;model/time_distributed_8/conv2d_2/BiasAdd/ReadVariableOp/resource f4 [8]
0	0x3d8e0fba	0.06936593
1	0x3cdb8aa1	0.026799502
2	0x3a426802	0.0007416011
3	0x3c2a85da	0.010407889
4	0x3c1e8920	0.009676248
5	0x3dfdf8af	0.12400948
6	0x3cb96406	0.022630703
7	0x3af67dcd	0.0018805802

model/time_distributed_3/conv2d_1/Conv2D f4 [16, 3, 3, 8]
0	0x3da816bb	0.082074605
1	0xbd5214a3	-0.051289212
2	0x3c1ca4a1	0.009560735
3	0xbe8cbd3c	-0.27488124
4	0x3be2aa3a	0.0069172652
5	0x3d03815d	0.032105792
6	0xbd639595	-0.055562574
7	0xbd05875c	-0.032599792
8	0xbcc89f25	-0.024489949
9	0xbcd197a9	-0.025585013
10	0xbcd7ecd5	-0.026358048
11	0x3d576aed	0.052592207
12	0x3dd671e9	0.104709454
13	0x3d2da58f	0.042394217
14	0x3e51b6ec	0.20479935
15	0xbd001798	-0.0312725
16	0x3d0a41ed	0.033754278
17	0xbd4fe0f2	-0.050751634
18	0xbcd1d751	-0.025615366
19	0x3ba54a93	0.0050442903
20	0xbe2a46ae	-0.16628525
21	0xbd3235c7	-0.043508317
22	0xbc530d1b	-0.012881543
23	0x3c2b3e23	0.010451826
24	0xbaa0b840	-0.0012261942
25	0xbd910da9	-0.070826836
26	0xbc66b188	-0.014080413
27	0xbd899311	-0.06717504
28	0xbd8708f0	-0.065935016
29	0x3d244c87	0.040112045
30	0x3e248a00	0.16068268
31	0x3c86005c	0.016357593
32	0xbd2941b5	-0.04132243
33	0x3bbdabc4	0.0057882983
34	0xbb9c940a	-0.00477839
35	0x3e9226d5	0.2854525
36	0xbdd92a2c	-0.10603747
37	0x3ce173d9	0.02752106
38	0x3bfffeee	0.0078123724
39	0x3cbfce22	0.023413721
40	0xbc60c03d	-0.013717708
41	0x3be35da8	0.006938655
42	0x3cf646d4	0.03006307
43	0xbdd8b096	-0.10580556
44	0x3ca481f3	0.020081496
45	0xbd61ae00	-0.05509758
46	0xbe6aa674	-0.2291506
47	0xbb8fa06a	-0.0043831365
48	0xbb7af93c	-0.0038295528
49	0x3d45081f	0.048103448
50	0x3d6a2d46	0.057172082
51	0x3d84cbca	0.06484182
52	0xbd917d4a	-0.07103975
53	0xbba52642	-0.005039961
54	0x3dddc89f	0.10829281
55	0xbccc597d	-0.024945015
56	0xbccacad5	-0.024754921
57	0x3cf0a51d	0.029375607
58	0xbbd893f7	-0.0066094357
59	0xbe15adfb	-0.1461715
60	0xbdd61067	-0.10452347
61	0xbd5e273f	-0.054236647
62	0x3e8e0e37	0.2774522
63	0xbb580ad5	-0.003296544
64	0xbc46f8ea	-0.012144307
65	0xbc993f54	-0.018706955
66	0xbcd4f741	-0.025996806
67	0xbdc09ee8	-0.09405309
68	0xbc75c8c6	-0.015001481
69	0xbc95620a	-0.018235225
70	0x3eef5e88	0.4675181
71	0xbcdf5207	-0.027260793
72	0xbb3d9240	-0.0028926283
73	0x3c1e9bd8	0.009680711
74	0xbd9fc5c3	-0.07801392
75	0xbe015e58	-0.12633646
76	0x3db78528	0.089609444
77	0xbc8c3e42	-0.01711953
78	0xbea20516	-0.31644505
79	0x3dae3c62	0.08507611
80	0x3d028b17	0.031870928
81	0xb7b1ff28	-2.121886e-05
82	0xbc41edc3	-0.011836472
83	0xbce22d86	-0.027609598
84	0x3db96ab1	0.09053553
85	0xbd2193b1	-0.03944749
86	0xbcef51e8	-0.02921386
87	0xbb5fe97e	-0.0034166272
88	0xbb90e08c	-0.0044212993
89	0xbc4c9424	-0.012486491
90	0x3d2beabe	0.041971914
91	0xbd7fd708	-0.06246093
92	0xbe1d02f0	-0.15333152
93	0x3d37d5ba	0.04488156
94	0x3e9ae715	0.30254427
95	0xbd496bd9	-0.049175117
96	0xbb8b2896	-0.0042467816
97	0x3c8f90e9	0.017525153
98	0xbd565c15	-0.05233391
99	0x3e3afca0	0.18260431
100	0x3d08e565	0.033421893
101	0x39c9d722	0.00038497994
102	0xbe362771	-0.17788483
103	0x3d2087eb	0.03919212
104	0xbdce92c9	-0.10086591
105	0x3b27c2b5	0.0025598232
106	0x3d0417cb	0.032249253
107	0x3a8bb5a5	0.0010658993
108	0x3d8fede1	0.07027794
109	0xbb62a06d	-0.0034580484
110	0xbea608a7	-0.32428476
111	0x3c8e7aa8	0.017392471
112	0xbdd740f2	-0.10510434
113	0x3c83b2de	0.016076501
114	0x3ccb25e5	0.024798343
115	0xbdf94cc3	-0.12172844
116	0x3d200303	0.039065372
117	0x3da4a487	0.080391936
118	0x3e827afc	0.25484455
119	0xbac6b90d	-0.0015161351
120	0x3b2aef4d	0.0026082576
121	0x3cc6e7b7	0.024280412
122	0xbbcb84ef	-0.0062109153
123	0xbd742e29	-0.059614334
124	0x3e1e5a0c	0.15464038
125	0x3d13f286	0.03611996
126	0x3cc1b46b	0.0236456
127	0xbcdd814d	-0.027039194
128	0x3c92a33b	0.0179001
129	0xbb7ded66	-0.0038746237
130	0x3cf90fd8	0.030403063
131	0xbe07abd3	-0.1324914
132	0xbe0189b5	-0.12650187
133	0x3c7e5386	0.015522843
134	0x3e5ef307	0.21772395
135	0x3d4c1f7c	0.049834713
136	0x3cf5a34d	0.029985094
137	0xbcb9dd30	-0.022688478
138	0xbd1a61f7	-0.037691083
139	0x3b0da33e	0.0021612193
140	0xbe08613f	-0.13318346
141	0x3c396e56	0.01131781
142	0x3ebf908d	0.3741497
143	0x3d179fef	0.03701776
144	0xbd8a24e1	-0.06745315
145	0xbbc250ac	-0.005930027
146	0xbc51b535	-0.012799551
147	0xbddd12cd	-0.107946016
148	0xbe0b6e72	-0.1361635
149	0xbc80b8d0	-0.015713125
150	0xbe327d76	-0.17430672
151	0x3d14d1b1	0.03633279
152	0xbd506c7d	-0.050884712
153	0xbca253c6	-0.019815337
154	0xbd615ab9	-0.05501816
155	0xbd507473	-0.050892305
156	0xbbc4044a	-0.0059819566
157	0x3d4eba6a	0.050470747
158	0x3e267b10	0.16257882
159	0x3ca795c6	0.02045716
160	0xbd82aa8f	-0.06380188
161	0xbd975081	-0.07388402
162	0x3c9a4b2a	0.01883467
163	0x3d0c81e0	0.034303546
164	0xbca6ac5a	-0.020345856
165	0x3d774285	0.060366172
166	0xbe2bb554	-0.1676839
167	0xbd2ef6bf	-0.042715784
168	0xbbef0b8e	-0.0072950786
169	0x3cd9173c	0.026500337
170	0xbcc3352f	-0.02382907
171	0x3e34a295	0.17640145
172	0xbe72d4a3	-0.23713927
173	0x3c9bf6b6	0.01903854
174	0xbebc2118	-0.36744
175	0x3d512718	0.051062673
176	0xbd1e02e1	-0.038576964
177	0x3d8a4a3b	0.067524396
178	0xbcc813bf	-0.024423478
179	0xbd8aaa3d	-0.067707516
180	0xbd8f0f4c	-0.069853395
181	0x3a3848d5	0.0007029896
182	0xbebdd5e5	-0.3707725
183	0xb98209d8	-0.00024802866
184	0xbbb1eb51	-0.005429663
185	0xbce5b5aa	-0.028040726
186	0x3d18de02	0.0373211
187	0x3e515f30	0.20446467
188	0x3cad5fbd	0.021163816
189	0xbd074f5c	-0.033034667
190	0xbe225118	-0.15851247
191	0x3d299af9	0.04140756
192	0x3ccfc82c	0.025364004
193	0xbc649ed9	-0.013953888
194	0xbd2822f9	-0.041048978
195	0xbddfb4b9	-0.10923142
196	0x3c835873	0.016033387
197	0x3ce0e4de	0.027452882
198	0x3d376dc8	0.04478243
199	0xbd03c7a4	-0.032172814
200	0x3b84500e	0.0040378636
201	0x3d049b75	0.032374818
202	0x3b5fe071	0.0034160877
203	0xbebdef1c	-0.37096488
204	0xbe606bcb	-0.2191612
205	0x3b9d3c55	0.004798452
206	0x3e051776	0.12997231
207	0xbcf1e727	-0.029529167
208	0x3c43d31c	0.011952188
209	0xbbde00cf	-0.0067749987
210	0x39bf9e2e	0.00036548212
211	0xbc9385f8	-0.018008217
212	0xbeb66db1	-0.35630563
213	0xbd5b469f	-0.053534146
214	0x3e2c53c8	0.16828835
215	0x3ca0802f	0.019592373
216	0xbd29498c	-0.041329905
217	0x3d8e3d1e	0.06945251
218	0xbd004e4b	-0.031324666
219	0xbdb9c9b7	-0.09071677
220	0x3d56dde3	0.0524577
221	0x3d38260f	0.04495817
222	0x3d75d4aa	0.060017265
223	0x3b6cfd1f	0.0036161614
224	0xbd2f1200	-0.042741776
225	0x3ccc71bf	0.024956582
226	0xbc834143	-0.01602233
227	0x3e005c75	0.1253527
228	0xbe1635de	-0.14668986
229	0xbcb830c9	-0.0224842
230	0xbe202352	-0.15638474
231	0x3d1348d0	0.03595811
232	0xbd7f58e3	-0.06234063
233	0xbc050583	-0.00811899
234	0x3d61a7f8	0.055091828
235	0xbe84af7f	-0.25915143
236	0xbd1c4ff2	-0.03816218
237	0x3c62eb78	0.013850085
238	0x3da4880f	0.080337636
239	0xbd43ff29	-0.04785076
240	0x3d03e02a	0.0321962
241	0xbc04dc99	-0.008109235
242	0xbcfbf087	-0.03075434
243	0x3b1309c0	0.0022436231
244	0xbcc83356	-0.024438541
245	0x3c061767	0.0081842905
246	0x3ce1c5ab	0.027560076
247	0x3d490476	0.04907652
248	0x3d77c550	0.060490906
249	0x3d2410d2	0.040055104
250	0xbb8da1c7	-0.004322264
251	0xbd8b98a9	-0.06816227
252	0xbe1a8867	-0.15091096
253	0x3ce2ff08	0.027709499
254	0xbe05fbfe	-0.13084409
255	0x3cc1d01a	0.0236588

model/time_distributed/conv2d/Conv2D f4 [8, 3, 3, 1]
0	0x3a93c029	0.0011272478
1	0xba8ba0db	-0.0010652797
2	0xba407833	-0.000734213
3	0x3a5c6fbc	0.00084089837
4	0x39a80015	0.00032043518
5	0x39bde35d	0.00036218288
6	0xb90ac1d2	-0.00013232909
7	0xbb0325ae	-0.0020011473
8	0xb9f9cac5	-0.00047644056
9	0xba16ed14	-0.00057573733
10	0x39fb7cb4	0.00047967362
11	0x39e7c680	0.00044207647
12	0x39069ceb	0.00012837692
13	0xba8b8ad5	-0.0010646234
14	0xba1d2d6c	-0.0005995843
15	0x3a67a279	0.0008836161
16	0x38ae473a	8.3102335e-05
17	0x39556e86	0.00020354436
18	0xba199f6f	-0.0005860244
19	0xb8ae84b0	-8.3216815e-05
20	0x39a76bd9	0.00031933075
21	0x398fd034	0.0002743021
22	0xb9d5c3ec	-0.000407725
23	0xb96f6120	-0.00022828998
24	0x3a5ec45e	0.0008497889
25	0x3964ec61	0.00021831832
26	0x38d02eba	9.9269164e-05
27	0xba0bb5c4	-0.00053295144
28	0xba8ccb18	-0.0010741679
29	0xbb1730a8	-0.0023069773
30	0x3baf24dd	0.0053449706
31	0x399aa61e	0.00029496936
32	0xbbc9710e	-0.0061475104
33	0xbb853cdf	-0.0040660943
34	0xbb4b7fe0	-0.0031051561
35	0x3c7b0c00	0.015322685
36	0xba2fb853	-0.00067031867
37	0xba254c25	-0.0006305597
38	0xba37145e	-0.0006983931
39	0xbb31ff2d	-0.0027160153
40	0xb90a2af9	-0.00013176714
41	0xbb62bc8b	-0.0034597244
42	0x3cbbfa4d	0.022946501
43	0x3b59a087	0.0033207254
44	0xbb8fc8d1	-0.004387953
45	0xbadb8df9	-0.0016750685
46	0x3a124978	0.00055804057
47	0x3ab346a3	0.0013677668
48	0xba7f8cfe	-0.00097484875
49	0x3b4118f8	0.0029464345
50	0xba4cc860	-0.00078118406
51	0xbb0678cd	-0.002051878
52	0xba868b8e	-0.0010264979
53	0xbaed6a23	-0.0018113296
54	0xba4392e8	-0.00074605504
55	0x3a8fd099	0.0010972201
56	0x3a0c6776	0.0005355993
57	0x3ab36453	0.0013686515
58	0x3a65d8ca	0.0008767961
59	0x3a3f17cf	0.00072896195
60	0xbb088b08	-0.0020834822
61	0xbca3aacd	-0.019978905
62	0xbb337086	-0.0027380302
63	0xb7829ecf	-1.5571159e-05
64	0xb8f07561	-0.00011465955
65	0xba010b4f	-0.00049226446
66	0x3a115b1a	0.0005544886
67	0xb9d650e3	-0.00040877526
68	0x3a292863	0.00064528565
69	0x37050b44	7.930041e-06
70	0xb99d05a6	-0.00029949582
71	0xb716895c	-8.972678e-06

model/time_distributed_11/conv2d_3/Conv2D f4 [16, 3, 3, 8]
0	0x3e4b235b	0.19837706
1	0xbab5bb9e	-0.0013865118
2	0x3c018a28	0.007906474
3	0x3b4b181d	0.0030989714
4	0xbeacb81a	-0.33734208
5	0xbe8eb9e1	-0.2787619
6	0xbe008730	-0.1255157
7	0xbd7bf261	-0.061510447
8	0x3c3e165d	0.0116020115
9	0x3c5f0b24	0.013613496
10	0x3c7e3bd7	0.015517197
11	0xbcd3d68a	-0.025859136
12	0xbea0bd36	-0.31394356
13	0x3e80e0fa	0.25171643
14	0xbe22a7d1	-0.1588433
15	0xbd5df0ab	-0.054184597
16	0xbde24936	-0.1104912
17	0x3be19b8b	0.0068849972
18	0x3bbc41d6	0.005745153
19	0xbc83ddad	-0.016096914
20	0xbeb02564	-0.34403527
21	0x3d7a0868	0.061043173
22	0x3da748a4	0.08168152
23	0xbcd091a5	-0.025460074
24	0xbe638b34	-0.2222107
25	0xbd0984fc	-0.03357409
26	0x3ca9fa9a	0.020749379
27	0xbcda1c58	-0.026624843
28	0x3d74fce6	0.059811495
29	0x3e19e230	0.1502769
30	0xbea0d43f	-0.3141193
31	0xbc79aea4	-0.0152393915
32	0x3d00c2f3	0.031435918
33	0xbd5ced73	-0.053937387
34	0xbaa58208	-0.0012627253
35	0xbb338dfc	-0.0027397862
36	0x3ca38ac5	0.019963631
37	0x3bc81215	0.006105671
38	0x3dd81dd9	0.10552568
39	0x3d0d89e4	0.03455533
40	0x3c9593cb	0.01825895
41	0xbca871cc	-0.020562075
42	0xbc359ef4	-0.011085261
43	0xbc856285	-0.01628233
44	0xbb8b1da5	-0.0042454773
45	0xbe6bd83e	-0.23031709
46	0x3dd41339	0.10355229
47	0x3d504e94	0.050856188
48	0x3d04c9c0	0.032418966
49	0xbd392df0	-0.045209825
50	0x3cd30091	0.025757106
51	0x3ccfca8e	0.02536514
52	0xbcbd2fc1	-0.02309406
53	0xbdd3b5c3	-0.10337403
54	0xbe2e7921	-0.17038395
55	0xbcd7fa93	-0.0263646
56	0xbc223652	-0.009900646
57	0x3d36527d	0.04451226
58	0x3c256e7f	0.010097145
59	0x3d4d50cf	0.050125893
60	0x3d7b23a2	0.06131328
61	0x3c78282c	0.0151462965
62	0xbcd0dd27	-0.025496079
63	0xbce7c77e	-0.028293367
64	0x3d54b641	0.051931623
65	0x3b70c8bb	0.0036740738
66	0x3c666074	0.014061082
67	0x3d82e079	0.06390471
68	0x3ea0cd1c	0.31406486
69	0xbcbeb7b5	-0.023280958
70	0xbea18bb8	-0.3155191
71	0x3d994476	0.07483761
72	0x3efe0127	0.49610254
73	0x3cee317c	0.02907633
74	0xbb1713df	-0.0023052616
75	0x3d8f55e1	0.06998802
76	0x3e53b973	0.20676212
77	0xbdd7157a	-0.10502143
78	0xbea65af0	-0.32491255
79	0x39021abc	0.00012407725
80	0x3cd8d928	0.026470736
81	0xbc608aa4	-0.0137049295
82	0xbc4ce590	-0.012505904
83	0xbd813c7e	-0.06310366
84	0xbe16f154	-0.14740497
85	0x3e2d7399	0.16938628
86	0xbdd6c4c4	-0.10486749
87	0xbcfeb3ec	-0.031091653
88	0xbeecb645	-0.4623281
89	0xbc07d5b0	-0.008290693
90	0x3bdbf2ea	0.006712307
91	0xbc8e9338	-0.017404184
92	0xbec9ca3c	-0.39412105
93	0xbe04d15a	-0.12970486
94	0x3ea22b0a	0.3167346
95	0x3bb0637b	0.0053829527
96	0xbe8cfa11	-0.27534536
97	0xbd0e1e7b	-0.034697037
98	0x3cfad6d5	0.030620018
99	0xbc065282	-0.008198382
100	0xbecd0ef9	-0.40050486
101	0x3e501749	0.20321383
102	0xbe80dded	-0.25169316
103	0x3cfd75b4	0.030939914
104	0x3e567664	0.209436
105	0xbc1e8ab1	-0.009676621
106	0x3d0a4d4c	0.033765122
107	0x3da3427d	0.07971666
108	0xbe8ddc87	-0.27707312
109	0xbe94975c	-0.29021728
110	0xbe3b7680	-0.18306923
111	0xbdb7d9f2	-0.08977117
112	0x3ddf0c11	0.10890973
113	0xbd6bee33	-0.05760021
114	0xbd11b344	-0.03557135
115	0x3ba8c3d0	0.005150296
116	0x3e8dc58e	0.27689785
117	0x3be9e06f	0.0071373503
118	0xbb2452e4	-0.002507382
119	0x3d21fb2f	0.039546188
120	0x3e1c20e4	0.15246922
121	0xbd70aded	-0.05875962
122	0x3d0dd4f6	0.034626924
123	0x3ced2e51	0.02895275
124	0x3d672864	0.056435004
125	0x3e3629fe	0.17789456
126	0xbe5cd733	-0.21566467
127	0x3c6b23dc	0.014351811
128	0xbe684b07	-0.2268487
129	0xbd195b5c	-0.037440643
130	0x3d8addce	0.06780587
131	0xbd516453	-0.051121067
132	0xbe0945af	-0.13405488
133	0xbe009619	-0.12557258
134	0xbddb3d1b	-0.10705014
135	0xbdac9842	-0.084274784
136	0xbdf1277c	-0.11775109
137	0xbd85109d	-0.06497309
138	0x3c30e29a	0.0107962135
139	0x3d52d053	0.051468205
140	0xbec38ca6	-0.38193244
141	0xbe017f4c	-0.12646216
142	0x3dacd983	0.084399246
143	0xbd7a3c35	-0.061092574
144	0x3bc61069	0.0060444367
145	0xba2ec566	-0.0006666988
146	0x3bcfaa7e	0.006337463
147	0xbb333412	-0.0027344269
148	0x3b33df08	0.002744617
149	0x3bd01971	0.006350689
150	0x3746d550	1.1851385e-05
151	0xbb949016	-0.004533778
152	0x3bbc76ec	0.0057514813
153	0xba4b4f1a	-0.00077556225
154	0x3bd0fd6e	0.0063778674
155	0xbb2f3db6	-0.0026739663
156	0x3b671505	0.0035260331
157	0x3c04741f	0.008084326
158	0x3b4656b8	0.003026409
159	0xbb972160	-0.004612133
160	0x3b8f05cf	0.004364706
161	0xba70092d	-0.0009156641
162	0x3bd32f15	0.0064448216
163	0xbb2c997e	-0.0026336606
164	0x3b85c77c	0.0040826183
165	0x3c222b42	0.009898009
166	0xbb809699	-0.0039242026
167	0xbb9b4f1d	-0.0047396556
168	0x3c0334fd	0.008008239
169	0xbb996323	-0.0046810075
170	0x3c00d148	0.007862397
171	0xbb2c67e4	-0.002630704
172	0x3aa7c021	0.0012798348
173	0x3b7fe558	0.0039046612
174	0x3b9e6318	0.0048335902
175	0xbbca955e	-0.0061823567
176	0x3bac4d06	0.0052582053
177	0xbba6bb65	-0.005088257
178	0x3c0465b4	0.008080889
179	0xbb24162a	-0.0025037625
180	0x3b96202f	0.0045814733
181	0x3b73b1e9	0.00371849
182	0xbba08136	-0.0048982156
183	0xbb9950cf	-0.0046788226
184	0xb833ccff	-4.2867843e-05
185	0xbbb0c04a	-0.0053940164
186	0x3c076a73	0.008265126
187	0xbb1ac1e6	-0.0023614108
188	0x3c22587d	0.009908793
189	0x3aa8a5a7	0.0012866751
190	0x3b8dfc0b	0.0043330244
191	0xbb4aac1b	-0.0030925337
192	0x39982f82	0.00029027095
193	0xbacf37e5	-0.0015809505
194	0x3bee31ca	0.007269119
195	0x38d022ed	9.924718e-05
196	0x3ab30e4e	0.0013660879
197	0xbb68414d	-0.0035439313
198	0x3bc8cc36	0.0061278595
199	0xbbb46edf	-0.005506381
200	0x3afea7cb	0.0019428668
201	0xba83624b	-0.00100238
202	0x3bed4619	0.0072410223
203	0x3a31f961	0.00067891745
204	0xba327763	-0.0006807951
205	0xbab2a53f	-0.001362957
206	0x3aec1222	0.0018010775
207	0xbbbb0a6f	-0.005708031
208	0xbc57c522	-0.013169559
209	0xba0ddc08	-0.00054115104
210	0x3be8fc66	0.0071101664
211	0x3a91f9b5	0.001113704
212	0x3b076fcb	0.0020666
213	0xbb185e30	-0.00232495
214	0x3ac9da1f	0.0015400088
215	0xbbb8fff9	-0.0056457487
216	0xbe48c697	-0.19607006
217	0xbc2d8bb6	-0.010592392
218	0x3d18a220	0.03726399
219	0x3c718eb9	0.0147435
220	0x3dbaf056	0.09127872
221	0xbd26538c	-0.04060702
222	0xbe752a32	-0.23941877
223	0x3d4ec26a	0.050478376
224	0x3e52793f	0.20554064
225	0xbc818268	-0.015809253
226	0x3d0e7e98	0.034788698
227	0x3c5cfb4c	0.013487648
228	0x3d9dc3cc	0.07703361
229	0xbb2d2172	-0.002641764
230	0xbe8ccf32	-0.27501827
231	0x3d2c383e	0.042045824
232	0x3bb36d20	0.005475655
233	0xbc16c9e3	-0.009203407
234	0x3cfcbd1f	0.030851899
235	0xbbf7cd36	-0.007562305
236	0xbdd8321e	-0.10556434
237	0x3de9ec7a	0.114220574
238	0x3e1682aa	0.14698282
239	0x3d1c33fb	0.03813551
240	0x3ec2589d	0.37958232
241	0xbb0df19e	-0.0021658908
242	0xbba4c399	-0.0050282
243	0x3d990636	0.07471888
244	0xbe99dd6e	-0.3005175
245	0x3e3b87d7	0.18313538
246	0xbdf1b9f8	-0.11803049
247	0x3d431eae	0.04763668
248	0xbdbd0b12	-0.09230627
249	0x3c632f7f	0.013866304
250	0xbc370ef1	-0.011172996
251	0x3c88d479	0.016702877
252	0xbda3e1f9	-0.08002085
253	0x3d28a4c3	0.041172754
254	0xbdeb30ea	-0.11483939
255	0x3a113b10	0.0005540112

model/time_distributed_8/conv2d_2/Conv2D f4 [8, 3, 3, 1]
0	0xbcb5a9d5	-0.022175709
1	0xbcf43d9e	-0.029814538
2	0x3d427fe6	0.047485255
3	0x3d88a97f	0.06672954
4	0xbd94fa9d	-0.07274363
5	0x3b482eb1	0.0030545408
6	0xbd66ac4d	-0.056316663
7	0x3c5562df	0.013024061
8	0x3cf99ce5	0.030470321
9	0x3b0c5515	0.0021413018
10	0xbb4f1343	-0.0031597174
11	0xbb685891	-0.003545318
12	0x3b11a0bd	0.0022221052
13	0x3b3c86df	0.0028766913
14	0x39ae2ce4	0.00033221312
15	0x3b2f1e8c	0.0026721088
16	0x3b4645ab	0.0030253928
17	0xba8e7740	-0.001086928
18	0xb8a41596	-7.82415e-05
19	0xbbed884b	-0.0072489134
20	0x3bdd06e3	0.0067452057
21	0xba128540	-0.0005589314
22	0x3abca6e6	0.0014393001
23	0xbabaf8b2	-0.0014264791
24	0xba5b4109	-0.0008363878
25	0x3adcb177	0.0016837557
26	0xbab6bf1d	-0.0013942454
27	0x3b584e1c	0.0033005541
28	0xbc13b4a1	-0.009015233
29	0x3b4472a4	0.0029975558
30	0xbb5a1bee	-0.0033280808
31	0x3b00bc29	0.0019643402
32	0xbaf5c21c	-0.0018749866
33	0x3a94564f	0.0011317226
34	0x3866f90c	5.5068216e-05
35	0x3ac0f7c0	0.0014722273
36	0xb8b633ce	-8.688086e-05
37	0xbb378e54	-0.0028008418
38	0x3b37e696	0.0028061024
39	0x3cc32993	0.023823535
40	0xbd07e0bb	-0.033173304
41	0x3b9e3844	0.0048284847
42	0x3a21df1a	0.00061749073
43	0x3bdcc89f	0.006737783
44	0x3c3c41eb	0.011490325
45	0xbd114971	-0.03547043
46	0x3d661687	0.056173827
47	0x3c9bfc59	0.019041227
48	0x3d12d0d3	0.03584368
49	0xbdc70bb6	-0.097190306
50	0x3d2c3590	0.04204327
51	0xbcee7f0d	-0.029113317
52	0x3d898cfa	0.06716342
53	0xbd16396c	-0.036675856
54	0x3ce6e873	0.028187012
55	0xbd5761c1	-0.05258346
56	0x3cb46090	0.0220187
57	0xbc9c489d	-0.019077593
58	0x3cc052d1	0.02347699
59	0xbaf7b521	-0.0018898585
60	0x3ace3039	0.0015730924
61	0x3d383b69	0.044978533
62	0xbd8b23b8	-0.06793922
63	0x3b3d5184	0.0028887698
64	0xbc031645	-0.008000915
65	0x3bd661f1	0.0065424372
66	0x3c671d99	0.014106178
67	0xbccc7ac1	-0.024960877
68	0x3c56ca6b	0.013109784
69	0x3b9f0a3a	0.004853514
70	0xb9c39d44	-0.0003731047
71	0xbad1d161	-0.0016007834

model/lstm/TensorArrayV2_1 f4 [120, 1, 32]
0	0x00000000	0.0
1	0x00000000	0.0
2	0x00000000	0.0
3	0x00000000	0.0
4	0x00000000	0.0
5	0x00000000	0.0
6	0x00000000	0.0
7	0x00000000	0.0
8	0x00000000	0.0
9	0x00000000	0.0
10	0x00000000	0.0
11	0x00000000	0.0
12	0x00000000	0.0
13	0x00000000	0.0
14	0x00000000	0.0
15	0x00000000	0.0
16	0x00000000	0.0
17	0x00000000	0.0
18	0x00000000	0.0
19	0x00000000	0.0
20	0x00000000	0.0
21	0x00000000	0.0
22	0x00000000	0.0
23	0x00000000	0.0
24	0x00000000	0.0
25	0x00000000	0.0
26	0x00000000	0.0
27	0x00000000	0.0
28	0x00000000	0.0
29	0x00000000	0.0
30	0x00000000	0.0
31	0x00000000	0.0
32	0x00000000	0.0
33	0x00000000	0.0
34	0x00000000	0.0
35	0x00000000	0.0
36	0x00000000	0.0
37	0x00000000	0.0
38	0x00000000	0.0
39	0x00000000	0.0
40	0x00000000	0.0
41	0x00000000	0.0
42	0x00000000	0.0
43	0x00000000	0.0
44	0x00000000	0.0
45	0x00000000	0.0
46	0x00000000	0.0
47	0x00000000	0.0
48	0x00000000	0.0
49	0x00000000	0.0
50	0x00000000	0.0
51	0x00000000	0.0
52	0x00000000	0.0
53	0x00000000	0.0
54	0x00000000	0.0
55	0x00000000	0.0
56	0x00000000	0.0
57	0x00000000	0.0
58	0x00000000	0.0
59	0x00000000	0.0
60	0x00000000	0.0
61	0x00000000	0.0
62	0x00000000	0.0
63	0x00000000	0.0
64	0x00000000	0.0
65	0x00000000	0.0
66	0x00000000	0.0
67	0x00000000	0.0
68	0x00000000	0.0
69	0x00000000	0.0
70	0x00000000	0.0
71	0x00000000	0.0
72	0x00000000	0.0
73	0x00000000	0.0
74	0x00000000	0.0
75	0x00000000	0.0
76	0x00000000	0.0
77	0x00000000	0.0
78	0x00000000	0.0
79	0x00000000	0.0
80	0x00000000	0.0
81	0x00000000	0.0
82	0x00000000	0.0
83	0x00000000	0.0
84	0x00000000	0.0
85	0x00000000	0.0
86	0x00000000	0.0
87	0x00000000	0.0
88	0x00000000	0.0
89	0x00000000	0.0
90	0x00000000	0.0
91	0x00000000	0.0
92	0x00000000	0.0
93	0x00000000	0.0
94	0x00000000	0.0
95	0x00000000	0.0
96	0x00000000	0.0
97	0x00000000	0.0
98	0x00000000	0.0
99	0x00000000	0.0
100	0x00000000	0.0
101	0x00000000	0.0
102	0x00000000	0.0
103	0x00000000	0.0
104	0x00000000	0.0
105	0x00000000	0.0
106	0x00000000	0.0
107	0x00000000	0.0
108	0x00000000	0.0
109	0x00000000	0.0
110	0x00000000	0.0
111	0x00000000	0.0
112	0x00000000	0.0
113	0x00000000	0.0
114	0x00000000	0.0
115	0x00000000	0.0
116	0x00000000	0.0
117	0x00000000	0.0
118	0x00000000	0.0
119	0x00000000	0.0
120	0x00000000	0.0
121	0x00000000	0.0
122	0x00000000	0.0
123	0x00000000	0.0
124	0x00000000	0.0
125	0x00000000	0.0
126	0x00000000	0.0
127	0x00000000	0.0
128	0x00000000	0.0
129	0x00000000	0.0
130	0x00000000	0.0
131	0x00000000	0.0
132	0x00000000	0.0
133	0x00000000	0.0
134	0x00000000	0.0
135	0x00000000	0.0
136	0x00000000	0.0
137	0x00000000	0.0
138	0x00000000	0.0
139	0x00000000	0.0
140	0x00000000	0.0
141	0x00000000	0.0
142	0x00000000	0.0
143	0x00000000	0.0
144	0x00000000	0.0
145	0x00000000	0.0
146	0x00000000	0.0
147	0x00000000	0.0
148	0x00000000	0.0
149	0x00000000	0.0
150	0x00000000	0.0
151	0x00000000	0.0
152	0x00000000	0.0
153	0x00000000	0.0
154	0x00000000	0.0
155	0x00000000	0.0
156	0x00000000	0.0
157	0x00000000	0.0
158	0x00000000	0.0
159	0x00000000	0.0
160	0x00000000	0.0
161	0x00000000	0.0
162	0x00000000	0.0
163	0x00000000	0.0
164	0x00000000	0.0
165	0x00000000	0.0
166	0x00000000	0.0
167	0x00000000	0.0
168	0x00000000	0.0
169	0x00000000	0.0
170	0x00000000	0.0
171	0x00000000	0.0
172	0x00000000	0.0
173	0x00000000	0.0
174	0x00000000	0.0
175	0x00000000	0.0
176	0x00000000	0.0
177	0x00000000	0.0
178	0x00000000	0.0
179	0x00000000	0.0
180	0x00000000	0.0
181	0x00000000	0.0
182	0x00000000	0.0
183	0x00000000	0.0
184	0x00000000	0.0
185	0x00000000	0.0
186	0x00000000	0.0
187	0x00000000	0.0
188	0x00000000	0.0
189	0x00000000	0.0
190	0x00000000	0.0
191	0x00000000	0.0
192	0x00000000	0.0
193	0x00000000	0.0
194	0x00000000	0.0
195	0x00000000	0.0
196	0x00000000	0.0
197	0x00000000	0.0
198	0x00000000	0.0
199	0x00000000	0.0
200	0x00000000	0.0
201	0x00000000	0.0
202	0x00000000	0.0
203	0x00000000	0.0
204	0x00000000	0.0
205	0x00000000	0.0
206	0x00000000	0.0
207	0x00000000	0.0
208	0x00000000	0.0
209	0x00000000	0.0
210	0x00000000	0.0
211	0x00000000	0.0
212	0x00000000	0.0
213	0x00000000	0.0
214	0x00000000	0.0
215	0x00000000	0.0
216	0x00000000	0.0
217	0x00000000	0.0
218	0x00000000	0.0
219	0x00000000	0.0
220	0x00000000	0.0
221	0x00000000	0.0
222	0x00000000	0.0
223	0x00000000	0.0
224	0x00000000	0.0
225	0x00000000	0.0
226	0x00000000	0.0
227	0x00000000	0.0
228	0x00000000	0.0
229	0x00000000	0.0
230	0x00000000	0.0
231	0x00000000	0.0
232	0x00000000	0.0
233	0x00000000	0.0
234	0x00000000	0.0
235	0x00000000	0.0
236	0x00000000	0.0
237	0x00000000	0.0
238	0x00000000	0.0
239	0x00000000	0.0
240	0x00000000	0.0
241	0x00000000	0.0
242	0x00000000	0.0
243	0x00000000	0.0
244	0x00000000	0.0
245	0x00000000	0.0
246	0x00000000	0.0
247	0x00000000	0.0
248	0x00000000	0.0
249	0x00000000	0.0
250	0x00000000	0.0
251	0x00000000	0.0
252	0x00000000	0.0
253	0x00000000	0.0
254	0x00000000	0.0
255	0x00000000	0.0

model/dense/BiasAdd/ReadVariableOp/resource f4 [256]
0	0xbd0dacec	-0.03458874
1	0x3c4af1c4	0.012386743
2	0x3ba72479	0.0051007834
3	0x3d9e2ead	0.077237464
4	0x3b9ff025	0.0048809224
5	0xbc739377	-0.014866701
6	0xbd3eee31	-0.046613876
7	0xbd0c8b0a	-0.034312285
8	0xbcbc4916	-0.022984069
9	0xbda2af16	-0.07943551
10	0xbd0c62e2	-0.03427399
11	0xbc8fe491	-0.017565044
12	0x3d61160b	0.054952662
13	0xbd085c56	-0.033291183
14	0xbb1fe584	-0.0024398277
15	0xbd52672c	-0.051367924
16	0xbc8295bc	-0.01594054
17	0xb9dff9c6	-0.0004271997
18	0x3d87406e	0.06604086
19	0x3d544560	0.051823974
20	0x3d0589a5	0.03260197
21	0x3cba69cc	0.022755526
22	0x39da64cf	0.00041655308
23	0x3d245889	0.040123496
24	0x3d25e3a8	0.040500313
25	0x3c9260ea	0.017868478
26	0xbd34524d	-0.0440238
27	0x3cc1adc5	0.02364243
28	0x3c88a24b	0.01667895
29	0x3cf8ce00	0.030371666
30	0xbd0d07e7	-0.034431364
31	0x3d019003	0.03163148
32	0xbcdc265a	-0.026873756
33	0xbcf485f7	-0.029849036
34	0xbd0239b8	-0.031793326
35	0x3cdb26c4	0.026751883
36	0xbba32d56	-0.0049797697
37	0xbcbc0491	-0.022951396
38	0xbe26dff5	-0.1629637
39	0xbc73bc95	-0.014876504
40	0x39e5a8d9	0.00043804085
41	0x3b685e4f	0.0035456603
42	0xbdc94b70	-0.09828842
43	0x3cc7412c	0.024323069
44	0xbd34f3e6	-0.044177912
45	0x3d0ba9e1	0.034097556
46	0x3c8d6f24	0.01726491
47	0xbcda66d3	-0.026660359
48	0x3dc19161	0.09451557
49	0xbc45962c	-0.01205973
50	0x3b33756b	0.002738322
51	0x3dd1cae5	0.10243777
52	0xbd17e836	-0.037086688
53	0xbc905b51	-0.017621668
54	0xbc755662	-0.014974209
55	0xbc860859	-0.016361402
56	0xbce7340b	-0.028223058
57	0xbd0c334c	-0.034228608
58	0x3c8492dc	0.01618331
59	0x3c4b98ff	0.012426614
60	0x3cebfe87	0.028807892
61	0x3be6c4b3	0.0070424913
62	0xbd06c850	-0.032905877
63	0x3c0091a1	0.007847221
64	0x3c19894d	0.009371114
65	0xbd3ae844	-0.045631662
66	0x3d49580c	0.049156234
67	0x3d00df5b	0.03146301
68	0x3d7546ec	0.05988209
69	0x3ce8d622	0.028422419
70	0xbc134aa8	-0.008989967
71	0xbcc90c94	-0.02454213
72	0x3d2b0e63	0.041761767
73	0x3ba9b001	0.005178452
74	0xbcf83696	-0.030299466
75	0x3cc78d04	0.024359234
76	0xbc7f358e	-0.015576733
77	0xbd61114a	-0.05494813
78	0x3d0c24a4	0.03421463
79	0x3d61865d	0.05505978
80	0xbbaf21d9	-0.005344611
81	0x3c0d1962	0.008612009
82	0xbcb80f26	-0.02246816
83	0x3d1030b6	0.035202704
84	0xbc219457	-0.009862027
85	0xbcd0b682	-0.025477652
86	0xbcb81179	-0.02246927
87	0xbcbdeef8	-0.023185238
88	0x3c4a1324	0.012333665
89	0xbc508b9c	-0.012728598
90	0xbd2e6fc3	-0.042587053
91	0xbd1b76c1	-0.03795505
92	0x3cb1e7a9	0.02171691
93	0x3c96089b	0.01831465
94	0x3d882351	0.06647361
95	0xbcf03f2e	-0.029327001
96	0xbc77c995	-0.0151237445
97	0xbc2cd080	-0.010547757
98	0xbc9cdfa2	-0.019149605
99	0x3d5f59c0	0.05452895
100	0xbd466e98	-0.048445314
101	0x3b966aab	0.0045903525
102	0xbc855a3a	-0.016278375
103	0xbd953e40	-0.07287264
104	0x3b970dc8	0.004609797
105	0x3c8fb3b6	0.017541748
106	0x3b442485	0.0029928994
107	0x3cc2f3a0	0.02379781
108	0xbc0bd56e	-0.008534772
109	0xbcdb7be7	-0.02679248
110	0x3ce85e54	0.028365292
111	0x3cc561e7	0.024094535
112	0x3cff59ab	0.031170687
113	0x3d30419a	0.043031313
114	0x3d616cef	0.055035528
115	0xbba078f9	-0.0048972336
116	0x3c874d34	0.016516306
117	0x3c85b42d	0.016321266
118	0xbc47175e	-0.012151567
119	0xbd120b1e	-0.035655133
120	0xbce2ee22	-0.027701441
121	0xbd8dc35f	-0.0692203
122	0xbd26c530	-0.040715396
123	0xbc8a7f4d	-0.016906405
124	0x3d1723d7	0.036899414
125	0x3c8d7e68	0.01727219
126	0x3c746c50	0.014918402
127	0xbc3e646e	-0.011620624
128	0x3d113c6e	0.03545802
129	0xbb562f09	-0.0032681844
130	0xbbd22ec8	-0.006414268
131	0x3cb86bb7	0.0225123
132	0xbc97d37a	-0.018533457
133	0xbd8df651	-0.06931747
134	0x3d159f15	0.036528666
135	0x3c47ff3e	0.012206851
136	0xbd482e61	-0.048872355
137	0x3da15f2f	0.07879483
138	0x3d2a532d	0.04158323
139	0x3d7b9dee	0.06142991
140	0xbd0f78c5	-0.035027284
141	0x3ceae39f	0.028672991
142	0xbbfdac43	-0.0077414825
143	0xbcdb67e1	-0.026782932
144	0xbcfab89b	-0.030605605
145	0x3d080230	0.03320521
146	0x3d857f24	0.06518391
147	0x3bbf3a25	0.005835789
148	0x3d9d82d8	0.07690972
149	0x3c6f93bb	0.014622624
150	0xbcdafb69	-0.02673121
151	0x3cd6a905	0.026203642
152	0xbd58a84f	-0.052894887
153	0xbdc53763	-0.09629705
154	0xbd86cfab	-0.06582578
155	0xbcbb7de4	-0.022887178
156	0xbcb9f2e9	-0.022698836
157	0xbca6f3e1	-0.020379962
158	0x3b350a6e	0.0027624625
159	0x3d598659	0.05310664
160	0xbd49a37c	-0.049228176
161	0xbd1b7bf5	-0.03796001
162	0xbd755794	-0.059897974
163	0xbaa22576	-0.0012370783
164	0xbc289874	-0.010290254
165	0xbd58f2cf	-0.052965935
166	0x3cf8e7fb	0.030384054
167	0xbb6f0f36	-0.0036477572
168	0x3ccbd16d	0.024880135
169	0x3cb14e92	0.02164391
170	0xbd5b8032	-0.053589053
171	0xbd2350fa	-0.039872147
172	0x3d75c649	0.060003553
173	0x3cbfd2e7	0.023415996
174	0x3c369ec1	0.011146248
175	0x3a975981	0.001154706
176	0x3ca0498e	0.019566324
177	0xb8b02a3f	-8.400203e-05
178	0xbd1108d3	-0.035408806
179	0x3c7cc5cc	0.015428018
180	0x3d0f4ad9	0.03498349
181	0x3d004e5d	0.031324733
182	0x3d429c00	0.047512054
183	0x3ce15381	0.027505638
184	0x3d0d5080	0.0345006
185	0x3d4706ae	0.048590355
186	0x3da85f92	0.082213536
187	0xbd464b71	-0.04841179
188	0x3db71e8b	0.089413725
189	0xbd3c714d	-0.04600649
190	0x3d08ac6c	0.03336756
191	0x3bdfebfd	0.006833552
192	0xbd234bb7	-0.03986713
193	0x3c670641	0.014100612
194	0xbc9487d6	-0.018131178
195	0x3b4c5216	0.0031176857
196	0xbc975b3e	-0.018476125
197	0x3cea8dce	0.02863207
198	0x3c727721	0.01479891
199	0xbc087b8e	-0.008330239
200	0x3d1c6e39	0.038191054
201	0xbd2bf4bb	-0.04198144
202	0xbc818cd5	-0.015814224
203	0xbd26f85a	-0.04076419
204	0xbdde72a6	-0.10861711
205	0xbc09c141	-0.008407892
206	0x3d337382	0.04381133
207	0xbd2c0a4f	-0.04200202
208	0xbc358b31	-0.011080549
209	0x3bf7b1df	0.0075590457
210	0xbb19ece9	-0.0023487157
211	0xbad3520b	-0.0016122473
212	0xbb70b7f7	-0.0036730745
213	0x3d261236	0.04054471
214	0xbd5b0419	-0.053470705
215	0x3bd7c849	0.006585155
216	0xbc9c52cc	-0.01908245
217	0x3d2c51da	0.042070247
218	0x3c3c7778	0.011503093
219	0xbb85c6b3	-0.0040825247
220	0xbbef9a5b	-0.007312102
221	0xbd1429e1	-0.03617275
222	0x3c5c4a13	0.013445395
223	0xbe1629f6	-0.14664444
224	0x3cb55a19	0.022137688
225	0xbd01a688	-0.031652957
226	0x3d350b5d	0.04420029
227	0x3cd92717	0.026507897
228	0xbcc3b68e	-0.02389076
229	0xbb21f4b9	-0.0024712516
230	0x3b3efcd4	0.0029142397
231	0x3c7d1d20	0.0154488385
232	0x3d419d7f	0.04726934
233	0xbae593b9	-0.0017515338
234	0xbc95885c	-0.018253498
235	0x3ced51d5	0.028969685
236	0xbd023d4e	-0.031796746
237	0x3c388ae1	0.01126358
238	0xbd17107b	-0.03688095
239	0xbcdc8140	-0.0269171
240	0xbcc8e9c9	-0.02452554
241	0x3d019c19	0.031643007
242	0xbc112841	-0.008859695
243	0xbd00d57f	-0.031453606
244	0xbd35f09f	-0.044418927
245	0xb9280bba	-0.00016026097
246	0x3cb76180	0.022385359
247	0x3c621b58	0.013800465
248	0x3d0ed598	0.034871668
249	0xbc715018	-0.0147285685
250	0xba28f1e9	-0.0006444739
251	0xbd0e8839	-0.03479788
252	0x3d74413a	0.059632517
253	0x3d2924c1	0.041294817
254	0x3cdafb26	0.026731085
255	0xbccde8e7	-0.02513547

model/dense_1/BiasAdd/ReadVariableOp/resource f4 [31]
0	0xbf06a2be	-0.52592075
1	0xbf2cd286	-0.67508733
2	0x3f70213b	0.93800706
3	0xbf3d79ba	-0.74013865
4	0xbc997a0e	-0.018734958
5	0x3d899cb0	0.06719339
6	0xbbe285fb	-0.0069129444
7	0x3f5b3b1f	0.85637087
8	0xbf48ff7b	-0.7851483
9	0xbe95bd3d	-0.2924594
10	0xbe9ee3a7	-0.3103306
11	0xbf04d8da	-0.5189339
12	0xbf45b39f	-0.77227205
13	0x3e4c8503	0.19972615
14	0xbe1889cb	-0.14896314
15	0x3f8414bb	1.0318826
16	0x3f0799cc	0.5296905
17	0x3ea49f9d	0.32153025
18	0xbea042a8	-0.31300855
19	0xbf03341e	-0.512514
20	0x3edecb95	0.43514696
21	0x3ec07f0d	0.37596932
22	0xbe67928e	-0.226145
23	0x3ecdcc99	0.40195158
24	0xbe1699d6	-0.14707121
25	0xbdea323c	-0.11435363
26	0xbe011ec1	-0.12609388
27	0xbd13dedb	-0.036101203
28	0xbf5c844f	-0.86139387
29	0xbec633c6	-0.38711375
30	0x3f9b1542	1.2115862

model/dense/MatMul f4 [256, 32]
0	0x3c0367ad	0.008020324
1	0x3c6b8f78	0.014377467
2	0x3dc6d0cd	0.09707794
3	0xbcae2fe4	-0.02126307
4	0x3d463715	0.048392374
5	0xbc7d93b3	-0.015477109
6	0x3d30be5e	0.0431503
7	0x3d5652f1	0.052325193
8	0xbdd584ce	-0.10425721
9	0x3cd4d0a8	0.025978401
10	0xbdc88c47	-0.09792381
11	0x3c6ceeb0	0.014461204
12	0xbe49d6d6	-0.1971086
13	0x3c04a5ce	0.008096172
14	0xbda862ef	-0.08221995
15	0x3cdcd79b	0.026958277
16	0xbd768d0d	-0.06019311
17	0x3cd03abb	0.02541863
18	0x3cd9a3ef	0.026567427
19	0xbbe7106b	-0.0070515177
20	0x3db740c6	0.089479014
21	0x3a3f955d	0.00073083286
22	0xbc1bd064	-0.009510133
23	0x3d225af6	0.03963753
24	0xbd7fcf98	-0.062453836
25	0xbbf5e930	-0.0075046048
26	0x3d9e3019	0.07724018
27	0x3c52b6ea	0.012860993
28	0x3d36d3a6	0.044635437
29	0xbd6ff5f2	-0.05858416
30	0x3d07c38c	0.033145472
31	0xbbbdcb24	-0.0057920385
32	0x3ca02c87	0.019552482
33	0x3cea9a5b	0.028638056
34	0xbdce8429	-0.10083801
35	0xbd0a7d98	-0.03381118
36	0x3ca38926	0.019962858
37	0x3c8e42be	0.01736581
38	0xbc86b2ab	-0.016442617
39	0xbda9ef7f	-0.082976334
40	0x3d3a8d47	0.04554489
41	0x3c0ba9ae	0.0085243415
42	0x3d108616	0.035284124
43	0x3c5ded08	0.013545282
44	0x3ea5365f	0.32268044
45	0xbd6fbfbf	-0.058532473
46	0xbc024c48	-0.007952757
47	0xbb97bacb	-0.0046304218
48	0x3d62b6cc	0.05535011
49	0xbd2cbe31	-0.04217357
50	0xbc07bf79	-0.008285397
51	0x3c5143ac	0.012772482
52	0xbda682bf	-0.081304066
53	0xbd53b6e6	-0.051688097
54	0xbd47b275	-0.048754174
55	0xbd57a002	-0.05264283
56	0x3bff7f4f	0.007797159
57	0xbcccfed8	-0.025023863
58	0xbbcf0194	-0.006317327
59	0xbcf80370	-0.030275077
60	0x3b945342	0.0045265267
61	0xbcda6476	-0.026659232
62	0x3d032b2a	0.032023586
63	0x3c64de49	0.013969013
64	0x3d44c6d1	0.04804117
65	0xbd7ded14	-0.061993673
66	0xba65d882	-0.0008767919
67	0xbd088f43	-0.03333975
68	0x3d0c8cad	0.034313846
69	0xb9b3e0a0	-0.000343089
70	0x3b436fc2	0.0029821252
71	0x3e023177	0.12714182
72	0x3c1954e1	0.009358616
73	0x3cbc1489	0.02295901
74	0x3d1be7a5	0.03806271
75	0xbc085b2e	-0.00832252
76	0x3dbdbf53	0.09265008
77	0x3c8ad409	0.01694681
78	0x3d8ed0bc	0.06973407
79	0xbc7d7346	-0.015469378
80	0xbcaaf5e0	-0.020869195
81	0xbb81341e	-0.0039429804
82	0x3b889d18	0.0041691177
83	0xbd6692a8	-0.056292206
84	0xbc309246	-0.010777062
85	0x3d503751	0.050834004
86	0xbbb8dece	-0.0056417948
87	0xbcc2d459	-0.023782896
88	0x3cb569b2	0.022145126
89	0x3c1ae6f4	0.009454478
90	0x3cae961b	0.02131181
91	0xbd1f07f9	-0.038825963
92	0xbe05e2b7	-0.13074766
93	0x3e5896cb	0.21151273
94	0xbb907f36	-0.004409696
95	0xbc1a2120	-0.009407312
96	0x3ca42995	0.02003936
97	0x3c57a552	0.013161974
98	0x3d9a115e	0.07522844
99	0x3cd37e1f	0.025816975
100	0xbd03a75c	-0.03214203
101	0x3dc61f2a	0.09673913
102	0xbd2ddf67	-0.04244938
103	0xbc3e708a	-0.011623511
104	0xbc62ba64	-0.013838384
105	0x3ca4a2b4	0.020097114
106	0xbd212ff7	-0.039352383
107	0xbcef33cf	-0.029199509
108	0x3c8d5c5b	0.017255953
109	0xbd1c1b5e	-0.038112037
110	0xbe0d5c37	-0.13804708
111	0x3b83319b	0.004003716
112	0xbd253e2f	-0.040342506
113	0xbc830d7e	-0.015997645
114	0xbdbf59ea	-0.093433216
115	0x3d1d22da	0.038363315
116	0x3c9e9069	0.01935597
117	0x3e37e0c7	0.1795684
118	0xbbb59d1a	-0.0055424096
119	0xbbd75291	-0.006571122
120	0x3db584d4	0.088632256
121	0xbd9d2f81	-0.07675076
122	0xbce12414	-0.027483024
123	0xbc664dd2	-0.01405664
124	0xbc102f13	-0.008800286
125	0xbd9d89b7	-0.07692283
126	0x3ddb5fae	0.10711609
127	0xbd95d0f4	-0.07315245
128	0xbd55b5ac	-0.05217521
129	0x3d9cb264	0.07651213
130	0xbe1b2ddd	-0.15154214
131	0x3d9af6e1	0.0756662
132	0x3b5612c2	0.003266499
133	0xb8b25e68	-8.505286e-05
134	0xbdc41721	-0.09574724
135	0x3dac6b04	0.08418849
136	0xbba142fe	-0.004921316
137	0xbcf32fde	-0.02968591
138	0x3d9a5032	0.07534827
139	0xbdb8caea	-0.09023078
140	0x3d299781	0.04140425
141	0xbd0de753	-0.034644436
142	0x3c95084d	0.018192435
143	0x3d3111c5	0.043229837
144	0xbda4a162	-0.08038594
145	0x3c2ff3a2	0.010739239
146	0xbc75f23c	-0.015011366
147	0xbbdd9d70	-0.006763153
148	0x3c0cd9e3	0.00859687
149	0x3cebfce2	0.028807107
150	0xbca83bd8	-0.020536348
151	0x3c9cf24a	0.019158501
152	0xbc60cf9e	-0.013721375
153	0xbd7448d9	-0.059639785
154	0xbc8d765c	-0.017268352
155	0x3d5827c1	0.052772287
156	0x3c8b45a8	0.017000988
157	0x3be4210e	0.0069619482
158	0xbc9c3f7b	-0.019073239
159	0xbea3d07b	-0.31994995
160	0x3d259cd6	0.040432774
161	0x3d14891f	0.03626358
162	0x3c834d60	0.016028106
163	0xbae00696	-0.0017091807
164	0xbbdb24b6	-0.006687726
165	0xbd2758dc	-0.040856227
166	0x3bc7fe12	0.0061032856
167	0x3c2adf65	0.010429238
168	0xbc5e6e2c	-0.013576072
169	0xbd5f1535	-0.054463584
170	0x3d86f6ce	0.06590043
171	0x3dacb2ee	0.08432566
172	0x3c0684a7	0.008210338
173	0x3ca5f231	0.020257087
174	0xbd4313aa	-0.047626175
175	0xbd118561	-0.03552759
176	0x3c31ec5b	0.010859574
177	0xbd1995cb	-0.03749637
178	0x3d317e4d	0.04333334
179	0x3c9551d1	0.01822749
180	0xbcb34147	-0.021881713
181	0xbd863d65	-0.06554679
182	0xbc437a91	-0.011931078
183	0xbe78a8c2	-0.24283126
184	0xbc4d4beb	-0.012530307
185	0xbc1e4844	-0.009660784
186	0xbe871fb8	-0.26391387
187	0xbd6d55e9	-0.05794326
188	0xbc1fa0b3	-0.0097429035
189	0xbd09c55e	-0.03363549
190	0x3cfc2ea2	0.030783955
191	0xbd9c01fa	-0.076175645
192	0xbd2b4a0c	-0.041818663
193	0x3e06aff0	0.13153052
194	0xbdb01cc5	-0.08599237
195	0x3d0a9040	0.033828974
196	0xbc33b2f4	-0.010967959
197	0x3c595b17	0.013266346
198	0x3d88d469	0.06681139
199	0xbda5cb6f	-0.080954425
200	0x3d477795	0.048698027
201	0xbbdfd367	-0.006830621
202	0x3cf4b24f	0.02987018
203	0x3dca04a8	0.09864169
204	0x3cb36c2d	0.021902168
205	0xbdcffe50	-0.10155928
206	0x3bc92d3e	0.0061394265
207	0x3cb479ff	0.022030829
208	0xbd2c44b7	-0.04205772
209	0x3cd0bd16	0.025480788
210	0x3dda57d4	0.10661283
211	0x3cb0cdca	0.021582503
212	0x3cbcbad8	0.023038313
213	0xbd968252	-0.073490754
214	0x3d83a1a0	0.06427312
215	0x3dbde968	0.09273034
216	0x3aaa2fa1	0.0012984165
217	0xbbfa111e	-0.007631435
218	0xbd35498f	-0.044259604
219	0x3ccb5c06	0.024824154
220	0x3dc44886	0.09584145
221	0xbcb8eb30	-0.022573084
222	0xbc9c9294	-0.019112863
223	0xbd405795	-0.046958525
224	0xbb0fc046	-0.0021934672
225	0xbd60889e	-0.05481779
226	0x3d4cf865	0.050041575
227	0xba945e44	-0.0011319597
228	0xbd1bef49	-0.038069997
229	0x3cdf9e25	0.027297089
230	0x3ca218a1	0.019787135
231	0x3cd6b02d	0.026207054
232	0x3c23227a	0.00995695
233	0xbe92b2e1	-0.286521
234	0x3d54ee45	0.051985044
235	0xbc40765a	-0.011746967
236	0x3b190e0b	0.0023354318
237	0x3d55d95c	0.052209243
238	0x3de77966	0.11302452
239	0xbc3bb505	-0.011456733
240	0xbb869929	-0.0041076136
241	0xbd7b618a	-0.061372317
242	0xbdcf51b8	-0.101230085
243	0xbd86be33	-0.06579246
244	0xbd292de4	-0.04130353
245	0x3d9d42e2	0.076787725
246	0x3d06515f	0.032792445
247	0x3d9733e1	0.07382942
248	0xbc6f54b0	-0.014607593
249	0xbd8a31ca	-0.06747778
250	0xbd952dac	-0.07284102
251	0xbb84ea72	-0.0040562684
252	0x3cd2ad4a	0.025717396
253	0xbcb116c7	-0.021617306
254	0x3ca2e59e	0.01988488
255	0xbd23093a	-0.03980372

model/dense_1/MatMul f4 [31, 256]
0	0xbe64a6d4	-0.22329265
1	0x3e916fb1	0.28405526
2	0x3eaa3426	0.3324291
3	0x3e5cee4f	0.21575283
4	0x3e9b389a	0.3031662
5	0xbed62bdb	-0.41830334
6	0xbe8229ef	-0.25422618
7	0xbeb76648	-0.35820222
8	0x3edb9763	0.42888936
9	0x3f0452a8	0.51688623
10	0xbe747b18	-0.23875082
11	0xbeae2646	-0.34013575
12	0x3de55433	0.111977
13	0x3ec6a986	0.3880121
14	0xbef3e6f7	-0.4763715
15	0xbea81a45	-0.32832542
16	0x3eb20ad0	0.34773874
17	0xbead1d3b	-0.33811364
18	0x3ea91bf9	0.33029154
19	0x3e88045c	0.26565826
20	0x3ec0df91	0.37670568
21	0xbf0c37b8	-0.5477252
22	0xbe51fc40	-0.20506382
23	0xbedb66f8	-0.42851996
24	0x3ee25e42	0.44212538
25	0xbeba6eea	-0.36412746
26	0x3ef75de1	0.4831381
27	0x3ee8ef6b	0.4549516
28	0xbebd9770	-0.370296
29	0x3e27735a	0.16352597
30	0xbe8bb0eb	-0.27283415
31	0x3e3c16d9	0.1836809
32	0xbe85001c	-0.25976646
33	0x3e9a26f3	0.3010784
34	0x3f0c90ea	0.5490862
35	0x3ebec579	0.37260035
36	0xbeca97af	-0.3956885
37	0x3edb4251	0.42824033
38	0x3f154b2b	0.5831782
39	0xbee0339c	-0.43789375
40	0x3d2be604	0.041967407
41	0xbeb11f2a	-0.3459409
42	0xbe016526	-0.12636241
43	0x3e6bf2fa	0.23041907
44	0x3efdd8ed	0.49579564
45	0xbd83f617	-0.06443422
46	0xbebcb2dc	-0.3685521
47	0xbebbcd39	-0.3668001
48	0x3e93be8c	0.28856313
49	0x3ec04791	0.375546
50	0xbeb30aed	-0.34969273
51	0x3e668db1	0.22514988
52	0x3ea610e3	0.3243476
53	0x3eb37e0b	0.350571
54	0xbea2a189	-0.31763867
55	0xbe8bbfc2	-0.27294737
56	0xbe7568c5	-0.23965748
57	0x3ebe2765	0.3713943
58	0x3ec41136	0.3829438
59	0xbeb317d6	-0.34979123
60	0xbea957c3	-0.3307477
61	0xbeda596e	-0.42646354
62	0x3eed27fa	0.46319562
63	0x3e434546	0.19069394
64	0xbee2bfda	-0.44286996
65	0x3f003c15	0.5009168
66	0x3e5729b9	0.2101201
67	0xbf07f7c1	-0.5311242
68	0xbed6ae68	-0.41929936
69	0x3eb64752	0.35601288
70	0xbeb364c2	-0.3503781
71	0xbeb12699	-0.3459976
72	0x3e36cdb0	0.17851901
73	0x3e15b213	0.14618711
74	0xbe4a683a	-0.19766322
75	0x3e8f157b	0.27946076
76	0x3ebccbc5	0.36874214
77	0xbe184fb2	-0.14874151
78	0x3e61f530	0.22066188
79	0x3e83f3d5	0.25771967
80	0xbedaa93f	-0.4270725
81	0x3ebe1fdf	0.3713369
82	0xbea10735	-0.3145081
83	0x3eaed816	0.34149235
84	0x3ed0b7f9	0.4076536
85	0xbeadeec9	-0.3397124
86	0xbee7916d	-0.4522814
87	0xbed27a63	-0.41109
88	0x3ed43b94	0.41451705
89	0xbeb6fb5e	-0.35738653
90	0xbe73712c	-0.2377364
91	0xbe4bb2e2	-0.19892457
92	0xbf0ada77	-0.542396
93	0x3e8c8709	0.27446774
94	0x3d8bd7e7	0.068282895
95	0x3eeafb85	0.4589502
96	0xbed6b30a	-0.4193347
97	0xbedf4d19	-0.43613508
98	0x3eb72f26	0.3577816
99	0xbf11a762	-0.5689603
100	0x3e913ada	0.28365213
101	0xbf0ef50e	-0.55842674
102	0xbe987096	-0.29773396
103	0x3ec70167	0.38868257
104	0x3cbb9596	0.022898477
105	0x3e9851a3	0.29749784
106	0x3ea5ecce	0.3240723
107	0x3ec7bbe4	0.39010537
108	0xbeadf852	-0.33978516
109	0x3eeef638	0.46672225
110	0xbed18bc3	-0.40926942
111	0xbd58fce2	-0.052975543
112	0xbf032a4c	-0.51236415
113	0x3eb5ff83	0.35546502
114	0x3e7ce7fd	0.24697872
115	0xbcae618e	-0.021286752
116	0x3de1f1c0	0.11032438
117	0xbf0af45c	-0.5427911
118	0x3eaf49c2	0.3423596
119	0x3f088a74	0.5333626
120	0xbed9f50f	-0.42569777
121	0xbea43bf9	-0.32077006
122	0x3ed775ff	0.4208221
123	0x3e5f78bc	0.218234
124	0x3de2eaf0	0.11079967
125	0xbec7d930	-0.39032888
126	0xbe8eda5c	-0.2790097
127	0x3eeeb8d6	0.46625394
128	0x3e8f70fa	0.28015882
129	0x3eb7f895	0.3593184
130	0xbe64f13f	-0.22357653
131	0xbd9936ac	-0.07481131
132	0xbe52c771	-0.20583893
133	0xbdf7d29f	-0.1210072
134	0x3e859477	0.26089832
135	0xbef5ec83	-0.48032007
136	0xbe742ec9	-0.23845972
137	0xbe099886	-0.1343709
138	0x3ee9440b	0.45559725
139	0xbf0a5209	-0.54031426
140	0xbeacc68b	-0.33745226
141	0xbe95b36f	-0.2923846
142	0x3eafd799	0.34344175
143	0xbebd05fb	-0.36918625
144	0x3efb0792	0.49029213
145	0xbec51a08	-0.38496423
146	0x3e3870d5	0.18011792
147	0x3ea0986c	0.3136629
148	0x3eeff4b0	0.4686637
149	0x3edabe1d	0.4272317
150	0xbeb547ff	-0.3540649
151	0xbf00cde5	-0.5031417
152	0xbd7a0dad	-0.0610482
153	0xbe9cd5c7	-0.3063185
154	0xbe84aa44	-0.25911152
155	0x3f00efaf	0.5036573
156	0x3ebd28ec	0.36945283
157	0x3eb74901	0.35797885
158	0x3ec5311b	0.38514027
159	0xbe1298e9	-0.14316143
160	0x3eed5126	0.46350974
161	0xbe329754	-0.1744054
162	0x3ec87ecb	0.39159235
163	0x3e4aa958	0.19791162
164	0xbeb39fa9	-0.3508275
165	0xbe474124	-0.19458443
166	0xbee35953	-0.44404086
167	0x3ee5f339	0.44912127
168	0xbed80e09	-0.42198208
169	0xbebab1a4	-0.36463654
170	0xbe6be65d	-0.23037095
171	0xbeae4924	-0.34040177
172	0x3e8799be	0.26484483
173	0xbe130ae9	-0.1435963
174	0xbed5ba68	-0.4174378
175	0x3ec49cf1	0.38400987
176	0x3e717ca7	0.23582707
177	0x3ebcfd79	0.36912134
178	0x3d33e1c0	0.043916464
179	0x3d400e63	0.04688872
180	0xbed2163b	-0.41032586
181	0x3eb476cc	0.35246885
182	0x3eadf731	0.33977655
183	0xbe8e6527	-0.27811548
184	0xbe6786c9	-0.2261001
185	0x3e74632d	0.23865958
186	0xbed56872	-0.41681248
187	0x3edf47fe	0.43609613
188	0xbefecb03	-0.4976426
189	0xbe8dbc15	-0.27682558
190	0xbedea785	-0.43487182
191	0x3f041e1a	0.5160843
192	0x3ed062f5	0.40700498
193	0x3ea9c5ef	0.33158824
194	0xbed629d4	-0.41828787
195	0xbefc77b2	-0.4931007
196	0xbed66161	-0.4187117
197	0xbede1356	-0.43374127
198	0xbed5b2d0	-0.41737986
199	0xbed14c50	-0.40878534
200	0xbea7838d	-0.32717553
201	0xbe55a946	-0.20865354
202	0x3ea917b5	0.330259
203	0x3eea4db6	0.45762414
204	0xbdf234a8	-0.1182645
205	0x3eb35653	0.35026798
206	0xbedc3fd1	-0.43017438
207	0x3ea802ba	0.3281458
208	0x3e807160	0.25086498
209	0x3e83bb8b	0.2572902
210	0x3ed33a1a	0.41255265
211	0x3eaaaf7d	0.33337012
212	0xbe8ccb83	-0.27499017
213	0xbefa32c1	-0.48866847
214	0x3eedd1fd	0.4644927
215	0x3ebbe61c	0.36698997
216	0x3f025fdb	0.50927514
217	0xbee659c9	-0.44990376
218	0x3eeefce2	0.4667731
219	0xbea1a1a4	-0.31568635
220	0xbe0bc927	-0.13650952
221	0xbeb12463	-0.34598073
222	0x3e72258b	0.23647134
223	0x3f22bb7e	0.6356734
224	0x3ea4da9b	0.32198033
225	0x3e285e5a	0.16442242
226	0xbf0ac828	-0.54211664
227	0xbede9d62	-0.4347945
228	0x3edf9eff	0.43675992
229	0x3eaf7750	0.34270716
230	0xbeb07e3d	-0.34471312
231	0xbebb5017	-0.3658454
232	0x3ed13a77	0.40864918
233	0x3ea381ea	0.31935054
234	0x3f0e80c3	0.55665225
235	0x3eb491a2	0.3526736
236	0xbea6cd89	-0.32578686
237	0xbe886b29	-0.26644257
238	0x3ee642bc	0.4497279
239	0xbebbc3bf	-0.3667278
240	0xbe08ed49	-0.13371767
241	0xbec2a980	-0.38019943
242	0x3ef882fa	0.48537427
243	0xbeb17132	-0.34656674
244	0x3ecef1ad	0.4041876
245	0x3cc9563c	0.024577253
246	0x3ec69987	0.38789007
247	0x3e319062	0.17340234
248	0x3e8a61cc	0.27027738
249	0xbf0bd72b	-0.54625195
250	0x3e8a88a9	0.27057388
251	0x3ed756e8	0.42058492
252	0xbeaa460e	-0.33256572
253	0x3e824dcb	0.25449976
254	0xbf04c964	-0.518698
255	0xbe4720c1	-0.19446088

model/time_distributed_10/batch_normalization_2/FusedBatchNormV3 f4 [8]
0	0xbc6df31a	-0.014523292
1	0xbc5cd027	-0.013477362
2	0x3bd356f3	0.006449574
3	0xbc1e6e4b	-0.009669851
4	0x3bf95ac8	0.007609699
5	0xbcf16ade	-0.029469904
6	0xbc92ad96	-0.017905038
7	0xbbd990e3	-0.0066395863

model/time_distributed_10/batch_normalization_2/FusedBatchNormV31 f4 [8]
0	0x3e976709	0.29570797
1	0x3db1b665	0.08677367
2	0x3c704e80	0.014667153
3	0x3d863877	0.065537386
4	0x3e6ba99e	0.23013923
5	0x3eb06ae1	0.34456542
6	0x3edd420a	0.43214446
7	0xbd348d8c	-0.044080302

model/time_distributed_13/batch_normalization_3/FusedBatchNormV3 f4 [16]
0	0xbd82e53a	-0.06391378
1	0xbe38aa79	-0.1803378
2	0x3b019a59	0.0019775836
3	0xbde5c602	-0.112194076
4	0xbda080c6	-0.078370616
5	0xba431aaf	-0.0007442636
6	0xbd45f084	-0.048325077
7	0xbe1ff55c	-0.15620941
8	0xbd02a3bd	-0.031894434
9	0x3a334cdf	0.0006839763
10	0xbd23d428	-0.03999725
11	0xbca43ef6	-0.020049553
12	0xbdc0dc00	-0.09416962
13	0x3a0fef32	0.000549066
14	0xbd6e35c8	-0.05815676
15	0x3d0a2021	0.033722047

model/time_distributed_13/batch_normalization_3/FusedBatchNormV31 f4 [16]
0	0x40050b77	2.0788248
1	0x406bcad2	3.6842542
2	0xbca9b712	-0.020717178
3	0x3fe88750	1.8166294
4	0x3fb0521a	1.3775055
5	0xbe8bbfed	-0.27294865
6	0x403f8475	2.9924595
7	0x3fe6423a	1.7988961
8	0x4085c095	4.1797585
9	0xbd103a31	-0.035211746
10	0x40211524	2.5169153
11	0x402e2aba	2.7213578
12	0x404b0214	3.1720018
13	0xbe8a1028	-0.2696545
14	0x40634669	3.5511725
15	0x4080facc	4.030615

model/time_distributed_2/batch_normalization/FusedBatchNormV3 f4 [8]
0	0x3bbac0e4	0.005699264
1	0x3b2c75b8	0.0026315283
2	0xbaf52f4c	-0.0018706112
3	0xbc9c4374	-0.019075133
4	0xbd9353e2	-0.07193734
5	0xb9e06798	-0.00042801793
6	0xbdfae73f	-0.12251138
7	0xb90d0e2a	-0.00013452084

model/time_distributed_2/batch_normalization/FusedBatchNormV31 f4 [8]
0	0xbccd5e29	-0.025069313
1	0xbaf58d42	-0.0018734115
2	0xbc42d451	-0.0118914405
3	0x3da6fea6	0.08154039
4	0x3e3713d6	0.1787866
5	0x3d5ba6ce	0.053625874
6	0x3e4282e8	0.1899525
7	0x3acca4bf	0.0015613063

model/time_distributed_5/batch_normalization_1/FusedBatchNormV3 f4 [16]
0	0xbc459a10	-0.012060657
1	0xbdb5c725	-0.088758744
2	0xbe8f40e0	-0.27979183
3	0xbe985523	-0.29752454
4	0xbf437887	-0.76355785
5	0xbea6b2b0	-0.32558203
6	0xbe3b8054	-0.18310672
7	0xbe980ba5	-0.29696384
8	0xbea09495	-0.3136336
9	0xbde7f314	-0.1132566
10	0xbf08ecce	-0.53486335
11	0xbef19608	-0.47184777
12	0x3d005f9a	0.031341173
13	0x3ce1f79a	0.027583886
14	0xbf382816	-0.71936166
15	0xbe6d86db	-0.23195975

model/time_distributed_5/batch_normalization_1/FusedBatchNormV31 f4 [16]
0	0x407802d8	3.8751736
1	0x404f1c33	3.2360961
2	0x4058ec35	3.389417
3	0x404a5ecc	3.162036
4	0x404bbde6	3.1834655
5	0x406a2996	3.6587882
6	0x405e3afc	3.4723501
7	0x408b7c0f	4.358894
8	0x405974e1	3.3977587
9	0x403bdcee	2.9353595
10	0x4081c375	4.0551095
11	0x407dca59	3.9654753
12	0x409f6ba1	4.9818883
13	0x40ba0eef	5.814323
14	0x405927e2	3.3930593
15	0x409dd076	4.931697
