resources/model/indexpen_tflite_models_5User_Ultimate_Model_higher_decay/indexpen_model_quant.tflite (tflite, 412592 bytes, 45 tensors)

model/time_distributed_3/conv2d_1/BiasAdd;model/time_distributed_11/conv2d_3/Conv2D;model/time_distributed_3/conv2d_1/Conv2D;model/time_distributed_3/conv2d_1/BiasAdd/ReadVariableOp/resource f2 [16]
-0.2092 -0.1642 -0.02959 -0.0549 0.1337 -0.07153 -0.1343 -0.02849
-0.08246 -0.1284 -0.01291 -0.05142 -0.1837 -0.1831 0.0699 -0.1377
00000000: b2b2 41b1 93a7 07ab 4730 94ac 4cb0 4ba7
00000010: 47ad 1cb0 9ca2 95aa e1b1 dcb1 792c 68b0

model/time_distributed/conv2d/BiasAdd;model/time_distributed_8/conv2d_2/Conv2D;model/time_distributed/conv2d/Conv2D;model/time_distributed/conv2d/BiasAdd/ReadVariableOp/resource f2 [8]
0.005085 -0.00886 -0.007217 0.02008 0.0861 -0.0096 0.172 0.003466
00000000: 351d 89a0 649f 2425 832d eaa0 8131 191b

model/time_distributed_11/conv2d_3/BiasAdd;model/time_distributed_11/conv2d_3/Conv2D;model/time_distributed_11/conv2d_3/BiasAdd/ReadVariableOp/resource f2 [16]
0.01023 0.0767 -0.005756 0.0401 0.04645 -0.00873 -0.01182 0.05017
0.005466 -0.00517 -0.00769 -0.02394 0.01804 -0.00512 0.01043 -0.07306
00000000: 3d21 e92c e59d 2229 f229 78a0 0da2 6c2a
00000010: 991d 4b9d e09f 21a6 9e24 3e9d 5721 adac

model/time_distributed_8/conv2d_2/BiasAdd;model/time_distributed_8/conv2d_2/Conv2D;model/time_distributed_8/conv2d_2/BiasAdd/ReadVariableOp/resource f2 [8]
0.06934 0.0268 0.0007415 0.01041 0.009674 0.124 0.02263 0.001881
00000000: 702c dc26 1312 5421 f420 f02f cb25 b417

model/time_distributed_3/conv2d_1/Conv2D f2 [16, 3, 3, 8]
0.0821 -0.0513 0.00956 -0.275 0.006916 0.0321 -0.05557 -0.0326
-0.02449 -0.02559 -0.02635 0.05258 0.10474 0.0424 0.2048 -0.03128
0.03375 -0.05075 -0.02562 0.005043 -0.1663 -0.04352 -0.01288 0.01045
-0.001226 -0.0708 -0.014084 -0.0672 -0.0659 0.0401 0.1606 0.01636
-0.04132 0.005787 -0.00478 0.2854 -0.106 0.02753 0.007812 0.0234
-0.01372 0.00694 0.03006 -0.10583 0.02008 -0.05508 -0.2291 -0.004383
-0.00383 0.0481 0.05716 0.0648 -0.07104 -0.00504 0.1083 -0.02495
-0.02475 0.02937 -0.00661 -0.1461 -0.10455 -0.05423 0.2773 -0.003296
-0.012146 -0.0187 -0.026 -0.09406 -0.015 -0.01823 0.4675 -0.02727
-0.002893 0.00968 -0.078 -0.1263 0.0896 -0.01712 -0.3164 0.0851
0.03186 -2.12e-05 -0.01183 -0.0276 0.0905 -0.03946 -0.02922 -0.003416
-0.00442 -0.01249 0.04196 -0.06247 -0.1533 0.0449 0.3025 -0.04916
-0.004246 0.01753 -0.05234 0.1826 0.03342 0.000385 -0.1779 0.03918
-0.1009 0.00256 0.03226 0.001066 0.07025 -0.003458 -0.3242 0.0174
-0.1051 0.01608 0.0248 -0.1217 0.03906 0.0804 0.255 -0.001516
0.002607 0.02428 -0.00621 -0.0596 0.1547 0.03613 0.02365 -0.02704
0.0179 -0.003874 0.0304 -0.1324 -0.1265 0.015526 0.2178 0.04984
0.02998 -0.02269 -0.0377 0.002161 -0.1332 0.011314 0.3743 0.03702
-0.06744 -0.00593 -0.0128 -0.108 -0.1361 -0.01572 -0.1743 0.03635
-0.05087 -0.01982 -0.05502 -0.0509 -0.00598 0.05048 0.1626 0.02046
-0.0638 -0.0739 0.01883 0.0343 -0.02034 0.06036 -0.1677 -0.04272
-0.007294 0.0265 -0.02383 0.1764 -0.2372 0.01904 -0.3674 0.05106
-0.03857 0.0675 -0.02443 -0.0677 -0.0698 0.000703 -0.3708 -0.000248
-0.00543 -0.02805 0.03732 0.2045 0.02116 -0.03302 -0.1586 0.0414
0.02536 -0.013954 -0.04105 -0.10925 0.01604 0.02745 0.04477 -0.03217
0.00404 0.03238 0.003416 -0.3708 -0.2191 0.0048 0.13 -0.02953
0.011955 -0.006775 0.0003655 -0.018 -0.3562 -0.05353 0.1683 0.01959
-0.04132 0.06946 -0.0313 -0.0907 0.05246 0.04495 0.06003 0.003616
-0.04276 0.02496 -0.01602 0.1254 -0.1467 -0.02249 -0.1564 0.03595
-0.06235 -0.00812 0.05508 -0.259 -0.03815 0.01385 0.0803 -0.04785
0.0322 -0.00811 -0.03076 0.002243 -0.02444 0.00819 0.02756 0.04907
0.0605 0.04007 -0.004322 -0.0682 -0.1509 0.02771 -0.1309 0.02367
00000000: 412d 91aa e520 66b4 151f 1c28 1dab 2ca8
00000010: 45a6 8da6 bfa6 bb2a b42e 6d29 8e32 01a8
00000020: 5228 7faa 8fa6 2a1d 52b1 92a9 98a2 5a21
00000030: 0695 88ac 36a3 4dac 38ac 2229 2431 3024
00000040: 4aa9 ed1d e59c 9134 c9ae 0c27 0020 fe25
00000050: 06a3 1b1f b227 c6ae 2425 0dab 55b3 7d9c
00000060: d89b 282a 512b 262c 8cac 299d ee2e 63a6
00000070: 56a6 8527 c59e adb0 b1ae f1aa 7034 c09a
00000080: 38a2 caa4 a8a6 05ae aea3 aba4 7b37 fba6
00000090: ed99 f520 feac 0bb0 bc2d 62a4 10b5 722d
000000a0: 1428 6481 0fa2 11a7 cb2d 0da9 7ba7 ff9a
000000b0: 879c 65a2 5f29 ffab e8b0 bf29 d734 4baa
000000c0: 599c 7d24 b3aa d831 4728 4f0e b1b1 0429
000000d0: 75ae 3e19 2128 5e14 7f2c 159b 30b5 7424
000000e0: baae 1e24 5926 caaf 0029 252d 1434 3696
000000f0: 5719 3726 5c9e a1ab f330 a028 0e26 eca6
00000100: 9524 ef9b c827 3db0 0cb0 f323 f832 612a
00000110: ad27 cfa5 d3a8 6d18 43b0 cb21 fd35 bd28
00000120: 51ac 139e 8ea2 e9ae 5bb0 06a4 94b1 a728
00000130: 83aa 13a5 0bab 84aa 209e 762a 3431 3d25
00000140: 15ac bbac d224 6428 35a5 ba2b 5eb1 78a9
00000150: 789f c926 1aa6 a531 97b3 e024 e1b5 892a
00000160: f0a8 522c 41a6 55ac 78ac c211 efb5 108c
00000170: 8f9d 2ea7 c728 8b32 6b25 3aa8 13b1 4d29
00000180: 7e26 25a3 41a9 feae 1b24 0727 bb29 1ea8
00000190: 231c 2528 ff1a efb5 03b3 ea1c 2930 8fa7
000001a0: 1f22 f09e fd0d 9ca4 b3b5 daaa 6331 0425
000001b0: 4aa9 722c 02a8 cead b72a c129 af2b 681b
000001c0: 79a9 6426 1aa4 0330 b2b0 c2a5 01b1 9a28
000001d0: fbab 28a0 0d2b 25b4 e2a8 1723 242d 20aa
000001e0: 1f28 27a0 e0a7 9818 42a6 3120 0e27 482a
000001f0: be2b 2129 6d9c 5dac d4b0 1827 30b0 0f26

model/time_distributed/conv2d/Conv2D f2 [8, 3, 3, 1]
0.001127 -0.001065 -0.0007343 0.0008407 0.0003204 0.0003622 -0.0001323 -0.002
-0.0004764 -0.0005755 0.0004797 0.000442 0.0001284 -0.001064 -0.0005994 0.0008836
8.31e-05 0.0002035 -0.000586 -8.32e-05 0.0003192 0.0002744 -0.0004077 -0.0002283
0.0008497 0.0002183 9.924e-05 -0.000533 -0.001074 -0.002308 0.005344 0.000295
-0.00615 -0.004066 -0.003105 0.01532 -0.0006704 -0.0006304 -0.0006986 -0.002716
-0.0001317 -0.00346 0.02295 0.00332 -0.004387 -0.001675 0.000558 0.001368
-0.0009747 0.002947 -0.000781 -0.002052 -0.001026 -0.001811 -0.0007463 0.001098
0.0005355 0.0013685 0.000877 0.000729 -0.002083 -0.01997 -0.002739 -1.556e-05
-0.0001147 -0.000492 0.0005546 -0.000409 0.000645 7.9e-06 -0.0002995 -9e-06
00000000: 9e14 5d94 0492 e312 400d ef0d 5688 1998
00000010: ce8f b790 dc0f 3e0f 3508 5c94 e990 3d13
00000020: 7205 ab0a cd90 7485 3b0d 7f0c ae8e 7b8b
00000030: f612 270b 8106 5e90 6694 ba98 791d d50c
00000040: 4c9e 2a9c 5c9a d823 7e91 2a91 b991 9099
00000050: 5188 169b e025 cd1a 7e9c dc96 9210 9a15
00000060: fc93 091a 6692 3498 3494 6b97 1d92 7f14
00000070: 6310 9b15 2f13 f911 4498 1da5 9c99 0581
00000080: 8487 0890 8b10 b38e 4911 8500 e88c 9780

model/time_distributed_11/conv2d_3/Conv2D f2 [16, 3, 3, 8]
0.1984 -0.001387 0.007904 0.0031 -0.3374 -0.2788 -0.1255 -0.06152
0.011604 0.01361 0.01552 -0.02586 -0.314 0.2517 -0.1588 -0.0542
-0.1105 0.006886 0.005745 -0.0161 -0.344 0.06104 0.08167 -0.02547
-0.2222 -0.03357 0.02075 -0.02663 0.0598 0.1503 -0.3142 -0.015236
0.03143 -0.05392 -0.001263 -0.002739 0.01996 0.006107 0.1055 0.03455
0.01826 -0.02057 -0.011086 -0.01628 -0.004246 -0.2303 0.1036 0.05084
0.0324 -0.0452 0.02576 0.02536 -0.02309 -0.1034 -0.1704 -0.02637
-0.0099 0.04453 0.01009 0.05014 0.0613 0.015144 -0.0255 -0.02829
0.05194 0.003674 0.01406 0.0639 0.314 -0.02328 -0.3154 0.0748
0.496 0.02908 -0.002306 0.07 0.2068 -0.10504 -0.325 0.0001241
0.02647 -0.0137 -0.012505 -0.0631 -0.1475 0.1694 -0.10486 -0.0311
-0.4624 -0.00829 0.006714 -0.01741 -0.394 -0.1298 0.3167 0.005383
-0.2754 -0.0347 0.03062 -0.0082 -0.4004 0.2032 -0.2517 0.03094
0.2095 -0.009674 0.03375 0.0797 -0.277 -0.2903 -0.1831 -0.0898
0.1089 -0.0576 -0.03558 0.00515 0.2769 0.007137 -0.002508 0.03955
0.1525 -0.05875 0.03464 0.02895 0.05643 0.1779 -0.2157 0.01435
-0.2268 -0.03745 0.0678 -0.05112 -0.134 -0.1256 -0.10706 -0.0843
-0.11774 -0.065 0.010796 0.05148 -0.3818 -0.1265 0.0844 -0.0611
0.006046 -0.0006666 0.006336 -0.002735 0.002745 0.00635 1.186e-05 -0.004536
0.005753 -0.0007753 0.00638 -0.002674 0.003527 0.00809 0.003027 -0.004612
0.004364 -0.0009155 0.006443 -0.002634 0.00408 0.009895 -0.003925 -0.004738
0.00801 -0.00468 0.007866 -0.00263 0.00128 0.003904 0.004833 -0.006184
0.005257 -0.00509 0.00808 -0.002504 0.00458 0.00372 -0.004898 -0.00468
-4.286e-05 -0.005394 0.00826 -0.002361 0.00991 0.0012865 0.004333 -0.003092
0.0002902 -0.001581 0.00727 9.924e-05 0.001366 -0.003544 0.006126 -0.005505
0.001943 -0.001002 0.00724 0.000679 -0.000681 -0.001363 0.0018015 -0.005707
-0.01317 -0.000541 0.00711 0.001114 0.002066 -0.002325 0.00154 -0.005646
-0.196 -0.01059 0.03726 0.01474 0.0913 -0.04062 -0.2394 0.05048
0.2056 -0.01581 0.0348 0.01349 0.077 -0.002642 -0.275 0.04205
0.005474 -0.0092 0.03085 -0.00756 -0.1056 0.1142 0.147 0.03815
0.3796 -0.002167 -0.005028 0.0747 -0.3005 0.1831 -0.11804 0.04764
-0.0923 0.01386 -0.01117 0.01671 -0.08 0.04117 -0.11487 0.000554
00000000: 5932 ae95 0c20 591a 66b5 76b4 04b0 e0ab
00000010: f121 f822 f223 9fa6 06b5 0734 15b1 f0aa
00000020: 12af 0d1f e21d 1fa4 81b5 d02b 3a2d 85a6
00000030: 1cb3 4ca8 5025 d1a6 a82b cf30 07b5 cda3
00000040: 0628 e7aa 2c95 9c99 1c25 411e c12e 6c28
00000050: ad24 44a5 ada1 2ba4 599c 5fb3 a12e 822a
00000060: 2628 c9a9 9826 7e26 e9a5 9eae 74b1 c0a6
00000070: 12a1 b329 2b21 6b2a d92b c123 87a6 3ea7
00000080: a62a 861b 3323 172c 0635 f6a5 0cb5 ca2c
00000090: f037 7227 b998 7b2c 9e32 b9ae 33b5 1108
000000a0: c726 04a3 67a2 0aac b8b0 6c31 b6ae f6a7
000000b0: 66b7 3fa0 e01e 75a4 4eb6 27b0 1135 831d
000000c0: 68b4 71a8 d727 33a0 68b6 8132 07b4 ec27
000000d0: b432 f4a0 5228 1a2d 6fb4 a5b4 dcb1 bfad
000000e0: f82e 5fab 8ea8 461d 6e34 4f1f 2399 1029
000000f0: e130 85ab 6f28 6927 392b b131 e7b2 5923
00000100: 42b3 cba8 572c 8baa 4ab0 05b0 daae 65ad
00000110: 89af 29ac 8721 972a 1cb6 0cb0 672d d2ab
00000120: 311e 7691 7d1e 9a99 9f19 811e c700 a59c
00000130: e41d 5a92 881e 7a99 391b 2420 331a b99c
00000140: 781c 8093 991e 6599 2e1c 1121 059c da9c
00000150: 1a20 cb9c 0720 6399 3e15 ff1b f31c 559e
00000160: 621d 369d 2320 2199 b11c 9e1b 049d cb9c
00000170: cf82 869d 3b20 d698 1321 4515 701c 559a
00000180: c10c 7a96 721f 8106 9815 429b 461e a39d
00000190: f517 1b94 6a1f 9011 9491 9595 6117 d89d
000001a0: bea2 6f90 481f 9014 3b18 c398 4f16 c89d
000001b0: 46b2 6ca1 c528 8c23 d82d 33a9 a9b3 762a
000001c0: 9432 0ca4 7428 e822 ee2c 6999 66b4 6229
000001d0: 9b1d b6a0 e627 be9f c2ae 4f2f b430 e228
000001e0: 1336 7098 269d c82c cfb4 dc31 8eaf 192a
000001f0: e8ad 1923 b8a1 4724 1fad 4529 5aaf 8a10

model/time_distributed_8/conv2d_2/Conv2D f2 [8, 3, 3, 1]
-0.02217 -0.02982 0.0475 0.0667 -0.07275 0.003054 -0.0563 0.01302
0.03047 0.002142 -0.00316 -0.003546 0.002222 0.002876 0.000332 0.002672
0.003025 -0.001087 -7.826e-05 -0.007248 0.006744 -0.000559 0.001439 -0.001427
-0.0008364 0.001684 -0.001394 0.0033 -0.00902 0.002998 -0.003328 0.001965
-0.001875 0.001132 5.51e-05 0.001472 -8.69e-05 -0.0028 0.002806 0.02382
-0.03317 0.00483 0.0006175 0.006737 0.01149 -0.03546 0.05618 0.01904
0.03586 -0.09717 0.04205 -0.02911 0.06714 -0.03668 0.02818 -0.05258
0.02202 -0.01907 0.02348 -0.00189 0.001574 0.04498 -0.06793 0.00289
-0.008 0.006542 0.01411 -0.02496 0.01311 0.004852 -0.0003731 -0.001601
00000000: ada5 a2a7 142a 452c a8ac 411a 35ab ab22
00000010: cd27 6318 799a 439b 8d18 e419 710d 7919
00000020: 321a 7494 2185 6c9f e81e 9490 e515 d895
00000030: da92 e616 b695 c21a 9ea0 241a d19a 0618
00000040: ae97 a314 9c03 0816 b285 bc99 bf19 1926
00000050: 3fa8 f21c 0f11 e61e e221 8aa8 312b e024
00000060: 9728 38ae 6229 74a7 4c2c b2a8 3727 bbaa
00000070: a325 e2a4 0326 be97 7216 c229 59ac eb19
00000080: 19a0 b31e 3923 64a6 b622 f81c 1d8e 8f96

model/lstm/TensorArrayV2_1 f2 [120, 1, 32]
0.0 0.0 0.0 0.0 0.0 0.0 0.0 0.0
0.0 0.0 0.0 0.0 0.0 0.0 0.0 0.0
0.0 0.0 0.0 0.0 0.0 0.0 0.0 0.0
0.0 0.0 0.0 0.0 0.0 0.0 0.0 0.0
0.0 0.0 0.0 0.0 0.0 0.0 0.0 0.0
0.0 0.0 0.0 0.0 0.0 0.0 0.0 0.0
0.0 0.0 0.0 0.0 0.0 0.0 0.0 0.0
0.0 0.0 0.0 0.0 0.0 0.0 0.0 0.0
0.0 0.0 0.0 0.0 0.0 0.0 0.0 0.0
0.0 0.0 0.0 0.0 0.0 0.0 0.0 0.0
0.0 0.0 0.0 0.0 0.0 0.0 0.0 0.0
0.0 0.0 0.0 0.0 0.0 0.0 0.0 0.0
0.0 0.0 0.0 0.0 0.0 0.0 0.0 0.0
0.0 0.0 0.0 0.0 0.0 0.0 0.0 0.0
0.0 0.0 0.0 0.0 0.0 0.0 0.0 0.0
0.0 0.0 0.0 0.0 0.0 0.0 0.0 0.0
0.0 0.0 0.0 0.0 0.0 0.0 0.0 0.0
0.0 0.0 0.0 0.0 0.0 0.0 0.0 0.0
0.0 0.0 0.0 0.0 0.0 0.0 0.0 0.0
0.0 0.0 0.0 0.0 0.0 0.0 0.0 0.0
0.0 0.0 0.0 0.0 0.0 0.0 0.0 0.0
0.0 0.0 0.0 0.0 0.0 0.0 0.0 0.0
0.0 0.0 0.0 0.0 0.0 0.0 0.0 0.0
0.0 0.0 0.0 0.0 0.0 0.0 0.0 0.0
0.0 0.0 0.0 0.0 0.0 0.0 0.0 0.0
0.0 0.0 0.0 0.0 0.0 0.0 0.0 0.0
0.0 0.0 0.0 0.0 0.0 0.0 0.0 0.0
0.0 0.0 0.0 0.0 0.0 0.0 0.0 0.0
0.0 0.0 0.0 0.0 0.0 0.0 0.0 0.0
0.0 0.0 0.0 0.0 0.0 0.0 0.0 0.0
0.0 0.0 0.0 0.0 0.0 0.0 0.0 0.0
0.0 0.0 0.0 0.0 0.0 0.0 0.0 0.0
00000000: 0000 0000 0000 0000 0000 0000 0000 0000
00000010: 0000 0000 0000 0000 0000 0000 0000 0000
00000020: 0000 0000 0000 0000 0000 0000 0000 0000
00000030: 0000 0000 0000 0000 0000 0000 0000 0000
00000040: 0000 0000 0000 0000 0000 0000 0000 0000
00000050: 0000 0000 0000 0000 0000 0000 0000 0000
00000060: 0000 0000 0000 0000 0000 0000 0000 0000
00000070: 0000 0000 0000 0000 0000 0000 0000 0000
00000080: 0000 0000 0000 0000 0000 0000 0000 0000
00000090: 0000 0000 0000 0000 0000 0000 0000 0000
000000a0: 0000 0000 0000 0000 0000 0000 0000 0000
000000b0: 0000 0000 0000 0000 0000 0000 0000 0000
000000c0: 0000 0000 0000 0000 0000 0000 0000 0000
000000d0: 0000 0000 0000 0000 0000 0000 0000 0000
000000e0: 0000 0000 0000 0000 0000 0000 0000 0000
000000f0: 0000 0000 0000 0000 0000 0000 0000 0000
00000100: 0000 0000 0000 0000 0000 0000 0000 0000
00000110: 0000 0000 0000 0000 0000 0000 0000 0000
00000120: 0000 0000 0000 0000 0000 0000 0000 0000
00000130: 0000 0000 0000 0000 0000 0000 0000 0000
00000140: 0000 0000 0000 0000 0000 0000 0000 0000
00000150: 0000 0000 0000 0000 0000 0000 0000 0000
00000160: 0000 0000 0000 0000 0000 0000 0000 0000
00000170: 0000 0000 0000 0000 0000 0000 0000 0000
00000180: 0000 0000 0000 0000 0000 0000 0000 0000
00000190: 0000 0000 0000 0000 0000 0000 0000 0000
000001a0: 0000 0000 0000 0000 0000 0000 0000 0000
000001b0: 0000 0000 0000 0000 0000 0000 0000 0000
000001c0: 0000 0000 0000 0000 0000 0000 0000 0000
000001d0: 0000 0000 0000 0000 0000 0000 0000 0000
000001e0: 0000 0000 0000 0000 0000 0000 0000 0000
000001f0: 0000 0000 0000 0000 0000 0000 0000 0000

model/dense/BiasAdd/ReadVariableOp/resource f2 [256]
-0.03458 0.01239 0.0051 0.0772 0.004883 -0.01487 -0.0466 -0.0343
-0.02298 -0.0794 -0.03427 -0.01756 0.05496 -0.0333 -0.00244 -0.05136
-0.01595 -0.0004272 0.06604 0.05182 0.0326 0.02275 0.0004165 0.04013
0.0405 0.01787 -0.04404 0.02364 0.01668 0.03036 -0.03442 0.03165
-0.02687 -0.02985 -0.0318 0.02675 -0.00498 -0.02295 -0.163 -0.01488
0.000438 0.003546 -0.09827 0.02432 -0.0442 0.0341 0.01726 -0.02666
0.09454 -0.01206 0.002739 0.1024 -0.03708 -0.01762 -0.01498 -0.01636
-0.02823 -0.03424 0.01619 0.01243 0.02881 0.007042 -0.0329 0.00785
0.00937 -0.04562 0.04916 0.03146 0.05988 0.02843 -0.00899 -0.02454
0.04175 0.00518 -0.0303 0.02435 -0.01558 -0.05496 0.0342 0.05505
-0.005344 0.00861 -0.02246 0.03522 -0.009865 -0.02548 -0.02248 -0.02318
0.01234 -0.012726 -0.04257 -0.03796 0.02171 0.01831 0.06647 -0.02933
-0.01512 -0.01055 -0.01915 0.05453 -0.04843 0.00459 -0.01628 -0.0729
0.00461 0.01755 0.002993 0.0238 -0.00854 -0.0268 0.02837 0.0241
0.03117 0.04303 0.05502 -0.004898 0.01651 0.01633 -0.01215 -0.03564
-0.0277 -0.0692 -0.0407 -0.0169 0.0369 0.01727 0.014915 -0.01162
0.03546 -0.003267 -0.006413 0.0225 -0.01854 -0.06934 0.03653 0.01221
-0.04886 0.0788 0.0416 0.06143 -0.03503 0.02867 -0.00774 -0.02678
-0.03061 0.0332 0.0652 0.005836 0.0769 0.014626 -0.02673 0.0262
-0.0529 -0.0963 -0.0658 -0.02289 -0.0227 -0.02039 0.002762 0.0531
-0.04922 -0.03796 -0.0599 -0.001237 -0.01029 -0.05298 0.03038 -0.003647
0.02489 0.02164 -0.0536 -0.0399 0.06 0.02342 0.01115 0.001155
0.01956 -8.4e-05 -0.0354 0.01543 0.03497 0.0313 0.04752 0.02751
0.03452 0.04858 0.0822 -0.0484 0.0894 -0.04602 0.03336 0.006832
-0.03986 0.0141 -0.01813 0.003119 -0.01848 0.02863 0.0148 -0.00833
0.03818 -0.042 -0.01581 -0.04077 -0.10864 -0.00841 0.04382 -0.042
-0.01108 0.00756 -0.002348 -0.001613 -0.003674 0.04056 -0.05347 0.006584
-0.01909 0.04208 0.011505 -0.00408 -0.007313 -0.03616 0.01344 -0.1466
0.02214 -0.03165 0.0442 0.0265 -0.0239 -0.002472 0.002914 0.01545
0.04727 -0.001752 -0.01825 0.02898 -0.0318 0.01126 -0.0369 -0.02692
-0.02452 0.03165 -0.00886 -0.03146 -0.04443 -0.0001602 0.02238 0.0138
0.03488 -0.01473 -0.0006447 -0.0348 0.05963 0.0413 0.02673 -0.02513
00000000: 6da8 5822 391d f12c 001d 9da3 f7a9 64a8
00000010: e2a5 15ad 63a8 7fa4 092b 43a8 ff98 93aa
00000020: 15a4 008f 3a2c a22a 2c28 d325 d30e 2329
00000030: 2f29 9324 a3a9 0d26 4524 c627 68a8 0d28
00000040: e1a6 a4a7 12a8 d926 199d e0a5 37b1 9ea3
00000050: 2d0f 431b 4aae 3a26 a8a9 5d28 6b24 d3a6
00000060: 0d2e 2da2 9c19 8e2e bfa8 83a4 aba3 30a4
00000070: 3aa7 62a8 2524 5d22 6027 361f 36a8 0520
00000080: cc20 d7a9 4b2a 0728 aa2b 4727 9aa0 48a6
00000090: 5829 4e1d c2a7 3c26 faa3 09ab 6128 0c2b
000000a0: 799d 6920 c0a5 8228 0da1 86a6 c1a5 efa5
000000b0: 5122 84a2 73a9 dca8 8f25 b024 412c 82a7
000000c0: bea3 67a1 e7a4 fb2a 33aa b31c 2ba4 aaac
000000d0: b81c 7e24 211a 1826 5fa0 dca6 4327 2b26
000000e0: fb27 8229 0b2b 049d 3a24 2e24 39a2 90a8
000000f0: 17a7 6eac 36a9 54a4 b928 6c24 a323 f3a1
00000100: 8a28 b19a 919e c325 bfa4 70ac ad28 4022
00000110: 41aa 0b2d 5329 dd2b 7ca8 5727 ed9f dba6
00000120: d6a7 4028 2c2c fa1d ec2c 7d23 d8a6 b526
00000130: c5aa 2aae 36ac dca5 d0a5 38a5 a819 cc2a
00000140: 4daa dca8 abab 1195 45a1 c8aa c727 789b
00000150: 5f26 8a25 dcaa 1ba9 ae2b ff25 b521 bb14
00000160: 0225 8185 88a8 e623 7a28 0228 152a 0b27
00000170: 6b28 382a 432d 32aa b92d e4a9 4528 ff1e
00000180: 1aa9 3823 a4a4 631a bba4 5427 9423 44a0
00000190: e328 60a9 0ca4 38a9 f4ae 4ea0 9c29 60a9
000001a0: aca1 be1f cf98 9b96 869b 3129 d8aa be1e
000001b0: e3a4 6329 e421 2e9c 7d9f a1a8 e222 b1b0
000001c0: ab25 0da8 a829 c926 1ea6 1099 f819 e923
000001d0: 0d2a 2d97 aca4 6b27 12a8 c421 b9a8 e4a6
000001e0: 47a6 0d28 89a0 07a8 b0a9 4089 bb25 1123
000001f0: 7728 8ba3 4891 74a8 a22b 4929 d826 6fa6

model/dense_1/BiasAdd/ReadVariableOp/resource f2 [31]
-0.526 -0.6753 0.938 -0.74 -0.01874 0.0672 -0.006912 0.8564
-0.785 -0.2925 -0.3103 -0.519 -0.7725 0.1997 -0.1489 1.032
0.53 0.3215 -0.313 -0.5127 0.435 0.376 -0.2262 0.4019
-0.1471 -0.1144 -0.1261 -0.0361 -0.8613 -0.3872 1.212
00000000: 35b8 67b9 813b ecb9 cca4 4d2c 149f da3a
00000010: 48ba aeb4 f7b4 27b8 2eba 6432 c4b0 213c
00000020: 3d38 2535 02b5 1ab8 f636 0436 3db3 6e36
00000030: b5b0 52af 09b0 9fa8 e4ba 32b6 d93c

model/dense/MatMul f2 [256, 32]
0.00802 0.01437 0.0971 -0.02126 0.0484 -0.01548 0.04315 0.05234
-0.10425 0.02599 -0.0979 0.01446 -0.1971 0.008095 -0.0822 0.02696
-0.06018 0.02542 0.02657 -0.007053 0.0895 0.000731 -0.009514 0.03964
-0.06244 -0.007504 0.0773 0.01286 0.04465 -0.0586 0.03314 -0.00579
0.01955 0.02864 -0.1008 -0.0338 0.01996 0.01736 -0.01645 -0.08295
0.04553 0.00852 0.03528 0.01354 0.3228 -0.05853 -0.00795 -0.00463
0.05536 -0.04218 -0.008286 0.01277 -0.0813 -0.0517 -0.04877 -0.05264
0.007797 -0.02502 -0.006317 -0.03027 0.004528 -0.02666 0.032 0.01397
0.04803 -0.06198 -0.000877 -0.03333 0.0343 -0.000343 0.002981 0.1272
0.00936 0.02296 0.03806 -0.00832 0.09265 0.01695 0.06976 -0.01547
-0.02087 -0.003944 0.00417 -0.0563 -0.01078 0.05084 -0.005642 -0.02379
0.02214 0.00945 0.02132 -0.03882 -0.1307 0.2115 -0.00441 -0.00941
0.02003 0.01316 0.07526 0.02582 -0.03214 0.09674 -0.04245 -0.01163
-0.01384 0.0201 -0.03934 -0.0292 0.01726 -0.03812 -0.1381 0.004005
-0.04034 -0.01599 -0.09344 0.03836 0.01936 0.1796 -0.005543 -0.006573
0.0886 -0.0767 -0.02748 -0.01405 -0.0088 -0.0769 0.1071 -0.0732
-0.0522 0.07654 -0.1515 0.0757 0.003267 -8.506e-05 -0.09576 0.08417
-0.00492 -0.02968 0.0754 -0.0902 0.0414 -0.03464 0.01819 0.04324
-0.0804 0.01074 -0.015015 -0.006763 0.0086 0.02881 -0.02054 0.01917
-0.01372 -0.05963 -0.01727 0.05276 0.017 0.00696 -0.01907 -0.32
0.04044 0.03625 0.01602 -0.001709 -0.006687 -0.04086 0.006104 0.01043
-0.01357 -0.05447 0.0659 0.08435 0.00821 0.02026 -0.04764 -0.03552
0.01086 -0.0375 0.04333 0.01823 -0.02188 -0.06555 -0.01193 -0.2428
-0.01253 -0.00966 -0.264 -0.05795 -0.00974 -0.03363 0.03078 -0.0762
-0.0418 0.1315 -0.086 0.03384 -0.01097 0.01327 0.06683 -0.08093
0.0487 -0.006832 0.02988 0.09863 0.0219 -0.10156 0.006138 0.02203
-0.04205 0.02548 0.1066 0.02158 0.02304 -0.0735 0.0643 0.0927
0.001298 -0.007633 -0.04425 0.02483 0.0958 -0.02257 -0.01912 -0.04697
-0.002193 -0.0548 0.05005 -0.001132 -0.03806 0.0273 0.01979 0.02621
0.00996 -0.2866 0.05197 -0.01175 0.002335 0.05222 0.11304 -0.01146
-0.00411 -0.06137 -0.10126 -0.0658 -0.0413 0.0768 0.0328 0.07385
-0.01461 -0.0675 -0.0728 -0.004055 0.02571 -0.02162 0.01988 -0.0398
00000000: 1b20 5c23 372e 71a5 322a eda3 8629 b32a
00000010: acae a726 44ae 6723 4fb2 2520 43ad e726
00000020: b4ab 8226 cd26 399f ba2d fd11 dfa0 1329
00000030: feab af9f f22c 9622 b729 80ab 3e28 ee9d
00000040: 0125 5527 74ae 54a8 1c25 7224 36a4 4fad
00000050: d429 5d20 8428 ef22 2a35 7eab 12a0 be9c
00000060: 162b 66a9 3ea0 8a22 34ad 9eaa 3eaa bdaa
00000070: fc1f 68a6 789e c0a7 a31c d3a6 1928 2723
00000080: 262a efab 2f93 44a8 6428 9f8d 1b1a 1230
00000090: cb20 e125 df28 43a0 ee2d 5724 772c eca3
000000a0: 58a5 0a9c 451c 35ab 85a1 822a c79d 17a6
000000b0: ab25 d720 7525 f8a8 2fb0 c532 849c d1a0
000000c0: 2125 bd22 d12c 9c26 1da8 312e 6fa9 f4a1
000000d0: 16a3 2525 09a9 7aa7 6b24 e1a8 6bb0 1a1c
000000e0: 2aa9 18a4 fbad e928 f524 bf31 ad9d bb9e
000000f0: ac2d e9ac 09a7 32a3 81a0 ecac db2e afac
00000100: aeaa e62c d9b0 d82c b11a 9385 21ae 632d
00000110: 0a9d 99a7 d32c c6ad 4d29 6fa8 a824 8929
00000120: 25ad 8021 b0a3 ed9e 6720 6027 42a5 e824
00000130: 06a3 a2ab 6ca4 c12a 5a24 211f e2a4 1fb5
00000140: 2d29 a428 1a24 0097 d99e 3ba9 401e 5721
00000150: f3a2 f9aa 382c 662d 3420 3025 19aa 8ca8
00000160: 8f21 cda8 8c29 ab24 9aa5 32ac 1ca2 c5b3
00000170: 6aa2 f2a0 39b4 6bab fda0 4ea8 e127 e0ac
00000180: 5aa9 3530 81ad 5528 9ea1 cb22 472c 2ead
00000190: 3c2a ff9e a627 502e 9b25 80ae 491e a425
000001a0: 62a9 8626 d32e 8625 e625 b4ac 1d2c ef2d
000001b0: 5115 d19f aaa9 5b26 222e c7a5 e5a4 03aa
000001c0: 7e98 04ab 682a a394 dfa8 fd26 1125 b626
000001d0: 1921 96b4 a72a 04a2 c818 af2a 3c2f dea1
000001e0: 359c dbab 7bae 36ac 49a9 ea2c 3328 ba2c
000001f0: 7ba3 52ac a9ac 279c 9526 89a5 1725 18a9

model/dense_1/MatMul f2 [31, 256]
-0.2233 0.284 0.3325 0.2157 0.3032 -0.4182 -0.2542 -0.3582
0.429 0.517 -0.2388 -0.34 0.112 0.388 -0.4763 -0.3284
0.3477 -0.3381 0.3303 0.2656 0.3767 -0.548 -0.2051 -0.4285
0.4421 -0.364 0.4832 0.4548 -0.3704 0.1636 -0.273 0.1837
-0.2598 0.301 0.5493 0.3726 -0.3958 0.4282 0.583 -0.438
0.04196 -0.346 -0.1263 0.2305 0.4958 -0.06445 -0.3687 -0.3667
0.2886 0.3755 -0.3496 0.2251 0.3245 0.3506 -0.3176 -0.273
-0.2396 0.3713 0.383 -0.3499 -0.3308 -0.4265 0.4631 0.1907
-0.4429 0.501 0.2101 -0.5312 -0.4192 0.356 -0.3503 -0.346
0.1785 0.1462 -0.1976 0.2795 0.3687 -0.1487 0.2207 0.2578
-0.427 0.3713 -0.3145 0.3416 0.4077 -0.3396 -0.4524 -0.4111
0.4146 -0.3574 -0.2378 -0.199 -0.5425 0.2744 0.0683 0.459
-0.4194 -0.436 0.3577 -0.569 0.2837 -0.5586 -0.2979 0.3887
0.0229 0.2976 0.324 0.3901 -0.3398 0.4668 -0.4092 -0.05298
-0.512 0.3555 0.247 -0.02129 0.11035 -0.543 0.3423 0.533
-0.4258 -0.3208 0.421 0.2183 0.1108 -0.3904 -0.279 0.4663
0.2803 0.3594 -0.2236 -0.0748 -0.2058 -0.12103 0.261 -0.4802
-0.2384 -0.1344 0.4556 -0.5405 -0.3374 -0.2925 0.3435 -0.3691
0.4902 -0.385 0.1802 0.3137 0.4688 0.4272 -0.354 -0.503
-0.06104 -0.3064 -0.259 0.5034 0.3694 0.358 0.3853 -0.1432
0.4636 -0.1744 0.3916 0.1979 -0.3508 -0.1946 -0.444 0.4492
-0.4219 -0.3647 -0.2303 -0.3403 0.265 -0.1436 -0.4175 0.384
0.2358 0.3691 0.0439 0.04688 -0.4104 0.3525 0.3398 -0.278
-0.2261 0.2386 -0.4167 0.436 -0.4976 -0.2769 -0.4348 0.516
0.407 0.3315 -0.4182 -0.4932 -0.4187 -0.4338 -0.4175 -0.4087
-0.3271 -0.2086 0.3303 0.4575 -0.1183 0.3503 -0.4302 0.3281
0.251 0.2573 0.4126 0.3333 -0.275 -0.4888 0.4646 0.367
0.5093 -0.45 0.4668 -0.3157 -0.1365 -0.346 0.2365 0.6357
0.322 0.1644 -0.542 -0.4348 0.4368 0.3428 -0.3447 -0.366
0.4087 0.3193 0.5566 0.3528 -0.3257 -0.2664 0.4497 -0.3667
-0.1337 -0.3801 0.4854 -0.3467 0.4043 0.02458 0.388 0.1735
0.2703 -0.5464 0.2705 0.4207 -0.3325 0.2544 -0.5186 -0.1945
00000000: 25b3 8b34 5235 e732 da34 b1b6 11b4 bbb5
00000010: dd36 2338 a4b3 71b5 2b2f 3536 9fb7 41b5
00000020: 9035 69b5 4935 4034 0736 62b8 90b2 dbb6
00000030: 1337 d3b5 bb37 4737 edb5 3c31 5eb4 e131
00000040: 28b4 d134 6538 f635 55b6 da36 aa38 02b7
00000050: 5f29 89b5 0bb0 6033 ef37 20ac e6b5 deb5
00000060: 9e34 0236 98b5 3433 3135 9c35 15b5 5eb4
00000070: abb3 f135 2136 99b5 4bb5 d3b6 6937 1a32
00000080: 16b7 0238 b932 40b8 b5b6 b235 9bb5 89b5
00000090: b631 ae30 53b2 7934 e635 c2b0 1033 2034
000000a0: d5b6 f135 08b5 7735 8636 6fb5 3db7 94b6
000000b0: a236 b8b5 9cb3 5eb2 57b8 6434 5f2c 5837
000000c0: b6b6 fab6 b935 8db8 8a34 78b8 c4b4 3836
000000d0: dd25 c334 2f35 3e36 70b5 7837 8cb6 c8aa
000000e0: 19b8 b035 e733 73a5 102f 58b8 7a35 4438
000000f0: d0b6 22b5 bc36 fc32 172f 3fb6 77b4 7637
00000100: 7c34 c035 28b3 caac 96b2 bfaf 2d34 afb7
00000110: a1b3 4db0 4a37 53b8 66b5 aeb4 7f35 e8b5
00000120: d837 29b6 c431 0535 8037 d636 aab5 06b8
00000130: d0ab e7b4 25b4 0738 e935 ba35 2a36 95b0
00000140: 6b37 95b1 4436 5532 9db5 3ab2 1bb7 3037
00000150: c0b6 d6b5 5fb3 72b5 3d34 98b0 aeb6 2536
00000160: 8c33 e835 9f29 002a 91b6 a435 7035 73b4
00000170: 3cb3 a333 abb6 fa36 f6b7 6eb4 f5b6 2138
00000180: 8336 4e35 b1b6 e4b7 b3b6 f1b6 aeb6 8ab6
00000190: 3cb5 adb2 4935 5237 92af 9b35 e2b6 4035
000001a0: 0434 1e34 9a36 5535 66b4 d2b7 6f37 df35
000001b0: 1338 33b7 7837 0db5 5eb0 89b5 9133 1639
000001c0: 2735 4331 56b8 f5b6 fd36 7c35 84b5 dbb5
000001d0: 8a36 1c35 7438 a535 36b5 43b4 3237 deb5
000001e0: 47b0 15b6 c437 8cb5 7836 4b26 3536 8d31
000001f0: 5334 5fb8 5434 bb36 52b5 1234 26b8 39b2

model/time_distributed_10/batch_normalization_2/FusedBatchNormV3 f2 [8]
-0.01453 -0.01348 0.00645 -0.00967 0.00761 -0.02946 -0.0179 -0.00664
00000000: 70a3 e7a2 9b1e f3a0 cb1f 8ba7 95a4 cd9e

model/time_distributed_10/batch_normalization_2/FusedBatchNormV31 f2 [8]
0.2957 0.0868 0.01466 0.06555 0.2301 0.3445 0.4321 -0.04407
00000000: bb34 8e2d 8223 322c 5d33 8335 ea36 a4a9

model/time_distributed_13/batch_normalization_3/FusedBatchNormV3 f2 [16]
-0.0639 -0.1803 0.001978 -0.1122 -0.07837 -0.0007443 -0.04834 -0.1562
-0.0319 0.000684 -0.04 -0.02005 -0.0942 0.000549 -0.05817 0.03372
00000000: 17ac c5b1 0d18 2eaf 04ad 1992 30aa 00b1
00000010: 15a8 9a11 1fa9 22a5 07ae 7f10 72ab 5128

model/time_distributed_13/batch_normalization_3/FusedBatchNormV31 f2 [16]
2.078 3.684 -0.02072 1.816 1.378 -0.273 2.992 1.799
4.18 -0.03522 2.518 2.72 3.172 -0.2698 3.55 4.03
00000000: 2840 5e43 4ea5 443f 833d 5eb4 fc41 323f
00000010: 2e44 82a8 0941 7141 5842 51b4 1a43 0844

model/time_distributed_2/batch_normalization/FusedBatchNormV3 f2 [8]
0.0057 0.002632 -0.00187 -0.01907 -0.07196 -0.000428 -0.1225 -0.0001345
00000000: d61d 6419 a997 e2a4 9bac 038f d7af 6888

model/time_distributed_2/batch_normalization/FusedBatchNormV31 f2 [8]
-0.02507 -0.001873 -0.011894 0.08154 0.1788 0.05362 0.19 0.001561
00000000: 6ba6 ac97 17a2 382d b931 dd2a 1432 6516

model/time_distributed_5/batch_normalization_1/FusedBatchNormV3 f2 [16]
-0.01206 -0.08875 -0.2798 -0.2976 -0.7637 -0.3257 -0.1831 -0.2969
-0.3137 -0.1133 -0.5347 -0.472 0.03134 0.02759 -0.719 -0.2319
00000000: 2da2 aead 7ab4 c3b4 1cba 36b5 dcb1 c0b4
00000010: 05b5 40af 47b8 8db7 0328 1027 c1b9 6cb3

model/time_distributed_5/batch_normalization_1/FusedBatchNormV31 f2 [16]
3.875 3.236 3.389 3.162 3.184 3.658 3.473 4.36
3.398 2.936 4.055 3.965 4.98 5.812 3.393 4.934
00000000: c043 7942 c742 5342 5e42 5143 f242 5c44
00000010: cc42 df41 0e44 ee43 fb44 d045 c942 ef44

model/lstm/while/lstm_cell/MatMul_4 f2 [32, 32]
0.04132 -0.0935 -0.4077 -0.5522 0.1863 0.716 0.2048 0.0493
-0.4656 -0.1377 -0.7065 0.478 -0.4202 -0.07983 0.2472 -0.284
-0.10187 -0.007072 0.258 -0.1727 -0.374 -0.5396 -0.435 0.1813
0.1458 -0.03946 -0.1846 -0.73 -0.0321 0.1964 0.255 0.4565
-0.407 -0.262 0.0692 -0.074 0.0405 0.1707 -0.2893 -0.3882
-0.11176 -0.2434 -0.5156 0.07294 -0.44 0.2534 0.4731 -0.266
0.2988 -0.0987 0.502 -0.0913 0.0503 0.2825 -0.1371 0.2324
0.1122 -0.03665 -0.1748 0.1613 0.32 -0.1561 0.3394 0.1866
-0.6187 0.836 -0.04242 -0.9272 -0.1444 0.1624 0.3037 -0.1339
0.4033 0.3457 -0.09766 0.4788 0.2079 0.1378 -0.724 -0.9497
0.06152 0.2039 0.1947 0.05103 -0.05875 0.3635 0.3425 -0.2089
0.2676 0.01138 0.02617 -0.1417 -0.2048 -0.4067 -0.4126 0.1365
-0.00212 0.02695 -0.037 -0.002697 -0.01563 0.0376 -0.07715 0.00719
-0.0605 -0.01552 0.01238 -0.05875 0.03053 -0.00931 -0.00866 0.04724
0.03403 -0.01768 -0.1011 -0.1106 0.03087 0.00768 0.03455 0.03864
0.0217 0.04694 0.03323 0.015236 0.05246 0.0168 -0.05206 0.000936
-0.2285 0.4915 -0.2252 -0.5244 0.2188 -0.517 0.08575 -1.649
-0.692 -0.1254 0.2129 0.1582 -0.2532 0.9297 0.2327 0.2834
-0.2484 -0.656 0.4482 -0.133 0.010155 -0.275 0.156 0.2168
0.3943 -0.4539 -0.00978 -0.646 -0.2258 0.5283 -0.377 0.10095
-0.2036 -0.1621 0.2037 -0.7656 1.14 0.01327 -0.2708 -0.378
-0.4614 -0.54 1.02 1.637 0.2952 0.3445 -1.168 -0.1599
0.734 -0.8667 -0.6064 0.1549 0.03186 -0.474 0.2593 0.4353
-0.04434 -0.6094 -1.293 0.6294 0.434 0.573 0.41 0.1056
-0.1306 0.1584 -0.2065 -0.6123 0.3926 0.9897 -0.1499 0.632
-0.3923 -0.1562 -0.387 0.4355 -0.0311 0.364 -0.0625 0.08606
0.3555 -0.1383 -0.0945 -0.201 0.1989 0.2798 -0.2242 -0.1382
0.655 -0.2664 -0.7295 -0.4363 0.929 -0.4875 -0.2423 0.2324
-0.2354 0.381 0.4338 -0.44 0.7124 -0.8813 0.7065 -0.71
0.2766 0.438 -0.714 0.4146 0.05466 -0.1038 0.617 -0.5586
1.068 -0.5093 0.0335 -0.911 -0.4668 -0.7227 0.647 0.1193
0.1326 -0.418 0.167 -0.5566 -0.2817 -0.794 -0.254 0.7393
00000000: 4a29 fcad 86b6 6bb8 f631 ba39 8e32 4f2a
00000010: 73b7 68b0 a7b9 a637 b9b6 1cad e933 8bb4
00000020: 85ae 3e9f 2134 87b1 fcb5 51b8 f6b6 cd31
00000030: aa30 0da9 e8b1 d7b9 1ca8 4932 1434 4e37
00000040: 83b6 31b4 6e2c bcac 2f29 7631 a1b4 36b6
00000050: 27af cab3 20b8 ab2c 0ab7 0e34 9237 42b4
00000060: c834 51ae 0438 d8ad 702a 8534 63b0 7033
00000070: 2e2f b1a8 98b1 2931 1f35 ffb0 6e35 f931
00000080: f3b8 b03a 6ea9 6bbb 9fb0 3231 dc34 49b0
00000090: 7436 8835 40ae a937 a732 6930 cbb9 99bb
000000a0: e02b 8632 3b32 882a 85ab d135 7b35 afb2
000000b0: 4834 d421 b326 89b0 8eb2 82b6 9ab6 5e30
000000c0: 5798 e626 bca8 8699 00a4 d028 f0ac 5d1f
000000d0: beab f2a3 5722 85ab d127 c4a0 6fa0 0c2a
000000e0: 5b28 87a4 78ae 14af e727 dd1f 6c28 f228
000000f0: 8e25 022a 4128 cd23 b72a 4d24 aaaa ab13
00000100: 50b3 dd37 35b3 32b8 0033 23b8 7d2d 99be
00000110: 89b9 03b0 d032 1031 0db4 703b 7233 8934
00000120: f3b3 3fb9 2c37 42b0 3321 66b4 fe30 f032
00000130: 4f36 43b7 02a1 2bb9 3ab3 3a38 08b6 762e
00000140: 84b2 30b1 8532 20ba 8f3c cb22 55b4 0cb6
00000150: 62b7 52b8 143c 8c3e b934 8335 acbc 1eb1
00000160: df39 efba dab8 f530 1428 96b7 2634 f736
00000170: ada9 e0b8 2cbd 0939 f236 9638 8f36 c22e
00000180: 2eb0 1231 9cb2 e6b8 4836 eb3b ccb0 0e39
00000190: 47b6 00b1 31b6 f836 f6a7 d335 00ac 822d
000001a0: b035 6db0 0cae 6fb2 5d32 7a34 2db3 6cb0
000001b0: 3d39 43b4 d6b9 fbb6 6f3b cdb7 c1b3 7033
000001c0: 88b3 1936 f136 0ab7 b339 0dbb a739 aeb9
000001d0: 6d34 0237 b6b9 a236 ff2a a5ae f038 78b8
000001e0: 463c 13b8 4a28 4abb 78b7 c8b9 2d39 a32f
000001f0: 3e30 b0b6 5831 74b8 82b4 5aba 10b4 ea39

model/lstm/while/lstm_cell/MatMul_5 f2 [32, 32]
0.09796 0.1133 -0.01123 0.3115 -0.07434 -0.007008 -0.391 0.4966
0.2384 0.206 0.07214 0.3667 0.7397 -0.1364 0.4402 0.6973
-0.281 0.05634 0.09265 0.2285 0.2303 0.487 0.068 -0.003633
0.4275 -0.2585 -0.3845 0.3896 0.2483 -0.2905 0.553 -0.4373
-0.1366 0.2223 0.257 -0.0676 0.01336 -0.4492 0.1339 0.1295
-0.5337 0.2109 0.2834 -0.2834 -0.3562 -0.3923 0.3667 -0.204
0.1538 -0.3 0.0781 0.1464 0.225 0.03162 -0.358 0.545
-0.1627 -0.2852 0.1992 0.1799 -0.2134 0.4211 0.2434 -0.1259
0.37 0.803 0.206 0.06256 0.6235 -0.0839 -0.0377 0.2505
0.00936 -0.1449 -0.1443 -0.08057 -0.4495 0.1675 -0.1252 0.12463
0.1764 0.1403 -0.2607 -0.6787 -0.2125 0.0949 -0.2568 -0.4343
0.2041 0.4324 0.586 -0.069 -0.0494 -0.3718 -0.11224 -0.2042
0.3633 0.10095 0.0573 0.1509 -0.1765 0.02266 -0.2123 0.0435
0.1135 0.2294 0.4187 -0.002836 -0.004036 -0.0623 0.04745 0.0987
0.02017 0.1937 -0.337 -0.0812 0.1504 0.2305 -0.2191 0.04895
0.0742 0.126 0.1411 0.11035 -0.1486 0.1517 -0.11523 -0.09534
-0.2267 0.8374 -0.05228 0.12476 -0.0484 0.3025 -0.04736 -0.0392
-0.2732 0.3328 -0.6216 0.03802 0.7886 0.4133 -0.399 -0.4683
-0.6255 0.2751 0.593 0.145 0.2034 0.2778 -0.4255 0.2578
0.1418 0.4224 0.6226 -0.05713 -0.2927 0.4414 -0.2932 0.0327
0.05826 -0.1754 -0.2308 -0.1412 -0.10345 -0.2084 -0.5283 0.01471
-0.639 0.247 0.5596 -0.0718 0.2737 0.1813 0.001464 0.03583
0.745 -0.5356 0.3318 -0.2155 0.1321 -0.9185 0.05945 0.861
0.6084 -0.00114 -0.841 0.1266 -0.1034 -0.4167 0.5073 0.0736
0.05023 0.1399 -0.0735 0.3328 0.08264 -0.335 0.3445 0.2773
5.066e-05 0.1421 -0.04395 -0.4458 0.06976 0.3516 0.1208 0.3132
0.02847 0.26 0.06305 0.2036 0.121 0.2429 0.05905 0.0713
0.0921 0.3687 0.1224 0.06207 0.1368 -0.1263 -0.273 -0.01415
-0.1156 -0.4746 0.0656 0.1738 0.3132 -0.7036 -0.02782 0.254
-0.4026 0.5786 0.608 0.4604 -0.1298 0.08026 1.033 0.0659
-0.559 0.2537 -0.09216 0.3992 0.505 -0.0665 0.05365 -1.049
0.2317 0.1841 0.3809 -0.03394 -0.2472 -0.7646 -0.027 -0.9814
00000000: 452e 402f c0a1 fc34 c2ac 2d9f 42b6 f237
00000010: a133 9832 9e2c de35 eb39 5db0 0b37 9439
00000020: 7fb4 362b ee2d 5033 5f33 cb37 5a2c 719b
00000030: d736 23b4 27b6 3c36 f233 a6b4 6d38 ffb6
00000040: 5fb0 1d33 1d34 54ac d722 30b7 4930 2530
00000050: 45b8 c032 8934 89b4 b3b5 47b6 de35 87b2
00000060: ec30 cdb4 002d af30 3333 0c28 bab5 5c38
00000070: 35b1 90b4 6032 c231 d4b2 bd36 ca33 07b0
00000080: ec35 6d3a 9832 012c fd38 5fad d3a8 0234
00000090: cb20 a3b0 9eb0 28ad 31b7 5c31 02b0 fa2f
000000a0: a531 7d30 2cb4 6eb9 cdb2 132e 1cb4 f3b6
000000b0: 8832 eb36 b038 6aac 53aa f3b5 2faf 89b2
000000c0: d035 762e 562b d430 a6b1 cd25 cbb2 9129
000000d0: 442f 5733 b336 cf99 229c f9ab 132a 512e
000000e0: 2a25 3332 64b5 32ad d030 6033 03b3 442a
000000f0: c02c 0830 8430 102f c1b0 db30 60af 1aae
00000100: 41b3 b33a b1aa fc2f 32aa d734 10aa 05a9
00000110: 5fb4 5335 f9b8 de28 4f3a 9d36 62b6 7eb7
00000120: 01b9 6734 be38 a430 8232 7234 cfb6 2034
00000130: 8a30 c236 fb38 50ab afb4 1037 b1b4 3028
00000140: 752b 9db1 63b3 85b0 9fae abb2 3ab8 8823
00000150: 1db9 e733 7a38 98ac 6134 cd31 ff15 9628
00000160: f639 49b8 4f35 e5b2 3a30 59bb 9c2b e33a
00000170: de38 ab94 baba 0d30 9eae abb6 0f38 b62c
00000180: 6e2a 7a30 b4ac 5335 4a2d 5cb5 8335 7034
00000190: 5203 8c30 a0a9 22b7 772c a035 bb2f 0335
000001a0: 4a27 2934 092c 8432 be2f c633 8f2b 902c
000001b0: e52d e635 d52f f22b 6130 0bb0 5eb4 3fa3
000001c0: 66af 98b7 332c 9031 0335 a1b9 1fa7 1034
000001d0: 71b6 a138 dd38 5e37 27b0 232d 223c 382c
000001e0: 79b8 0f34 e6ad 6336 0a38 42ac de2a 32bc
000001f0: 6a33 e431 1836 58a8 e9b3 1eba e9a6 dabb

model/lstm/while/lstm_cell/MatMul_6 f2 [32, 32]
0.04486 0.3142 -0.2379 0.275 0.0359 -0.1267 -0.0816 -0.4028
0.542 -0.3706 0.2169 -0.03265 0.3364 -0.1155 -0.2942 0.09503
0.2646 0.553 0.2913 0.2379 0.648 0.415 0.02965 -0.3113
0.5986 -0.07635 -0.1471 0.2969 0.1272 0.278 -0.0971 -0.002573
-0.01072 0.1349 0.1711 -0.4229 -0.1627 -0.4893 0.4478 0.1428
-0.203 0.53 0.376 -0.2832 -0.2517 0.065 0.2595 -0.2192
0.3477 -0.2786 -0.181 -0.4062 0.2357 0.07666 -0.2224 -0.1672
0.1349 -0.363 0.04004 -0.1515 -0.851 0.005035 -0.1589 0.1577
0.10876 0.1012 -0.02168 0.02528 0.1573 0.1388 -0.0661 -0.4358
-0.1221 0.502 -0.07336 0.2448 0.03302 0.3513 0.0942 1.013
-0.1616 0.1393 -0.1167 -0.5093 -0.3635 -0.05246 -0.3027 -0.06647
0.1428 0.6357 0.7124 0.1594 -0.011314 -0.2969 0.03394 0.2122
0.0907 0.1771 0.09515 0.04608 -0.2139 0.0788 -0.4326 0.082
-0.04147 0.09705 0.3892 0.1558 0.08484 -0.0098 -0.02321 0.1453
-0.07825 -0.01319 -0.3542 -0.2654 0.00988 0.1765 -0.2935 0.011116
0.1985 0.0804 0.405 0.0659 -0.0215 0.2651 0.06976 -0.07007
0.05972 -0.2378 -0.4893 -0.2664 0.2191 0.162 -0.2698 -0.6377
0.2155 -0.9023 0.7905 0.0695 0.01199 -0.37 -0.1298 0.4587
0.002855 -0.366 -0.4067 -0.1812 0.1015 -0.1935 0.2146 0.1019
-0.069 0.1747 -0.02376 0.3308 0.1432 0.08075 0.3386 0.1469
-0.05692 0.0255 -0.1915 0.05786 0.0773 -0.05786 0.00904 -0.132
0.3235 0.184 -0.1447 0.5596 0.1891 -0.06256 0.3022 -0.1873
-0.184 -0.127 0.467 0.0326 0.1126 -0.1996 -0.5215 -0.31
0.321 -0.9307 0.02554 -0.0536 0.2783 0.02744 -0.395 -0.02795
0.0647 -0.09393 -0.1627 -0.04633 -0.53 0.303 0.1626 0.1317
-0.0967 -0.12463 -0.1647 -0.2297 0.11505 0.06076 0.1953 -0.1824
-0.02046 0.3843 0.05157 0.0433 0.03412 -0.2974 0.15 0.0599
-0.2844 0.3284 -0.1373 -0.1603 -0.1035 0.2175 -0.496 -0.02505
0.3086 1.047 0.0666 -0.2515 -0.1569 0.1381 -0.1084 -0.785
-0.2145 -0.2603 0.2456 0.09503 0.04913 0.10913 -0.1571 -0.07056
0.033 -0.3428 -0.4043 -0.2622 0.2034 0.3816 0.2094 -0.08124
-0.3174 0.1691 0.9907 0.1242 -0.12213 -0.1271 -0.3555 -0.303
00000000: be29 0735 9db3 6634 9828 0eb0 39ad 72b6
00000010: 5638 eeb5 f132 2ea8 6235 64af b5b4 152e
00000020: 3c34 6d38 a934 9d33 2f39 a436 9727 fbb4
00000030: ca38 e3ac b5b0 c034 1230 7334 37ae 4599
00000040: 7da1 5130 7a31 c4b6 35b1 d4b7 2a37 9230
00000050: 7fb2 3d38 0436 88b4 07b4 292c 2734 04b3
00000060: 9035 75b4 cbb1 80b6 8b33 e82c 1eb3 5ab1
00000070: 5130 cfb5 2029 d9b0 cfba 281d 16b1 0c31
00000080: f62e 7a2e 8da5 7926 0931 7130 3bac f9b6
00000090: d0af 0438 b2ac d533 3a28 9f35 072e 0d3c
000000a0: 2cb1 7530 78af 13b8 d1b5 b7aa d8b4 41ac
000000b0: 9230 1639 b339 1a31 cba1 c0b4 5828 ca32
000000c0: ce2d ab31 172e e629 d8b2 0b2d ecb6 3f2d
000000d0: 4fa9 362e 3a36 fc30 6e2d 05a1 f1a5 a630
000000e0: 02ad c1a2 abb5 3fb4 0f21 a631 b2b4 b121
000000f0: 5a32 252d 7b36 382c 81a5 3e34 772c 7cac
00000100: a52b 9cb3 d4b7 43b4 0333 2f31 51b4 1ab9
00000110: e532 38bb 533a 732c 2422 ecb5 27b0 5737
00000120: d919 dbb5 82b6 ccb1 7f2e 31b2 de32 862e
00000130: 6aac 9731 15a6 4b35 9530 2b2d 6b35 b330
00000140: 49ab 8726 21b2 682b f22c 68ab a120 39b0
00000150: 2d35 e331 a1b0 7a38 0d32 01ac d634 feb1
00000160: e3b1 10b0 7937 2c28 352f 63b2 2cb8 f6b4
00000170: 2335 72bb 8a26 dcaa 7434 0627 52b6 28a7
00000180: 242c 03ae 35b1 eea9 3db8 d934 3431 3730
00000190: 30ae faaf 45b1 5ab3 5d2f c72b 4032 d6b1
000001a0: 3da5 2636 9a2a 8b29 5e28 c2b4 cd30 ab2b
000001b0: 8db4 4135 65b0 21b1 a0ae f632 f0b7 6aa6
000001c0: f034 303c 432c 06b4 05b1 6b30 f0ae 48ba
000001d0: ddb2 2ab4 dc33 152e 4a2a fc2e 07b1 84ac
000001e0: 3928 7cb5 78b6 32b4 8232 1b36 b332 33ad
000001f0: 14b5 6931 ed3b f32f d1af 11b0 b0b5 d9b4

model/lstm/while/lstm_cell/MatMul_7 f2 [32, 32]
0.585 0.609 0.585 -0.647 -0.11835 -0.1548 -0.0877 0.1279
-0.265 -0.05243 0.0776 -0.4238 0.3315 -0.05582 0.0916 0.3787
-0.2476 0.02075 0.038 -0.03387 0.03476 -0.10565 -1.13 0.2966
0.4163 0.1631 0.0733 -0.1761 -0.1009 0.672 0.629 -0.2471
-0.1364 0.5156 -0.1611 -0.5024 -0.335 0.1365 -0.2085 -0.2717
-0.1876 -0.401 -0.6797 -0.03113 -0.7744 -0.2244 -0.5957 -0.2205
0.09546 -0.2197 0.5815 -0.2002 0.3762 -0.0976 -0.731 0.2212
-0.304 0.3384 0.581 -0.1074 -0.10944 0.11096 -0.3325 -0.01573
1.117 -0.278 1.072 -0.6 1.529 -0.2046 -0.3804 -0.592
0.4646 0.881 -0.4368 1.292 0.2612 0.6255 -0.10474 0.3306
0.2161 0.731 -0.4172 0.2578 0.1113 0.924 0.6133 -0.3557
0.10077 -0.11835 -0.997 0.7754 0.4333 -0.629 -0.4792 0.1383
-0.7427 -0.4556 0.4448 1.633 0.0993 0.9595 1.258 -1.162
-0.2401 0.6304 -0.8584 -0.123 -0.8794 1.521 -0.2854 -0.06097
0.804 0.5576 0.7197 -0.083 -0.677 -0.918 0.3105 0.2047
0.3677 -0.1411 -1.453 -0.3572 0.1326 0.4465 0.1224 1.045
-0.629 0.5127 0.311 0.257 -0.667 -0.9414 0.11743 -0.4197
-0.11414 0.545 -0.818 -0.5215 1.035 0.4607 -0.797 1.758
0.7256 -0.4167 -0.1339 -0.8823 -0.4846 -0.2028 0.5586 0.07294
0.511 -0.4148 -0.2688 -0.2223 -0.2842 0.11096 -0.3613 0.9634
-1.071 0.4395 0.371 -0.0783 -0.4387 -1.229 0.3 -0.32
0.3564 0.21 -0.4028 0.02861 0.3066 -0.3533 0.228 0.6484
0.5024 -1.268 -0.07837 -0.199 -0.3037 -0.4812 0.2625 0.1349
0.5107 -0.337 -0.2615 0.04987 -0.6484 -0.1913 -0.2325 0.601
0.081 -0.1454 -0.06235 0.5537 -0.01494 -0.0762 0.11285 0.487
-0.321 0.1581 -0.06247 -0.4517 0.206 0.08 0.304 0.4695
-0.1667 0.2673 -0.1991 0.2844 0.2291 0.01381 -0.6694 0.2075
0.01854 0.2856 -0.00345 0.11285 0.01996 0.1824 -0.1232 0.0364
-0.2769 -0.8623 -0.882 -0.5176 0.04663 0.09155 -0.2573 0.9795
-0.376 -0.0705 0.6113 -0.05206 -0.1501 0.1323 0.552 -0.6074
-0.332 -0.1252 0.4656 0.4011 -0.1558 -0.1263 0.551 -0.7954
0.209 0.8423 0.535 -0.1333 0.1414 -1.261 -0.1649 -0.4224
00000000: ae38 df38 ae38 2db9 93af f4b0 9dad 1830
00000010: 3db4 b6aa f72c c8b6 4e35 25ab dd2d 0f36
00000020: ecb3 5025 dd28 56a8 7328 c3ae 85bc bf34
00000030: a936 3831 b12c a3b1 75ae 6039 0839 e8b3
00000040: 5db0 2038 28b1 05b8 5cb5 5e30 acb2 59b4
00000050: 01b2 6ab6 70b9 f8a7 32ba 2eb3 c4b8 0eb3
00000060: 1c2e 08b3 a738 68b2 0536 3fae d9b9 1433
00000070: ddb4 6a35 a638 e0ae 01af 1a2f 52b5 07a4
00000080: 783c 73b4 4a3c cdb8 1e3e 8cb2 16b6 bcb8
00000090: 6f37 0c3b fdb6 2b3d 2e34 0139 b4ae 4a35
000000a0: ea32 d939 adb6 2034 202f 643b e838 b1b5
000000b0: 732e 93af fabb 343a ef36 08b9 abb7 6d30
000000c0: f1b9 4ab7 1e37 883e 5b2e ad3b 083d a6bc
000000d0: afb3 0b39 deba dfaf 09bb 163e 91b4 ceab
000000e0: 6f3a 7638 c239 50ad 6ab9 58bb f834 8d32
000000f0: e235 84b0 d0bd b7b5 3e30 2537 d52f 2e3c
00000100: 08b9 1a38 fa34 1d34 56b9 88bb 842f b7b6
00000110: 4eaf 5c38 8bba 2cb8 243c 5f37 60ba 083f
00000120: ce39 abb6 49b0 0fbb c1b7 7db2 7838 ab2c
00000130: 1738 a3b6 4db4 1db3 8cb4 1a2f c8b5 b53b
00000140: 49bc 0837 f035 03ad 05b7 eabc cd34 1fb5
00000150: b435 b832 72b6 5327 e834 a7b5 4c33 3039
00000160: 0538 12bd 04ad 5eb2 dcb4 b3b7 3334 5130
00000170: 1638 64b5 2fb4 622a 30b9 1fb2 71b3 cf38
00000180: 2f2d a7b0 fbab 6e38 a6a3 e0ac 392f cb37
00000190: 23b5 0f31 ffab 3ab7 9832 1f2d dd34 8337
000001a0: 56b1 4734 5fb2 8d34 5533 1223 5bb9 a432
000001b0: bf24 9234 119b 392f 1c25 d631 e3af a928
000001c0: 6eb4 e6ba 0ebb 24b8 f829 dc2d 1eb4 d63b
000001d0: 04b6 83ac e438 aaaa ceb0 3c30 6a38 dcb8
000001e0: 50b5 02b0 7337 6b36 fcb0 0bb0 6838 5dba
000001f0: b032 bd3a 4838 44b0 8630 0bbd 47b1 c2b6

model/lstm/while/lstm_cell/split_1 f2 [32]
-0.4937 -0.4507 -0.3452 0.03375 -0.4846 -0.5293 -0.634 -0.8286
-0.5117 -0.6123 -0.5874 -0.248 -0.03412 -0.6113 -0.7163 -0.6484
-0.3696 -0.4756 -0.1146 -0.2542 -0.4436 -0.3271 -0.4463 -0.6987
-0.4512 -0.4534 -0.495 1.767 -0.3123 -0.2404 -0.549 -0.2715
00000000: e6b7 36b7 86b5 5228 c1b7 3cb8 12b9 a1ba
00000010: 18b8 e6b8 b3b8 f0b3 5ea8 e4b8 bbb9 30b9
00000020: eab5 9cb7 56af 11b4 19b7 3cb5 24b7 97b9
00000030: 38b7 41b7 ecb7 113f ffb4 b1b3 64b8 58b4

model/lstm/while/lstm_cell/split_11 f2 [32]
1.25 1.052 1.071 1.823 1.051 0.8184 1.131 1.278
1.143 0.9224 1.141 1.675 1.334 0.8574 0.8516 1.263
1.123 1.13 1.921 0.915 1.438 1.143 1.309 0.9824
0.931 1.148 0.929 2.28 1.214 0.9805 0.8813 0.919
00000000: 003d 353c 493c 4b3f 343c 8c3a 863c 1d3d
00000010: 923c 613b 903c b33e 563d dc3a d03a 0d3d
00000020: 7e3c 853c af3f 523b c13d 923c 3c3d dc3b
00000030: 733b 983c 6f3b 8f40 db3c d83b 0d3b 5a3b

model/lstm/while/lstm_cell/split_12 f2 [32]
0.2803 -0.1404 0.1196 0.2283 -0.03558 -0.1165 -0.2102 0.2092
0.1705 -0.003399 0.136 -0.002989 0.338 -0.1433 -0.0667 0.2283
-0.2874 0.1527 0.1306 0.10547 0.2944 0.3394 -0.1381 -0.02483
-0.02774 -0.02295 0.0936 0.547 -0.1219 0.01654 -0.1736 -0.2286
00000000: 7c34 7eb0 a82f 4e33 8ea8 75af bab2 b232
00000010: 7531 f69a 5a30 1f9a 6835 96b0 45ac 4e33
00000020: 99b4 e330 2e30 c02e b634 6e35 6bb0 5ba6
00000030: 1aa7 e0a5 fe2d 6038 cdaf 3c24 8eb1 51b3

model/lstm/while/lstm_cell/split_13 f2 [32]
0.004658 -0.248 -0.1708 -0.4382 -0.2095 -0.254 0.3628 -0.0553
-0.02406 0.01775 0.10046 -0.1794 -0.4656 -0.2473 -0.7188 0.2222
-0.0913 -0.0909 -0.371 -0.07623 -0.1963 0.01278 -0.08966 -0.0668
-0.3167 -0.04117 0.07605 -0.3662 -0.0646 -0.3987 -0.513 -0.0692
00000000: c51c f0b3 77b1 03b7 b4b2 10b4 ce35 14ab
00000010: 29a6 8b24 6e2e beb1 73b7 eab3 c0b9 1c33
00000020: d8ad d1ad f0b5 e1ac 48b2 8b22 bdad 46ac
00000030: 11b5 45a9 de2c dcb5 22ac 61b6 1bb8 6eac

model/lstm/while/lstm_cell/MatMul f2 [32, 1152]
-0.04803 0.0423 -0.00834 -0.04645 -0.0718 0.01141 0.01634 -0.0298
0.005157 -0.07526 0.1526 0.00404 -0.00481 0.0595 -0.141 0.04428
-0.2207 -0.3108 -0.06635 0.0484 0.0812 -0.0695 0.1522 -0.1197
-0.0228 -0.02776 -0.0293 -0.1185 -0.0092 0.0233 0.0815 0.1774
-0.1401 -0.1284 0.04663 -0.2384 0.01936 -0.1628 0.006756 0.004566
0.1348 0.009186 0.02463 0.04288 -0.06232 -0.0424 -0.03238 -0.0994
-0.1572 -0.1561 0.1166 -0.09326 0.02432 -0.01572 -0.007965 -0.02698
-0.1837 -0.0435 -0.08234 0.0408 -0.1124 -0.0626 -0.06573 -0.03348
-0.07837 -0.06235 0.012856 -0.1191 -0.0464 -0.2576 0.04797 0.09344
-0.0302 -0.0751 -0.2472 0.04013 -0.1621 0.0124 -0.1906 -0.2217
0.07733 -0.0934 -0.02098 -0.1309 0.05765 -0.08795 -0.00392 -0.0176
-0.04382 -0.1244 -0.1957 0.07916 -0.07605 -0.1219 0.00636 0.1158
0.08514 -0.05902 -0.0451 -0.012215 0.0714 -0.007652 -0.10364 -0.165
0.0763 0.04083 -0.09955 0.02185 0.03433 0.178 -0.001558 -0.0472
-0.06113 -0.01329 0.09344 -0.0805 0.00754 -0.04785 0.1159 0.08923
0.02711 0.00686 -0.05414 0.0354 0.05115 0.1356 -0.02077 0.172
0.03964 0.132 0.09 -0.11926 -0.1216 0.0442 -0.1389 0.01991
0.1063 -0.04492 -0.002937 -0.05328 0.04153 -0.05115 0.06122 0.06964
0.1025 -0.05902 -0.03348 -0.006855 -0.0333 0.1677 -0.1676 -0.1436
-0.1439 -0.06573 0.1403 -0.1404 -0.02698 -0.0271 0.0418 -0.03064
-3.904e-05 0.006275 -0.0014715 0.1818 0.0002644 -0.1268 -0.07776 0.06616
-0.1415 0.02162 0.1407 -0.012146 -0.0907 0.00799 -0.1617 -0.09283
-0.1118 -0.01198 -0.03186 -0.01094 0.0158 0.09735 -0.0616 0.007656
0.03314 0.06604 -0.0744 -0.02689 0.0642 0.027 0.05203 -0.0363
-0.00622 0.02293 -0.00195 -0.0565 -0.00791 0.000655 -0.014 -0.02478
-0.004356 -0.000736 -0.03436 -0.10785 -0.03748 -0.002245 -0.01448 0.04813
-0.01346 -0.0144 -0.00206 -0.09503 0.007576 0.000548 0.02473 -0.013596
-0.0375 -0.0006533 -0.003918 -0.0815 -0.05673 -0.003477 -0.11646 0.01985
0.00419 0.02336 -0.002043 -0.0579 0.010635 0.0006113 0.0847 -0.01542
-0.0822 -0.000521 0.0547 -0.06464 -0.01092 -0.003693 -0.11554 -0.0367
0.03287 0.04636 -0.002018 -0.07544 -0.0009313 0.0008454 0.0745 -0.02434
-0.1758 -0.0003886 0.0448 -0.01411 -0.0347 -0.002872 -0.04388 0.04153
00000000: 26aa 6a29 45a0 f2a9 98ac d821 2f24 a1a7
00000010: 481d d1ac e230 231c ed9c 9e2b 83b0 ab29
00000020: 10b3 f9b4 3fac 322a 322d 73ac df30 a9af
00000030: d6a5 1ba7 80a7 96af b6a0 f725 372d ad31
00000040: 7cb0 1cb0 f829 a1b3 f524 36b1 eb1e ad1c
00000050: 5030 b420 4e26 7d29 faab 6da9 25a8 5dae
00000060: 08b1 ffb0 762f f8ad 3a26 06a4 14a0 e8a6
00000070: e1b1 91a9 45ad 3929 32af 02ac 35ac 49a8
00000080: 04ad fbab 9522 9faf f0a9 1fb4 242a fb2d
00000090: bba7 ceac e9b3 2329 30b1 5922 19b2 18b3
000000a0: f32c faad 5fa5 30b0 612b a1ad 049c 81a4
000000b0: 9ca9 f6af 43b2 112d deac cdaf 831e 692f
000000c0: 732d 8eab c6a9 41a2 922c d69f a2ae 48b1
000000d0: e22c 3a29 5fae 9825 6528 b231 6296 0baa
000000e0: d3ab cea2 fb2d 27ad b91f 20aa 6b2f b62d
000000f0: f126 061f eeaa 8828 8c2a 5730 51a5 8131
00000100: 1329 3930 c32d a2af c8af a829 72b0 1925
00000110: ce2e c0a9 049a d2aa 5129 8caa d62b 752c
00000120: 8f2e 8eab 49a8 059f 43a8 5e31 5db1 98b0
00000130: 9bb0 35ac 7d30 7eb0 e8a6 f0a6 5a29 d8a7
00000140: 8f82 6d1e 0796 d131 550c 0fb0 faac 3c2c
00000150: 87b0 8925 8130 38a2 cead 1720 2db1 f1ad
00000160: 28af 22a2 14a8 9aa1 0b24 3b2e e3ab d71f
00000170: 3e28 3a2c c3ac e2a6 1c2c e926 a92a a5a8
00000180: 5f9e df25 fd97 3bab 0da0 5e11 2ba3 58a6
00000190: 769c 0892 66a8 e7ae cca8 9998 6aa3 292a
000001a0: e4a2 5fa3 3898 15ae c21f 7d10 5526 f6a2
000001b0: cda8 5a91 039c 37ad 43ab 1f9b 74af 1525
000001c0: 4a1c fb25 2f98 69ab 7221 0211 6c2d e5a3
000001d0: 43ad 4590 002b 23ac 97a1 909b 65af b3a8
000001e0: 3528 ef29 2298 d4ac a193 ed12 c52c 3ba6
000001f0: a0b1 5e8e bc29 39a3 71a8 e299 9ea9 5129

model/lstm/while/lstm_cell/MatMul_1 f2 [32, 1152]
-0.06104 0.1849 -0.06915 -0.03427 -0.1108 0.0858 -0.03079 -0.10223
0.03934 0.0751 -0.0374 0.02141 -0.0535 -0.0003216 0.03326 0.0318
0.05252 0.1283 -0.1012 0.1301 0.0008025 0.1178 0.0648 -0.1702
-0.04745 -0.02733 0.02536 0.03534 0.02664 -0.01008 0.019 0.1652
0.006237 -0.0881 -0.01368 -0.1225 0.014885 -0.04504 -0.1288 0.1477
-0.02939 -0.06726 -0.06158 -0.10657 -0.12067 -0.05603 -0.0917 -0.0525
-0.2129 -0.09924 0.0222 -0.1251 -0.0601 -0.12036 -0.0414 0.1907
-0.0644 0.0801 -0.04367 0.0791 -0.05576 -0.3135 -0.1283 0.2401
0.012794 -0.05884 -0.07416 -0.04785 -0.003113 -0.05203 0.01735 -0.07025
0.0886 0.001818 -0.06696 -0.01481 -0.0664 -0.02197 0.02377 -0.0195
-0.03287 0.0732 0.0019455 0.0003686 0.06744 -0.02118 -0.05865 -0.0787
0.001582 0.06198 0.012474 0.0824 0.074 0.0306 -0.03802 -0.04724
-0.02197 -0.05972 0.118 0.08435 -0.03967 -0.0184 0.01244 0.02795
-0.06696 0.01272 0.0674 0.02087 -0.04825 -0.02469 0.0687 0.0865
0.02597 -0.03314 0.02625 0.2087 0.05896 0.01493 -0.0382 0.10754
-0.02274 -0.0648 0.12006 -0.01177 0.07776 0.007072 -0.004337 0.0245
-0.1533 -0.1917 0.07947 -0.05728 -0.05573 -0.0002916 -0.01668 0.3892
-0.03635 -0.0001813 -0.2319 -0.02681 -0.004047 0.11237 -0.04788 -0.0842
-0.1711 -0.2542 0.05704 -0.09894 0.02824 -0.06946 -0.03848 0.07196
-0.16 -0.005375 0.007248 -0.2876 -0.0326 -0.2145 -0.0949 -0.2903
-0.1838 0.0258 0.02626 0.1332 -0.09515 0.004288 -0.02359 -0.04388
0.06586 0.0345 -0.2104 0.06396 -0.0048 -0.00777 0.0534 -0.10583
-0.04236 0.06046 0.00325 0.03069 -0.000567 0.2646 0.1931 -0.0875
0.1979 0.0646 0.0856 -0.007633 -0.0692 0.06665 0.06476 -0.05408
-0.0302 -0.04456 -0.006893 0.01486 0.02399 0.0002086 -0.001226 0.03323
-0.01706 -0.0045 0.009056 -0.002394 0.0382 0.00948 0.01753 0.004017
-0.01426 -0.003012 -0.006714 -0.02739 0.02686 7.58e-05 -0.02061 0.04108
0.02008 -0.004715 -0.0009074 0.009796 -0.03894 0.0094 0.0411 0.0404
-0.02145 -0.0969 -0.00663 -0.004116 0.03305 -0.0001005 0.01151 0.05338
-0.02362 -0.004868 0.009995 -0.002682 -0.0852 0.00929 -0.03766 -0.00726
0.004547 -0.0629 -0.00679 -0.00747 0.0466 -2.44e-06 0.02719 0.02013
-0.03348 -0.004864 0.00448 0.00989 -0.05487 0.0095 -0.0335 -0.05615
00000000: d0ab eb31 6dac 63a8 17af 7e2d e2a7 8bae
00000010: 0929 ce2c caa8 7b25 d9aa 458d 4228 1228
00000020: b92a 1b30 7aae 2a30 9312 8a2f 262c 72b1
00000030: 13aa ffa6 7e26 8628 d226 29a1 dd24 4931
00000040: 631e a3ad 01a3 d7af 9f23 c4a9 1fb0 ba30
00000050: 86a7 4eac e2ab d2ae b9af 2cab dead b8aa
00000060: d0b2 5aae af25 01b0 b1ab b4af 4da9 1a32
00000070: 1fac 202d 97a9 102d 23ab 04b5 1bb0 af33
00000080: 8d22 88ab bfac 20aa 609a a9aa 7124 7fac
00000090: ac2d 7217 49ac 95a3 40ac a0a5 1626 fea4
000000a0: 35a8 af2c f817 0a0e 512c 6ca5 82ab 09ad
000000b0: 7b16 ef2b 6322 462d bc2c d527 dea8 0caa
000000c0: a0a5 a5ab 8d2f 662d 14a9 b6a4 5f22 2827
000000d0: 49ac 8322 502c 5825 2daa 52a6 662c 892d
000000e0: a626 3ea8 b826 ae32 8c2b a523 e4a8 e22e
000000f0: d2a5 26ac af2f 07a2 fa2c 3e1f 719c 4626
00000100: e8b0 22b2 162d 55ab 22ab c78c 45a4 3a36
00000110: a7a8 f189 6cb3 dda6 259c 312f 21aa 64ad
00000120: 7ab1 11b4 4d2b 55ae 3b27 72ac eda8 9b2c
00000130: 1fb1 819d 6c1f 9ab4 2ca8 ddb2 13ae a5b4
00000140: e2b1 9b26 b926 4330 17ae 641c 0aa6 9ea9
00000150: 372c 6a28 bcb2 182c ea9c f59f d62a c6ae
00000160: 6ca9 bd2b a81a db27 a590 3c34 2e32 9aad
00000170: 5532 222c 7a2d d19f 6eac 442c 252c ecaa
00000180: bba7 b4a9 0f9f 9c23 2426 d60a 0695 4128
00000190: 5ea4 9c9c a320 e798 e428 db20 7d24 1d1c
000001a0: 4da3 2b9a e09e 03a7 e026 f804 47a5 4229
000001b0: 2425 d49c 6f93 0421 fca8 d020 4329 2c29
000001c0: 7ea5 34ae ca9e 379c 3b28 9686 e521 d52a
000001d0: 0ca6 fc9c 1e21 7e99 74ad c220 d2a8 6f9f
000001e0: a81c 07ac f49e a69f f729 2980 f626 2725
000001f0: 49a8 fb9c 961c 1021 06ab dd20 4aa8 30ab
